baselines/CPI/CPI-GNN/results/model/model_fold4.pt (torch, 605575 bytes, 21 tensors)

embed_fingerprint.weight f4 [6239, 10]
6.35727e-39 6.925443e-39 -7.87715e-40 4.105e-41 8.7831e-40 3.2276e-39 -6.127197e-39 5.943542e-39
-6.670982e-39 6.886835e-39 -4.313213e-39 -6.89361e-39 -1.22069e-39 -6.759541e-39 -2.660993e-39 -1.371218e-39
-3.76466e-40 -6.625923e-39 5.052583e-39 6.302771e-39 6.554261e-39 -2.04515e-39 6.807336e-39 -6.635793e-39
-3.68108e-39 -1.071801e-39 4.877912e-39 3.404861e-39 -1.51084e-40 5.051918e-39 1.129725e-39 -6.687227e-39
-4.320926e-39 8.23263e-40 -5.93664e-39 -4.021193e-39 2.433932e-39 6.871294e-39 -6.764321e-39 -5.091685e-39
5.182288e-39 -5.863656e-39 2.49085e-40 -6.825966e-39 -4.47935e-39 1.894592e-39 1.879329e-39 -9.17848e-40
-3.232724e-39 -4.959031e-39 -6.275338e-39 -3.08001e-39 -4.261325e-39 7.00152e-39 6.939775e-39 5.986952e-39
3.938857e-39 -5.654545e-39 -4.615583e-39 -6.779171e-39 6.85217e-39 6.904303e-39 -5.07787e-40 -1.824471e-39
-2.791286e-39 -5.59979e-39 6.825317e-39 -4.13307e-39 6.905125e-39 4.946254e-39 0.33375987 1.2590152
-0.9658387 -1.0049016 -1.0536482 0.8047357 0.32403854 -0.43622375 0.110485755 0.38267127
0.7541384 2.728882 0.57426107 -0.51505697 -1.6524203 -0.1367161 0.9308635 -0.8680618
1.0131493 0.7979873 -0.90088373 -0.40575847 0.4823395 -1.0268465 1.6573067 -1.1052263
-1.6857336 0.07565676 -1.1636822 -0.06798168 -0.5727102 -0.96667695 0.31345204 1.0371685
-0.07979671 1.0750394 -0.015132323 -0.81388867 0.7592366 0.13567278 -0.31504172 -0.13001122
0.2990934 0.5529046 -0.0848432 0.4984406 0.11268438 -0.6479943 0.2157274 0.054543186
-0.7471109 0.17394628 -1.5459124 0.4653821 -0.3865978 0.24036677 0.06626792 1.7720078
0.52152324 -0.8983464 -0.6150001 -0.82876796 -1.2701869 0.89095795 -0.39375198 -1.3361866
0.62181413 -1.0566542 -0.11645782 0.6113775 -0.08226936 -0.072922334 -1.5997338 1.2400637
-0.17199934 -0.047569647 0.69863814 0.91002035 0.7643602 -0.8467525 3.8096e-40 3.753543e-39
-4.310921e-39 -6.015626e-39 3.733711e-39 -4.772348e-39 -5.945618e-39 6.87607e-40 -1.010811e-39 6.51764e-39
3.61167e-39 6.579028e-39 -6.996886e-39 3.036432e-39 -6.461696e-39 -5.772713e-39 -3.54671e-39 3.324051e-39
-6.59749e-39 4.10778e-40 1.037083e-39 -6.671007e-39 -3.437092e-39 3.52355e-39 5.18585e-39 2.819337e-39
-2.354854e-39 2.068901e-39 5.56216e-39 -6.702052e-39 1.710376e-39 1.184767e-39 -2.929882e-39 -5.165693e-39
4.02939e-40 6.758007e-39 -6.783691e-39 -9.78242e-40 2.215048e-39 3.51094e-39 -3.251434e-39 2.552988e-39
4.673106e-39 3.129577e-39 -1.309135e-39 -1.639162e-39 -6.757697e-39 4.414733e-39 4.366164e-39 6.66413e-40
5.960869e-39 -2.379288e-39 -4.516292e-39 -2.777718e-39 5.083301e-39 3.633585e-39 6.763213e-39 -5.461238e-39
6.472074e-39 6.821657e-39 6.861201e-39 8.58249e-40 -2.739663e-39 6.429749e-39 -4.049477e-39 5.921622e-39
1.010244e-39 -2.668477e-39 6.421936e-39 2.067651e-39 -6.087042e-39 -3.378378e-39 -6.849875e-39 -5.445586e-39
4.13336e-39 2.77229e-39 -4.852537e-39 -1.765312e-39 -3.040563e-39 -5.151371e-39 2.655313e-39 -1.711074e-39
-6.435878e-39 -6.333771e-39 1.971885e-39 -4.124027e-39 6.462555e-39 2.818069e-39 4.825863e-39 4.450078e-39
3.985768e-39 5.299003e-39 -2.847413e-39 2.567133e-39 6.196497e-39 4.410075e-39 1.250473e-39 -2.019348e-39
5.457679e-39 -2.53561e-40 7.86396e-40 4.28267e-39 -4.83609e-39 -1.895834e-39 -4.52132e-39 -6.38996e-39
00000000: 7b39 4500 5169 4b00 d493 0880 6e72 0000
00000010: 5f90 0900 3c25 2300 22b8 4280 2db8 4000
00000020: fca3 4880 b2fd 4a00 7cf7 2e80 9410 4b80
00000030: c94a 0d80 da9a 4980 c4f9 1c80 66ee 0e80
00000040: 6f19 0480 6126 4880 8c04 3700 90a1 4400
00000050: 9d5e 4700 0c45 1680 1520 4a00 e441 4880
00000060: 5a15 2880 bfab 0b80 a21d 3500 5e13 2500
00000070: 29a5 0180 b102 3700 374d 0c00 45d1 4880
00000080: fc0c 2f80 ecf6 0800 f0a4 4080 73c9 2b80
00000090: d080 1a00 5fd2 4a00 2da8 4980 8c71 3780
000000a0: 1c6e 3800 7dd9 3f80 59b6 0200 0454 4a80
000000b0: 9bc6 3080 5aa1 1400 ce76 1400 96fe 0980
000000c0: 8533 2380 c3ff 3580 1755 4480 d189 2180
000000d0: d766 2e80 643d 4c00 4591 4b00 3031 4100
000000e0: eee3 2a00 9292 3d80 5e42 3280 92d1 4980
000000f0: 109d 4a00 632e 4b00 8187 0580 e2dd 1380
00000100: f864 1e80 f0f9 3c80 3552 4a00 5101 2d80
00000110: ae30 4b00 25dc 3500 93e2 aa3e 6927 a13f
00000120: 3441 77bf 9ea0 80bf f2dd 86bf 2903 4e3f
00000130: 61e8 a53e b858 dfbe 5b46 e23d 7ded c33e
00000140: 370f 413f 01a6 2e40 c602 133f c6da 03bf
00000150: 8282 d3bf 4eff 0bbe 124d 6e3f 4c39 5ebf
00000160: e0ae 813f e548 4c3f 51a0 66bf 93bf cfbe
00000170: 34f5 f63e b56f 83bf a022 d43f 0e78 8dbf
00000180: 1ec6 d7bf eef1 9a3d 8af3 94bf fb39 8bbd
00000190: 239d 12bf 2478 77bf c97c a03e f0c1 843f
000001a0: 756c a3bd e49a 893f 90ed 77bc 025b 50bf
000001b0: 545d 423f ceed 0a3e 264d a1be a921 05be
000001c0: c522 993e 288b 0d3f 46c2 adbd 9b33 ff3e
000001d0: 11c7 e63d f4e2 25bf a5e7 5c3e ad68 5f3d
000001e0: a942 3fbf f91e 323e 75e0 c5bf 9046 ee3e
000001f0: 26f0 c5be b522 763e 7ab7 873d 27d1 e23f
00000200: 8c82 053f 08fa 65bf a670 1dbf 232a 54bf
00000210: 7c95 a2bf d215 643f dc99 c9be 2a08 abbf
00000220: 362f 1f3f 7240 87bf 7081 eebd 3c83 1c3f
00000230: d77c a8bd 4e58 95bd 14c4 ccbf 68ba 9e3f
00000240: 9820 30be 64d8 42bd f3d9 323f 18f7 683f
00000250: 1cad 433f c6c4 58bf f625 0400 5adf 2800
00000260: 18f1 2e80 1e81 4180 11a8 2800 5df7 3380
00000270: f7bd 4080 c57c 0700 bb01 0b80 87f8 4600
00000280: de53 2700 a7a3 4700 7930 4c80 5610 2100
00000290: 945c 4680 fadb 3e80 c99e 2680 1a32 2400
000002a0: 1ed7 4780 1579 0400 f74a 0b00 0ea4 4880
000002b0: 376d 2580 395e 2600 0a78 3800 2ab3 1e00
000002c0: 60a4 1980 4187 1600 0a91 3c00 98fa 4880
000002d0: d59f 1200 a6e6 0c00 52e7 1f80 da3f 3880
000002e0: 3b63 0400 9396 4900 2cde 4980 f1a6 0a80
000002f0: a71e 1800 133b 2600 ad67 2380 b1cc 1b00
00000300: b8e2 3200 fd13 2200 5641 0e80 51d9 1180
00000310: b695 4980 7b12 3000 178b 2f00 b041 0700
00000320: 7ae8 4000 7de8 1980 962d 3180 263f 1e80
00000330: 2d5a 3700 f590 2700 16a5 4900 b677 3b80
00000340: 8279 4600 0148 4a00 3db6 4a00 7358 0900
00000350: 11d5 1d80 8603 4600 4b18 2c80 137b 4000
00000360: 2600 0b00 a10e 1d80 bfed 4500 c583 1600
00000370: 3248 4280 8bc9 2480 aa96 4a80 144c 3b80
00000380: 2002 2d00 0430 1e00 e6d6 3480 f938 1380
00000390: da1b 2180 ed17 3880 efe9 1c00 c7a1 1280
000003a0: 9c14 4680 faf7 4480 d078 1500 1ce8 2c80
000003b0: f95e 4600 a1af 1e00 8b8c 3400 0275 3000
000003c0: b366 2b00 77b3 3900 6e01 1f80 1ff4 1b00
000003d0: 5079 4300 7f05 3000 cf9d 0d00 1ffd 1580
000003e0: ca6d 3b00 d3c2 0280 2790 0800 57a2 2e00
000003f0: 0da9 3480 d0a4 1480 9a3b 3180 9c94 4580

embed_word.weight f4 [8374, 10]
0.19794415 0.20651597 0.22932974 0.25163972 0.23837298 0.21881457 0.20173511 0.18838927
0.173561 0.20921421 0.08116479 0.078725785 0.07915381 0.07318569 0.066577554 0.0602835
0.036450252 0.02823147 0.013994184 0.039529797 -0.016831085 -0.023723213 -0.038985655 -0.051391732
-0.052907374 -0.0569868 -0.05551293 -0.055321075 -0.0532608 -0.04196281 0.029995088 0.03855935
0.05471465 0.05709265 0.05445703 0.05427105 0.08665308 0.13156939 0.14446613 0.11800069
-0.08178305 -0.104313105 -0.07196109 -0.05724871 -0.0445119 -0.01853531 0.011703743 0.0005040274
-0.024178343 -0.05289363 0.045280684 0.052030027 0.047621045 0.038230654 0.028199213 0.018581698
0.010923997 0.012261355 0.01160276 0.08229797 -0.09717115 -0.1145745 -0.10394792 -0.10318098
-0.10225565 -0.097251624 -0.092231795 -0.08976433 -0.09236744 -0.10923644 -0.0479627 -0.048505954
-0.050935466 -0.053820048 -0.058558665 -0.06212204 -0.034404676 -0.025331287 -0.019913344 -0.0016151954
-0.00968417 -0.022114307 -0.009921982 -0.016521642 -0.015478597 -0.0067811115 0.010158991 0.03423084
0.037899673 0.050775968 0.06535834 0.10768547 0.095068984 0.09392113 0.102227226 0.13336962
0.15970702 0.10994319 0.09482171 0.13944946 0.017985221 -0.003978675 0.04083134 0.045358263
0.053696305 0.05663499 0.07624003 0.08395745 0.095225 0.10988572 0.19156848 0.15415692
0.18783031 0.1846632 0.17523526 0.19164744 0.18090734 0.20722193 0.20041569 0.2434274
0.03806775 0.03128244 0.07049225 0.07039444 0.0581821 0.06675126 0.0750975 0.10701649
0.11109565 0.12358022 0.12743449 0.12849121 0.14025305 0.13456339 0.12703224 0.12725525
0.16606636 0.16943862 0.16735496 0.18583086 -0.10187803 -0.12650625 -0.14030375 -0.15982565
-0.1745193 -0.1748693 -0.15842201 -0.13848099 -0.12778756 -0.07809777 0.066403195 0.042211555
0.060012102 0.05558857 0.042449318 0.048139367 0.087101206 0.12827379 0.14364439 0.15659985
0.28906068 0.286671 0.3242706 0.32656822 0.33658156 0.32440165 0.2895926 0.32486972
0.32147804 0.3743283 0.38895148 0.3729833 0.36373505 0.35780284 0.33736813 0.32303312
0.32046366 0.3422419 0.32779208 0.380611 0.062423985 0.03665228 0.016613007 0.008247524
0.0076130074 0.012047883 0.003301778 0.009260587 0.008798684 0.022306446 0.1875775 0.16502428
0.21075352 0.21293874 0.19641599 0.19467847 0.20600557 0.21821631 0.21376841 0.24183847
0.041124947 0.048049282 0.06926895 0.063138545 0.058096956 0.061056353 0.07388322 0.1034743
0.09963161 0.12485579 0.24865955 0.20829146 0.22931665 0.21694572 0.20405413 0.21492933
0.25246218 0.2742443 0.27441803 0.30240443 0.015209582 -0.031818703 -0.021552844 -0.018694352
-0.012875565 -0.013131628 -0.0029921117 -0.021790316 -0.014031983 0.0031437757 0.24082191 0.14942501
0.18095857 0.1831788 0.156913 0.16739579 0.15085764 0.24661852 0.266897 0.33548987
0.122788124 0.0914739 0.06218918 0.046862416 0.039560463 0.032310314 0.023917425 0.030294213
0.019800175 0.029036436 0.12537971 0.057976477 0.04950236 0.030415561 0.018374616 0.018196745
00000000: dfb1 4a3e ec78 533e 6ad5 6a3e ecd6 803e
00000010: 0c18 743e ed10 603e a693 4e3e 1ee9 403e
00000020: fab9 313e 403c 563e ba39 a63d fc3a a13d
00000030: 651b a23d 61e2 953d d059 883d d5eb 763d
00000040: dc4c 153d af45 e73c dd47 653c ffe9 213d
00000050: 58e1 89bc 2f57 c2bc 6caf 1fbd 2380 52bd
00000060: 67b5 58bd fe6a 69bd 8761 63bd 5a98 62bd
00000070: ff27 5abd 32e1 2bbd 42b8 f53c 69f0 1d3d
00000080: 781c 603d fcd9 693d 560e 5f3d 524b 5e3d
00000090: 2c77 b13d 20ba 063e eeee 133e 59aa f13d
000000a0: df7d a7bd 1ca2 d5bd 5660 93bd a07d 6abd
000000b0: 1c52 36bd 5dd7 97bc 0ec1 3f3c b520 043a
000000c0: a911 c6bc fea6 58bd 3d78 393d 701d 553d
000000d0: 490e 433d bf97 1c3d 0902 e73c a538 983c
000000e0: 90fa 323c dae3 483c 8119 3e3c d78b a83d
000000f0: ab01 c7bd 09a6 eabd a6e2 d4bd 8d50 d3bd
00000100: 696b d1bd dc2b c7bd 06e4 bcbd 5cd6 b7bd
00000110: 242b bdbd 5bb7 dfbd 8974 44bd 2eae 46bd
00000120: b5a1 50bd 6972 5cbd 36db 6fbd ae73 7ebd
00000130: ebeb 0cbd 8f83 cfbc 4f21 a3bc f7b4 d3ba
00000140: 5aaa 1ebc 1029 b5bc cf8f 22bc 6558 87bc
00000150: f199 7dbc 1634 debb e671 263c a335 0c3d
00000160: b03c 1b3d 76fa 4f3d 98da 853d 338a dc3d
00000170: 87b3 c23d b959 c03d 825c d13d 0c92 083e
00000180: 3d8a 233e e529 e13d e231 c23d d7cb 0e3e
00000190: be55 933c 8c5f 82bb c33e 273d 96c9 393d
000001a0: a8f0 5b3d 17fa 673d bc23 9c3d e2f1 ab3d
000001b0: 5305 c33d c40b e13d 872a 443e 50db 1d3e
000001c0: 9756 403e 5a18 3d3e df70 333e 3a3f 443e
000001d0: c63f 393e fc31 543e c539 4d3e 0845 793e
000001e0: eeec 1b3d 0422 003d 3e5e 903d f62a 903d
000001f0: 5b50 6e3d e2b4 883d b8cc 993d 762b db3d
00000200: 1e86 e33d a017 fd3d 307e 023e 3393 033e
00000210: 7f9e 0f3e fcca 093e bd14 023e 334f 023e
00000220: 4d0d 2a3e 5181 2d3e 195f 2b3e 724a 3e3e
00000230: 6ea5 d0bd db8a 01be c9ab 0fbe 56a9 23be
00000240: 30b5 32be f010 33be 6139 22be f6cd 0dbe
00000250: beda 02be b9f1 9fbd 66fe 873d 06e6 2c3d
00000260: 40cf 753d d7b0 633d 56df 2d3d c92d 453d
00000270: 1e62 b23d 345a 033e 8417 133e b65b 203e
00000280: c3ff 933e 8bc6 923e cc06 a63e f333 a73e
00000290: 6b54 ac3e f917 a63e 7b45 943e 5355 a63e
000002a0: c598 a43e f5a7 bf3e a624 c73e abf7 be3e
000002b0: 7b3b ba3e ef31 b73e 84bb ac3e 9964 a53e
000002c0: d013 a43e 553a af3e 5dd4 a73e 72df c23e
000002d0: 4bb0 7f3d b320 163d 0018 883c 9f20 073c
000002e0: 8976 f93b 7c64 453c a562 583b b8b9 173c
000002f0: 5b28 103c 02bc b63c 5114 403e 20fc 283e
00000300: c5cf 573e 9d0c 5a3e 4621 493e cb59 473e
00000310: 20f3 523e 1974 5f3e 1be6 5a3e 81a4 773e
00000320: a272 283d 53cf 443d e1dc 8d3d c84e 813d
00000330: 13f7 6d3d 3a16 7a3d 1650 973d 55ea d33d
00000340: a80b cc3d 64b4 ff3d 9ca0 7e3e 5b4a 553e
00000350: fcd1 6a3e 0527 5e3e 91f3 503e 6f16 5c3e
00000360: b942 813e c069 8c3e 8580 8c3e c1d4 9a3e
00000370: 9c31 793c 5454 02bd 978f b0bc e624 99bc
00000380: 09f4 52bc 0a26 57bc 4e17 44bb 9b81 b2bc
00000390: 67e6 65bc ce07 4e3b 059a 763e df02 193e
000003a0: 344d 393e 3993 3b3e cdad 203e cd69 2b3e
000003b0: 6d7a 1a3e 9189 7c3e b9a6 883e 54c5 ab3e
000003c0: 5778 fb3d ab56 bb3d 15ba 7e3d cef2 3f3d
000003d0: 270a 223d d257 043d 7aee c33c 922b f83c
000003e0: fa33 a23c d2dd ed3c 8a63 003e be78 6d3d
000003f0: fdc2 4a3d 0e2a f93c 5d86 963c 5711 953c

W_gnn.0.weight f4 [10, 10]
-0.20877972 -0.13804825 -0.26193395 0.3837293 -0.52621526 0.23358236 0.09899955 0.06657028
-0.5078859 -0.12925895 0.4682447 -0.26334235 0.9711639 -0.15969972 0.11905653 0.11926914
0.23199935 0.5173227 0.17529392 0.0138591 -0.25807825 -0.23778583 0.43589303 -0.41754445
-0.22724523 -0.59709704 -0.7411656 0.3486407 -0.41508532 0.024422737 -0.12827104 -0.04018464
0.5703651 0.24997802 0.12115429 0.77998936 0.6408379 -0.5033656 0.36815232 0.020115692
0.5109016 -0.45212126 0.57004935 -0.3386211 0.1878089 -0.57752687 0.56664056 -0.15608676
0.37672773 -0.25923237 -0.26812518 -0.18694122 0.24446622 -0.20695977 -0.0700126 0.003915685
-0.25913525 -0.09428302 0.12522937 -0.027380072 -0.08642041 -0.112948716 -0.063853525 -0.2880792
0.2997964 0.42143095 -0.008795335 0.2097034 0.19025412 -0.13578019 -0.08269584 -0.18947646
-0.16521938 -0.43284586 -0.37912467 -0.036774054 -0.24902791 0.3806174 0.27006254 -0.028150752
-0.32168475 -0.27427432 0.15036796 -0.46288854 -0.11848479 -0.19658405 -0.16953294 0.28600684
-0.15753244 0.17620577 -0.17404172 -0.20720051 -0.064817384 -0.51348364 0.059053287 -0.3548106
-0.46557367 0.1815831 -0.31316164 0.24438488
00000000: 5aca 55be 855c 0dbe 351c 86be 2b78 c43e
00000010: 0bb6 06bf 3730 6f3e 47c0 ca3d 0056 883d
00000020: cf04 02bf 755c 04be c5bd ef3e cfd4 86be
00000030: 339e 783f 5388 23be e9d3 f33d 6143 f43d
00000040: 3d91 6d3e 436f 043f 4080 333e 4711 633c
00000050: d522 84be 217e 73be 5f2d df3e 63c8 d5be
00000060: f9b2 68be 5adb 18bf 07bd 3dbf 0981 b23e
00000070: 1086 d4be 3112 c83c 7c59 03be a698 24bd
00000080: 7203 123f 3dfa 7f3e be1f f83d 62ad 473f
00000090: f40d 243f 91dc 00bf 767e bc3e aac9 a43c
000000a0: 72ca 023f 707c e7be c1ee 113f bf5f adbe
000000b0: fa50 403e cdd8 13bf 5b0f 113f 35d5 1fbe
000000c0: 75e2 c03e 1bba 84be b447 89be 856d 3fbe
000000d0: 5a55 7a3e 43ed 53be c462 8fbd 264f 803b
000000e0: 60ad 84be 7517 c1bd 213c 003e 2c4c e0bc
000000f0: 2ffd b0bd a851 e7bd a3c5 82bd 1e7f 93be
00000100: ea7e 993e ccc5 d73e 4f1a 10bc 7dbc 563e
00000110: fad1 423e f609 0bbe 705c a9bd 1e06 42be
00000120: 452f 29be f99d ddbe a11c c2be 64a0 16bd
00000130: 2c01 7fbe 49e0 c23e a345 8a3e 689c e6bc
00000140: ddb3 a4be af6d 8cbe 0ffa 193e baff ecbe
00000150: 27a8 f2bd 544d 49be 0b9a 2dbe 7d6f 923e
00000160: 2f50 21be 496f 343e fe37 32be 5f2c 54be
00000170: fabe 84bd aa73 03bf dce1 713d bca9 b5be
00000180: ac5f eebe ecf0 393e b956 a0be 0840 7a3e

W_gnn.0.bias f4 [10]
-0.15167014 0.09926309 0.21410193 -0.21977742 0.14517736 0.04066981 0.055660173 -0.27209038
0.08107548 0.10598099
00000000: 6b4f 1bbe 724a cb3d 893d 5b3e 550d 61be
00000010: 60a9 143e 6395 263d ecfb 633d 6e4f 8bbe
00000020: e70a a63d 900c d93d

W_gnn.1.weight f4 [10, 10]
0.08637167 -0.0012015144 -0.031979565 -0.16062444 -0.47509897 0.12419076 -0.51987636 0.2877088
-0.045034446 -0.11497071 -0.06749388 0.048201814 -0.17469256 -0.06406334 -0.24451613 -0.062494587
0.07293924 -0.43061668 -0.32596713 -0.024031237 -0.20770907 -0.5471113 0.22116 0.13582733
-0.42213875 0.1180318 0.444972 -0.11700344 0.00086618325 -0.21496862 -0.19287553 -0.9420171
0.57824475 0.13782677 0.06846341 0.19008474 -0.2289257 -0.07708467 0.060183078 -0.024081377
-0.2505564 0.37557495 -0.2694756 -0.15162262 0.4744118 0.00875101 0.28057128 -0.05701398
0.2035066 -0.84859043 -0.33130413 -0.5175289 -0.1815266 -0.31779772 -0.15678354 0.13357684
0.29217815 -0.29280674 0.14873643 -0.15021311 -0.078920014 0.0431346 0.056797266 -0.41672328
-0.06381551 -0.1542206 -0.14770742 0.16229232 0.18756248 -0.2598935 0.12618062 -0.57628435
0.12988943 -0.054180924 0.12810491 -0.1018696 -0.36930653 -0.18188296 0.29513627 -0.011739524
0.056221098 -0.41037083 0.42675748 0.6011299 -0.47770122 -0.07566822 0.11323115 -0.2961994
0.15813309 -0.007611781 -0.61555356 -0.6017783 0.5985279 -0.13637434 0.096573055 -0.19409071
-0.6328648 0.19122171 0.34678233 0.10503375
00000000: a1e3 b03d 227c 9dba 01fd 02bd bc7a 24be
00000010: 2c40 f3be ba57 fe3d 9e16 05bf 914e 933e
00000020: 0a76 38bd c375 ebbd 3b3a 8abd 446f 453d
00000030: 9be2 32be a433 83bd 7062 7abe 53fa 7fbd
00000040: 2b61 953d ca79 dcbe 2ae5 a6be 28dd c4bc
00000050: b0b1 54be 7c0f 0cbf c477 623e 5216 0b3e
00000060: 9222 d8be a8ba f13d 5fd3 e33e 809f efbd
00000070: 9310 633a bc20 5cbe 2a81 45be 0828 71bf
00000080: d907 143f 7622 0d3e 8b36 8c3d 93a5 423e
00000090: 806b 6abe 91de 9dbd 8882 763d 4f46 c5bc
000000a0: ee48 80be 5c4b c03e b5f8 89be f642 1bbe
000000b0: 1ae6 f23e 6560 0f3c 0aa7 8f3e 7e87 69bd
000000c0: 0964 503e 393d 59bf b2a0 a9be c67c 04bf
000000d0: 1ce2 39be 62b6 a2be dd8b 20be 5ec8 083e
000000e0: 6098 953e c4ea 95be 5d4e 183e 77d1 19be
000000f0: d1a0 a1bd e8ad 303d 40a4 683d c15c d5be
00000100: b5b1 82bd 01ec 1dbe 9d40 17be f52f 263e
00000110: 6110 403e c310 85be 7e35 013e 5f87 13bf
00000120: bc01 053e d1ec 5dbd ef2d 033e 02a1 d0bd
00000130: bf15 bdbe 873f 3abe 1a1c 973e 2257 40bc
00000140: 1848 663d 201c d2be f57f da3e a6e3 193f
00000150: 4195 f4be f1f7 9abd bce5 e73d 73a7 97be
00000160: a4ed 213e 3f6c f9bb eb94 1dbf 250e 1abf
00000170: 2039 193f b7a5 0bbe 18c8 c53d b7bf 46be
00000180: 6d03 22bf a0cf 433e 748d b13e ef1b d73d

W_gnn.1.bias f4 [10]
-0.23017138 -0.3861712 0.016538834 0.17331028 0.011145467 -0.030666973 -0.18187068 -0.14891487
0.33520448 -0.22627799
00000000: 0cb2 6bbe 3bb8 c5be 737c 873c 4078 313e
00000010: 7a9b 363c 4e39 fbbc 4f3c 3abe 247d 18be
00000020: ec9f ab3e 6bb5 67be

W_gnn.2.weight f4 [10, 10]
-0.105333276 0.3831404 -0.11716766 -0.22877091 0.5051603 -0.2807042 -0.23447374 0.15282449
0.21279268 -0.789384 -0.10322597 0.15340517 0.40815884 -0.20669304 -0.65057975 0.17443946
-0.01740704 0.08324197 -0.391443 0.04546783 0.26767325 -0.15306693 0.029677175 -0.41082907
-0.22174627 0.12750733 0.11773324 -0.15710364 -0.25913635 -0.3259775 -0.31757 -0.6876985
0.2662277 0.1554371 -0.33638495 0.3007549 -0.58484113 0.061028387 0.22272752 0.017072499
-0.3256206 0.28307647 -0.1544495 0.2115206 0.10963321 -0.44285485 -0.24581783 -0.92278534
-0.2386216 0.05694133 -0.058919743 -0.050483137 -0.04285932 -0.4169162 -0.3874442 -0.057820503
-0.4429214 -0.6383973 0.3335105 -0.009814562 -0.092458606 0.12770222 -0.34024495 -0.09884708
0.43729556 -0.51575255 -0.04186164 -0.26019517 -0.40740418 -0.3900197 0.23668367 -0.62600875
0.34168577 -0.0047005825 0.10248795 -0.21202175 -0.28104308 -0.24952875 0.13539718 0.16572309
-0.4638153 0.007736243 0.29178014 0.564706 -0.14981587 0.17780761 -0.070827276 0.11454243
0.43094352 0.57605785 0.095434085 -0.12576203 -0.06928021 0.2218435 -0.5506924 0.23718798
-0.13407955 -0.45469463 0.17181328 0.18806604
00000000: f9b8 d7bd fa2a c43e 99f5 efbd ec42 6abe
00000010: 2f52 013f 76b8 8fbe e219 70be 067e 1c3e
00000020: 53e6 593e 1215 4abf 2368 d3bd 3f16 1d3e
00000030: 32fa d03e 57a7 53be 658c 26bf 42a0 323e
00000040: 3599 8ebc c47a aa3d 386b c8be 7a3c 3a3d
00000050: 780c 893e 94bd 1cbe 8c1d f33c 3058 d2be
00000060: 7411 63be 4891 023e 201e f13d c7df 20be
00000070: 85ad 84be 86e6 a6be 8998 a2be 020d 30bf
00000080: ff4e 883e e72a 1f3e a63a acbe 8cfc 993e
00000090: 26b8 15bf e7f8 793d af12 643e a0db 8b3c
000000a0: beb7 a6be 66ef 903e 0228 1ebe db98 583e
000000b0: 6087 e03d dfbd e2be abb7 7bbe a93b 6cbf
000000c0: 3959 74be 503b 693d d455 71bd 68c7 4ebd
000000d0: 418d 2fbd 0a76 d5be 165f c6be 31d5 6cbd
000000e0: 98c6 e2be 016e 23bf e3c1 aa3e 42cd 20bc
000000f0: f05a bdbd 5fc4 023e 9634 aebe 5670 cabd
00000100: 34e5 df3e 5c08 04bf 1c77 2bbd 4d38 85be
00000110: 4897 d0be aab0 c7be 345d 723e 1c42 20bf
00000120: 70f1 ae3e 5807 9abb 34e5 d13d 3b1c 59be
00000130: e1e4 8fbe 7784 7fbe 8fa5 0a3e 50b3 293e
00000140: 3379 edbe 4f80 fd3b 3564 953e 9390 103f
00000150: 5569 19be 3313 363e e40d 91bd 3995 ea3d
00000160: a1a4 dc3e 8778 133f f272 c33d c3c7 00be
00000170: c8e2 8dbd f12a 633e 2dfa 0cbf 68e1 723e
00000180: 264c 09be bccd e8be d2ef 2f3e 6294 403e

W_gnn.2.bias f4 [10]
-0.06561116 -0.032066733 -0.0123074185 -0.090629734 -0.22902004 -0.012617959 -0.03814631 -0.16442744
-0.22000949 -0.32409343
00000000: 255f 86bd 6858 03bd 0ea5 49bc 159c b9bd
00000010: 3b84 6abe 8ebb 4ebc 4e3f 1cbd ab5f 28be
00000020: 2b4a 61be 93ef a5be

W_cnn.0.weight f4 [1, 1, 23, 23]
1.899742e-39 -1.34382e-40 0.23568498 0.11427434 0.11652093 0.018142397 -0.022634868 -0.034305423
-0.028783532 -0.0070234137 -0.040125705 0.043405734 0.04268015 0.03807201 0.035597645 0.021611867
0.037704866 0.04989345 0.07787479 0.068630844 0.12616853 1.645435e-39 -5.069881e-39 6.896951e-39
6.540879e-39 -0.23557444 -0.3566234 -0.3581698 -0.20801558 -0.21083947 -0.18491226 -0.16039099
-0.13157696 -0.19408734 0.010438454 0.015855705 0.022707256 0.025042765 0.019992677 0.03760965
0.050221384 0.078113586 0.06894657 0.12583122 5.753844e-39 -5.80204e-39 6.184016e-39 -3.678058e-39
-0.08091432 -0.26104483 -0.2851076 -0.16128723 -0.1771917 -0.16159335 -0.14969568 -0.12375971
-0.18082492 0.009049317 0.013550681 0.020538326 0.023274822 0.018981852 0.03774708 0.05038542
0.07826044 0.06896374 0.12549655 -2.83038e-39 -3.654595e-39 -1.156933e-39 5.50963e-40 0.054978635
-0.11843898 -0.1348313 -0.06384052 -0.089535944 -0.090440325 -0.08117657 -0.071706004 -0.11476425
0.020174842 0.023707198 0.02628073 0.028185468 0.020327652 0.03781507 0.050823558 0.07865825
0.06951591 0.12564465 -7.14532e-40 1.6802e-39 2.123182e-39 -1.317331e-39 0.26581088 0.14054172
0.13888815 0.033500038 -0.0057312082 -0.019192223 -0.011622169 0.0165572 -0.0013422652 0.060859784
0.050905757 0.037996482 0.035454586 0.021169659 0.036929384 0.050311405 0.07833496 0.069557875
0.1254587 5.410635e-39 1.559085e-39 1.777864e-39 4.94743e-39 0.32849076 0.24355678 0.22704162
0.064061515 0.02371894 0.00799552 0.015525703 0.055152617 0.039058868 0.09715773 0.08530365
0.05881032 0.04774949 0.022508321 0.036980577 0.050185207 0.07829287 0.069635585 0.12537704
-1.234936e-39 2.31825e-39 2.960665e-39 3.044702e-39 0.34990644 0.2665198 0.25262862 0.054913685
0.017665002 0.0026399773 0.011088839 0.05233545 0.03683776 0.08828154 0.079076156 0.05711615
0.051558554 0.02401944 0.037389945 0.05031053 0.07845511 0.06975655 0.12517044 1.332776e-39
-1.99532e-39 -3.183286e-39 -3.062894e-39 0.28332007 0.14196509 0.109147236 0.0270918 -0.011773794
-0.024600856 -0.017937183 0.0090481825 -0.007896287 0.064513974 0.054410204 0.040991776 0.03962368
0.02149723 0.03802665 0.050853204 0.078753725 0.070104584 0.12513928 5.17023e-40 -6.835552e-39
-1.205222e-39 2.256823e-39 -0.07569814 -0.18886264 -0.18527246 -0.04666898 -0.06864015 -0.07373512
-0.06945096 -0.06061937 -0.09963069 0.027112646 0.02994298 0.030994052 0.031061875 0.020390494
0.037833184 0.051365294 0.07893893 0.07014013 0.12489247 6.777143e-39 -5.521189e-39 4.542327e-39
-4.16901e-39 -0.2914504 -0.3865013 -0.38360313 -0.21810608 -0.21583524 -0.1834379 -0.1690617
-0.13151391 -0.1839254 0.012612733 0.018966729 0.0259199 0.029455034 0.02131122 0.03938404
0.0524639 0.079879545 0.07110503 0.12534036 -6.92375e-40 1.522584e-39 -1.042317e-39 6.538234e-39
-0.3201121 -0.41066656 -0.40361637 -0.23337266 -0.22650285 -0.2290929 -0.20909008 -0.1276788
-0.18012159 0.013143697 0.019086622 0.026103854 0.028589932 0.022995116 0.04036538 0.052954488
0.08006525 0.071140036 0.12522592 -3.809535e-39 5.622685e-39 3.182064e-39 -3.6129e-40 -0.26567683
00000000: b5af 1400 9a76 0180 6757 713e aa08 ea3d
00000010: 86a2 ee3d 5d9f 943c c26c b9bc d883 0cbd
00000020: 71cb ebbc aa24 e6bb da5a 24bd 36ca 313d
00000030: 62d1 2e3d 65f1 1b3d d6ce 113d 5f0b b13c
00000040: 6b70 1a3d 135d 4c3d d17c 9f3d 548e 8c3d
00000050: 5332 013e ceea 1100 c434 3780 e519 4b00
00000060: 4f39 4700 6d3a 71be 5897 b6be 0862 b7be
00000070: 0902 55be 4de6 57be a459 3dbe 893d 24be
00000080: 1cbc 06be d5be 46be 0d06 2b3c d3e3 813c
00000090: 9104 ba3c 7c26 cd3c afc7 a33c 940c 1a3d
000000a0: f0b4 4d3d 04fa 9f3d dc33 8d3d e6d9 003e
000000b0: 60a7 3e00 ba2d 3f80 8556 4300 ee0c 2880
000000c0: 68b6 a5bd aba7 85be a0f9 91be 7b28 25be
000000d0: be71 35be ba78 25be d349 19be bb75 fdbd
000000e0: 2b2a 39be 9643 143c ad03 5e3c fe3f a83c
000000f0: d7aa be3c d47f 9b3c af9c 1a3d f160 4e3d
00000100: 0247 a03d dc3c 8d3d 2b82 003e f3d1 1e80
00000110: 86cb 2780 0f99 0c80 dcff 0500 4731 613d
00000120: 2390 f2bd 3711 0abe d2be 82bd 9f5e b7bd
00000130: c738 b9bd e73f a6bd 99da 92bd 8509 ebbd
00000140: b645 a53c 9935 c23c af4a d73c 36e5 e63c
00000150: 2d86 a63c fae3 1a3d 5d2c 503d 9417 a13d
00000160: 5c5e 8e3d fea8 003e d3c7 0780 b74b 1200
00000170: 911e 1700 2f58 0e80 5d18 883e 2bea 0f3e
00000180: b238 0e3e 5637 093d dccc bbbb 0239 9dbc
00000190: e96a 3ebc f7a2 873c f2ee afba 1c48 793d
000001a0: 8e82 503d 33a2 1b3d d438 113d fe6b ad3c
000001b0: 4443 173d 5513 4e3d 146e a03d 5c74 8e3d
000001c0: 3f78 003e a6ea 3a00 18fa 1000 f65b 1300
000001d0: 6cdf 3500 f12f a83e f366 793e 997d 683e
000001e0: af32 833d 394e c23c a4ff 023c 855f 7e3c
000001f0: b6e7 613d 31fc 1f3d a2fa c63d aeb3 ae3d
00000200: 17e3 703d f894 433d 5f63 b83c f278 173d
00000210: 018f 4d3d 0358 a03d 1a9d 8e3d d762 003e
00000220: 8072 0d80 563e 1900 213d 2000 6427 2100
00000230: f026 b33e 4975 883e 8a58 813e 2ced 603d
00000240: 32b6 903c 7803 2d3b f6ad 353c b25d 563d
00000250: 31e3 163d f4cc b43d aef2 a13d a0f2 693d
00000260: 102f 533d 6bc4 c43c 3326 193d 6a12 4e3d
00000270: 13ad a03d 86dc 8e3d ae2c 003e 3d83 0e00
00000280: 24ba 1580 b5a9 2280 1a5a 2180 540f 913e
00000290: 4c5f 113e 9688 df3d 9fef dd3c dfe6 40bc
000002a0: bc87 c9bc 00f1 92bc d43e 143c 6e5f 01bc
000002b0: e71f 843d 3cdd 5e3d fee6 273d 714c 223d
000002c0: f51a b03c d5c1 1b3d 734b 503d a249 a13d
000002d0: fe92 8f3d 8324 003e 40a1 0500 bd6e 4a80
000002e0: ab1f 0d80 1b93 1800 a007 9bbd 3565 41be
000002f0: 10b8 3dbe f927 3fbd 3593 8cbd 7002 97bd
00000300: 4e3c 8ebd 044c 78bd 2d0b ccbd 571b de3c
00000310: fb4a f53c 3de7 fd3c 7975 fe3c f709 a73c
00000320: f8f6 1a3d 6a64 523d bcaa a13d a1a5 8f3d
00000330: a0c7 ff3d ebcb 4900 d41e 3c80 2976 3100
00000340: 8165 2d80 fd38 95be 80e3 c5be a167 c4be
00000350: 3357 5fbe ea03 5dbe 25d7 3bbe 831e 2dbe
00000360: 95ab 06be f156 3cbe a3a5 4e3c 1d60 9b3c
00000370: f855 d43c af4b f13c de94 ae3c 2951 213d
00000380: 63e4 563d e397 a33d 849f 913d 3959 003e
00000390: 0f8a 0780 5894 1000 8e59 0b80 f031 4700
000003a0: bce5 a3be e342 d2be cea6 cebe 3ef9 6ebe
000003b0: 5df0 67be 5497 6abe b61b 56be 3bbe 02be
000003c0: cb71 38be a958 573c 8c5b 9c3c c0d7 d53c
000003d0: 6f35 ea3c 4160 bc3c 2b56 253d cee6 583d
000003e0: 40f9 a33d deb1 913d 393b 003e 6f7b 2980
000003f0: c239 3d00 4da6 2200 21ef 0380 cb06 88be

W_cnn.1.weight f4 [1, 1, 23, 23]
-6.704595e-39 -3.16515e-39 -0.03547259 0.103126235 0.03313209 0.040747516 -0.01450406 -0.024336385
-0.03183073 -0.06262962 0.0059856186 -0.013159657 -0.018973451 0.015335153 0.021196863 0.03739455
0.049839962 0.12755413 0.27091193 0.32459402 0.35277438 3.356093e-39 7.6985e-40 3.485661e-39
-5.333806e-39 -0.03633791 0.1029727 0.03320151 0.040937625 -0.014555628 -0.024959482 -0.034809288
-0.06977717 -0.0020993461 -0.022183541 -0.027974287 0.005328025 0.013023064 0.028898112 0.05043548
0.13565336 0.27763397 0.33327702 0.36722642 -6.779318e-39 -2.644938e-39 -6.758087e-39 5.728815e-39
-0.037212458 0.10283596 0.03315031 0.041129056 -0.014591314 -0.025215074 -0.035434913 -0.070287876
-0.0089925965 -0.029032094 -0.034560192 -0.0019274353 0.007750168 0.023736158 0.05081286 0.14084804
0.2806311 0.33591342 0.3686768 2.772084e-39 -4.677062e-39 2.424706e-39 -4.279728e-39 -0.03785948
0.10271688 0.033067886 0.04131668 -0.014568602 -0.025028769 -0.034788966 -0.06942092 -0.013312507
-0.032722548 -0.037839275 -0.005850424 0.004878173 0.020564493 0.050190497 0.14162336 0.28049347
0.3356756 0.36729503 -5.100051e-39 4.312004e-39 1.286769e-39 -6.154852e-39 -0.03840106 0.10261758
0.0329036 0.04154578 -0.014530032 -0.024796076 -0.034241065 -0.068722226 -0.016214127 -0.03470134
-0.039275523 -0.008151199 0.0036254844 0.017583886 0.04755495 0.13890007 0.2746981 0.3297416
0.36382246 6.332869e-39 -6.113563e-39 4.5243e-39 3.30713e-40 -0.038831685 0.10253681 0.03273479
0.041749343 -0.014543454 -0.024700344 -0.033980675 -0.06795169 -0.020408891 -0.037141804 -0.04126034
-0.0105216615 0.0025516907 0.015072298 0.045169715 0.13724357 0.26920173 0.32251757 0.35558346
-2.814431e-39 1.853785e-39 1.284865e-39 -1.037876e-39 -0.03927625 0.10249143 0.032742176 0.042019982
-0.014282002 -0.024257762 -0.032718193 -0.06793558 -0.025971893 -0.040109955 -0.04408992 -0.013589923
-0.00025402245 0.011873455 0.04305928 0.13388135 0.26031289 0.3128287 0.3452689 -1.679543e-39
4.873063e-39 1.779648e-39 -6.49831e-39 -0.039721124 0.10246563 0.03278647 0.04226019 -0.014119601
-0.024245618 -0.03286802 -0.070134334 -0.03155841 -0.043106236 -0.04706941 -0.016525254 -0.0028739076
0.0112729855 0.045461338 0.1351907 0.25811797 0.31078205 0.3455192 4.76976e-39 -6.842434e-39
1.484009e-39 -6.743558e-39 -0.040070865 0.10245457 0.032749508 0.04230616 -0.014260579 -0.024899442
-0.034604926 -0.07385609 -0.039309725 -0.047222905 -0.051736195 -0.021353869 -0.007854241 0.007925124
0.044761088 0.13443162 0.25235075 0.30268 0.33751842 6.240582e-39 -4.593298e-39 -2.700214e-39
5.61412e-39 -0.04056399 0.10247993 0.032790672 0.04232775 -0.0143738985 -0.025534818 -0.036436994
-0.07574415 -0.043880183 -0.049814556 -0.054423407 -0.024153372 -0.01067899 0.0065544075 0.045318626
0.135516 0.24855986 0.29413173 0.3297604 6.865086e-39 -6.866364e-39 4.557642e-39 -1.382859e-39
-0.04075065 0.1025218 0.032614846 0.042100664 -0.014737173 -0.02641455 -0.038317483 -0.077291995
-0.04669921 -0.050788376 -0.055276744 -0.025460444 -0.011663083 0.007204822 0.048502143 0.13707805
0.24887322 0.29464754 0.33289906 -3.271506e-39 -4.127149e-39 -6.491512e-39 -6.841453e-39 -0.040856145
00000000: af01 4980 2777 2280 b54b 11bd d933 d33d
00000010: 84b5 073d dee6 263d 70a2 6dbc 195d c7bc
00000020: f160 02bd f543 80bd 0223 c43b 9a9b 57bc
00000030: 366e 9bbc 4b40 7b3c 0ba5 ad3c 072b 193d
00000040: fd24 4c3d 8d9d 023e f8b4 8a3e 3031 a63e
00000050: d89e b43e 6c8b 2400 0762 0800 9bf4 2500
00000060: 7b14 3a80 0fd7 14bd 5ae3 d23d 4efe 073d
00000070: 36ae 273d bb7a 6ebc d477 ccbc 2f94 0ebd
00000080: 55e7 8ebd 2f95 09bb 42ba b5bc 552a e5bc
00000090: b796 ae3b b05e 553c bcbb ec3c 6f95 4e3d
000000a0: b7e8 0a3e 0a26 8e3e 49a3 aa3e 1a05 bc3e
000000b0: fbd1 4980 03cd 1c80 cc96 4980 9b61 3e00
000000c0: 176c 18bd a99b d23d 9fc8 073d f176 283d
000000d0: 6810 6fbc d88f cebc 3324 11bd 17f3 8fbd
000000e0: af55 13bc b7d4 edbc fd8e 0dbd ffa1 fcba
000000f0: 1ff5 fd3b 5572 c23c 2521 503d 783a 103e
00000100: e1ae 8f3e d8fc ab3e 35c3 bc3e 712f 1e00
00000110: bfed 3280 1867 1a00 249a 2e80 8b12 1bbd
00000120: 3a5d d23d 3172 073d ae3b 293d 25b1 6ebc
00000130: 2209 cdbc e07e 0ebd 8e2c 8ebd b41c 5abc
00000140: 1408 06bd 5bfd 1abd eab4 bfbb 15d9 9f3b
00000150: de76 a83c 8d94 4d3d b705 113e d79c 8f3e
00000160: acdd ab3e 180e bc3e de88 3780 1df4 2e00
00000170: fd02 0e00 3905 4380 6e4a 1dbd 2a29 d23d
00000180: edc5 063d e82b 2a3d 5f0f 6ebc 2421 cbbc
00000190: 5c40 0cbd 3dbe 8cbd 7dd3 84bc fe22 0ebd
000001a0: 5fdf 20bd 9b8c 05bc 8999 6d3b 150c 903c
000001b0: fbc8 423d d23b 0e3e 3ba5 8c3e e4d3 a83e
000001c0: f046 ba3e 76f5 4400 2092 4280 e843 3100
000001d0: e599 0300 f90d 1fbd d2fe d13d ea14 063d
000001e0: 5c01 2b3d ab47 6ebc 6058 cabc 522f 0bbd
000001f0: 412a 8bbd 8c30 a7bc 0122 18bd 9a00 29bd
00000200: 0c63 2cbc 443a 273b cdf1 763c e103 393d
00000210: 9489 0c3e cfd4 893e 0621 a53e 090f b63e
00000220: 7da5 1e80 992f 1400 aefd 0d00 2d4d 0b80
00000230: 22e0 20bd 07e7 d13d a91c 063d 251d 2c3d
00000240: 0fff 69bc 37b8 c6bc 8303 06bd cf21 8bbd
00000250: 02c3 d4bc 564a 24bd a297 34bd 45a8 5ebc
00000260: 512e 85b9 e188 423c ed5e 303d 3118 093e
00000270: bb47 853e 152b a03e 16c7 b03e e249 1280
00000280: 1e10 3500 ef60 1300 a5c2 4680 9eb2 22bd
00000290: 80d9 d13d 1b4b 063d 0519 2d3d e655 67bc
000002a0: bf9e c6bc 9ea0 06bd 97a2 8fbd 6443 01bd
000002b0: 2a90 30bd dbcb 40bd f85f 87bc 2b58 3cbb
000002c0: 54b2 383c ab35 3a3d 6e6f 0a3e 0a28 843e
000002d0: d31e 9f3e e5e7 b03e 26f0 3300 ec81 4a80
000002e0: d028 1000 4c6e 4980 5921 24bd b4d3 d13d
000002f0: 5924 063d 3949 2d3d 34a5 69bc eaf9 cbbc
00000300: e5bd 0dbd dd41 97bd 3c03 21bd ce6c 41bd
00000310: 55e9 53bd 4fee aebc 13af 00bc 61d8 013c
00000320: 6757 373d 71a8 093e 1e34 813e dff8 9a3e
00000330: 37cf ac3e 34f4 4300 3f04 3280 1967 1d80
00000340: e221 3d00 6d26 26bd ffe0 d13d 834f 063d
00000350: dd5f 2d3d 8080 6bbc 652e d1bc f53e 15bd
00000360: c01f 9bbd b5bb 33bd 590a 4cbd 14eb 5ebd
00000370: 4bdd c5bc eef6 2ebc 5bc6 d63b 06a0 393d
00000380: b5c4 0a3e 7a86 7e3e 6f98 963e 5bd6 a83e
00000390: 11c1 4a00 a1c4 4a80 daa0 3100 d90e 0f80
000003a0: 27ea 26bd f3f6 d13d 2597 053d bf71 2c3d
000003b0: 2f74 71bc 5463 d8bc cbf2 1cbd 444b 9ebd
000003c0: ac47 3fbd 7907 50bd de69 62bd 6c92 d0bc
000003d0: 8416 3fbc 6d16 ec3b 2faa 463d 305e 0c3e
000003e0: 9fd8 7e3e 0bdc 963e bf71 aa3e a19f 2380
000003f0: d0f0 2c80 b2af 4680 307f 4a80 c658 27bd

W_cnn.2.weight f4 [1, 1, 23, 23]
-6.78713e-40 5.091128e-39 0.17071202 0.25512692 0.20455842 0.17763242 -0.25777498 -0.29713526
-0.13402036 -0.1987643 -0.08645452 -0.081467964 0.014548474 -0.08169454 0.050251253 0.046891447
-0.020179514 -0.029823693 0.11468141 0.01949119 0.06355368 1.543172e-39 -5.65053e-40 -1.043815e-39
1.890157e-39 0.1514902 0.24487679 0.1975747 0.1637454 -0.24723531 -0.28359333 -0.11578763
-0.17652917 -0.069710635 -0.06601894 0.01328201 -0.08245465 0.04994281 0.04663225 -0.019906016
-0.029549351 0.114395134 0.019632427 0.06357937 -4.005246e-39 5.502257e-39 6.920203e-39 -4.6064e-39
0.13056464 0.23377883 0.18928581 0.14767423 -0.23447654 -0.26707965 -0.09741775 -0.16402364
-0.051491708 -0.051464077 0.01202852 -0.0832808 0.049658403 0.04639897 -0.019660942 -0.029265454
0.1141351 0.019832814 0.06369252 -4.658164e-39 1.768908e-39 2.77012e-39 -2.661148e-39 0.11191167
0.2218655 0.17960116 0.13075565 -0.22095962 -0.25024688 -0.080558814 -0.15365125 -0.033261728
-0.03868429 0.010609349 -0.0840746 0.04940266 0.04619258 -0.01942616 -0.028990684 0.113904454
0.020085461 0.06389485 5.730861e-39 2.372097e-39 -4.719726e-39 -6.603939e-39 0.09897671 0.21050711
0.16879636 0.114071466 -0.2066857 -0.23326536 -0.063820384 -0.14633061 -0.016839381 -0.028244106
0.009205622 -0.0848207 0.04917804 0.046011336 -0.019232018 -0.02871285 0.11371248 0.02037809
0.06411321 -1.59618e-40 2.720925e-39 -6.997374e-39 1.514281e-39 0.09117173 0.1998983 0.1580256
0.09975593 -0.19233507 -0.21723191 -0.048677973 -0.14349164 -0.0023467198 -0.019890368 0.0074638887
-0.085519165 0.048982725 0.04586627 -0.019064084 -0.028428536 0.113546446 0.0207216 0.06448285
6.251488e-39 -6.670289e-39 -6.907357e-39 6.853765e-39 0.085684806 0.18957888 0.1469542 0.0870562
-0.17895876 -0.2028153 -0.034077622 -0.14301659 0.009959373 -0.01295665 0.00565085 -0.08614947
0.048822816 0.045752116 -0.018935798 -0.028169975 0.11341175 0.02108542 0.06503533 -2.73689e-40
6.439831e-39 1.675388e-39 2.927727e-39 0.081699535 0.1796972 0.13635983 0.0762575 -0.16614635
-0.18971786 -0.022134727 -0.14398871 0.020936742 -0.007240717 0.003947159 -0.08670403 0.048694834
0.045663465 -0.018811977 -0.028497456 0.11320751 0.021454435 0.06578244 3.911698e-39 -1.310087e-39
1.322216e-39 -3.268121e-39 0.07829982 0.16991076 0.12678815 0.06729957 -0.15514769 -0.17771241
-0.011207759 -0.14499438 0.030906904 -0.0023453431 0.0022423866 -0.08714804 0.048598543 0.04560016
-0.018637318 -0.028913233 0.11302823 0.021782676 0.066623464 -4.933043e-39 6.928502e-39 1.89839e-39
-5.827318e-39 0.07504074 0.16106004 0.11906372 0.06091837 -0.14587376 -0.16810976 -0.004696523
-0.1454658 0.039438814 0.0016031831 0.00092229067 -0.08748857 0.04853698 0.045564447 -0.018557744
-0.029459246 0.11287349 0.0218508 0.06748336 3.428397e-39 -1.808006e-39 -3.814128e-39 6.877339e-39
0.07189383 0.15381087 0.11286188 0.056472458 -0.13818488 -0.16072279 -0.00011634626 -0.14580223
0.045925874 0.005123621 -0.00041098037 -0.08768847 0.048506744 0.045558248 -0.01850412 -0.03009887
0.11274675 0.021781174 0.06832839 6.691565e-39 6.564939e-39 -6.934372e-39 -2.065503e-39 0.06866566
00000000: fa63 0780 fe6f 3700 22cf 2e3e ff9f 823e
00000010: c377 513e 46e5 353e 15fb 83be 1d22 98be
00000020: a23c 09be de88 4bbe 110f b1bd add8 a6bd
00000030: b95c 6e3c 784f a7bd 42d4 4d3d 3f11 403d
00000040: 824f a5bc d150 f4bc 16de ea3d fdab 9f3c
00000050: 6f28 823d bccd 1000 2327 0680 bb5d 0b80
00000060: fd94 1400 3f20 1b3e fbc0 7a3e 0651 4a3e
00000070: e0ac 273e 412b 7dbe 2533 91be 1122 edbd
00000080: 10c4 34be 73c4 8ebd f034 87bd ca9c 593c
00000090: fcdd a8bd d590 4c3d 7501 3f3d f111 a3bc
000000a0: 7b11 f2bc ff47 ea3d 2fd4 a03c e735 823d
000000b0: ff9c 2b80 0eea 3b00 b65a 4b00 c528 3280
000000c0: bdb2 053e b863 6f3e 24d4 413e ea37 173e
000000d0: 9e1a 70be aabe 88be f582 c7bd d0f5 27be
000000e0: f8e8 52bd ffcb 52bd 4513 453c 208f aabd
000000f0: 9c66 4b3d d90c 3e3d fc0f a1bc 1bbe efbc
00000100: aabf e93d 6d78 a23c 3971 823d 11b9 3280
00000110: ff42 1300 f829 1e00 33fa 1c80 f231 e53d
00000120: b630 633e 5ee9 373e cfe4 053e 3d43 62be
00000130: 5c20 80be 05fc a4bd c156 1dbe 733d 08bd
00000140: 6b73 1ebd d6d2 2d3c 4e2f acbd 725a 4a3d
00000150: 6e34 3d3d 9c23 9fbc df7d edbc bd46 e93d
00000160: 448a a43c 4edb 823d 4f67 3e00 71d4 1900
00000170: ad64 3380 18e9 4780 4db4 ca3d 2d8f 573e
00000180: f4d8 2c3e 4d9e e93d 6ba5 53be 1ddd 6ebe
00000190: 43b4 82bd b1d7 15be bef2 89bc 2f60 e7bc
000001a0: 2dd3 163c 7ab6 adbd ea6e 493d 6276 3c3d
000001b0: 778c 9dbc 3637 ebbc 17e2 e83d f4ef a63c
000001c0: c94d 833d f3bc 0180 d5a0 1d00 d531 4c80
000001d0: 337d 1000 3eb8 ba3d 24b2 4c3e 76d1 213e
000001e0: d64c cc3d 7cf3 44be 0b72 5ebe 8e62 47bd
000001f0: 79ef 12be 6dcb 19bb 20f1 a2bc a393 f43b
00000200: ac24 afbd 1ca2 483d 45de 3b3d 482c 9cbc
00000210: f6e2 e8bc 0a8b e83d 58c0 a93c 960f 843d
00000220: 9b12 4400 0da2 4880 e736 4b80 82a1 4a00
00000230: 847b af3d f720 423e 297b 163e 854a b23d
00000240: f740 37be d0ae 4fbe fa94 0bbd f172 12be
00000250: a32c 233c 2148 54bc c42a b93b 226f b0bd
00000260: 6ffa 473d 9266 3b3d 3f1f 9bbc b8c4 e6bc
00000270: 6b44 e83d 55bb ac3c 3e31 853d effa 0280
00000280: a11f 4600 4d3e 1200 50e1 1f00 1652 a73d
00000290: 8b02 383e e9a1 0b3e e42c 9c3d 4522 2abe
000002a0: 6645 42be e353 b5bc c771 13be 8883 ab3c
000002b0: 8943 edbb 2b57 813b e291 b1bd 3c74 473d
000002c0: 9d09 3b3d 931b 9abc 7f73 e9bc 57d9 e73d
000002d0: 36c1 af3c f2b8 863d 3998 2a00 fd43 0e80
000002e0: cd65 0e00 3196 2380 a85b a03d 16fd 2d3e
000002f0: c1d4 013e 5bd4 893d 09df 1ebe 3efa 35be
00000300: c0a0 37bc 6879 14be 7a30 fd3c 54b4 19bb
00000310: 01f5 123b ac7a b2bd 440f 473d 3cc7 3a3d
00000320: 4aad 98bc 72db ecbc 587b e73d 9571 b23c
00000330: e271 883d 51b7 3580 d871 4b00 f0ab 1400
00000340: 3174 3f80 f6ae 993d ecec 243e aed7 f33d
00000350: 8a85 793d ee5f 15be f724 2cbe 4ae5 99bb
00000360: fdf4 14be 988a 213d e621 d23a e1c5 713a
00000370: 352d b3bd b6ce 463d c9a1 3a3d 6906 98bc
00000380: 8454 f1bc 372a e73d 7300 b33c b734 8a3d
00000390: fa54 2500 fcaf 1380 3d88 2980 39e3 4a00
000003a0: 133d 933d 9980 1d3e 2124 e73d aa4f 673d
000003b0: 5680 0dbe 8494 24be ecfe f3b8 2e4d 15be
000003c0: c51c 3c3d 0ce4 a73b da78 d7b9 0396 b3bd
000003d0: 02af 463d 499b 3a3d f495 97bc e891 f6bc
000003e0: c5e7 e63d 6f6e b23c c1ef 8b3d 5cdd 4800
000003f0: 617c 4700 3582 4b80 c87d 1680 95a0 8c3d

W_attention.weight f4 [10, 10]
-0.07123975 0.0947874 -0.09466845 -0.09945199 0.092148334 0.0991364 0.008838095 0.028738746
0.023090806 0.034801144 0.08225269 0.009564446 0.10625463 0.019789765 -0.014074073 0.0033242833
0.017612353 0.12557252 0.11793589 0.14164755 0.34501076 0.29342073 0.15070099 -0.015843986
0.33504364 0.072042756 0.033213016 -0.15991105 -0.21251002 -0.17033756 -0.027807042 0.39305645
-0.17321457 0.023711478 -0.11767456 0.3138898 -0.07427101 -0.31546983 -0.28435588 0.24542837
1.0772769e-20 -2.394762e-08 -3.120599e-39 -1.4313068e-36 1.3222006e-09 -1.417376e-19 1.2789469e-28 -1.7223541e-27
-1.161244e-11 -6.0457153e-26 -0.03747893 -0.0963609 0.031481117 -0.15867898 -0.05890706 -0.02801642
0.02847659 -0.22360742 -0.07692796 0.10864369 -0.042512506 -0.004666381 -0.04161273 -0.041613307
-0.0021794492 -0.0018940732 -0.04024723 -0.0060108327 -0.012616246 -0.0021144508 0.120722346 0.096305884
0.060011607 0.053561725 0.058193482 0.029963385 0.048817877 0.03984228 0.01822009 -0.021164568
-0.6993455 -0.0711836 0.59721446 -0.038200207 0.10050256 0.5134774 -0.35836622 -0.40145612
0.14783208 -0.2851642 -1.183838e-39 -0.0091510955 -1.17212e-40 5.166635e-39 0.0023314268 -8.524387e-05
-5.070208e-39 -1.75707e-39 -7.66255e-40 6.566888e-39
00000000: 25e6 91bd e51f c23d 88e1 c1bd 7cad cbbd
00000010: 44b8 bc3d 0608 cb3d a8cd 103c 856d eb3c
00000020: ee28 bd3c a58b 0e3d 1974 a83d 32b4 1c3c
00000030: 079c d93d 251e a23c f196 66bc 38dc 593b
00000040: c847 903c 1596 003e 5f88 f13d 0e0c 113e
00000050: 40a5 b03e 3e3b 963e 5c51 1a3e 3fcb 81bc
00000060: d78a ab3e 278b 933d 5f0a 083d b9bf 23be
00000070: 3a9c 59be f86c 2ebe 98cb e3bc b23e c93e
00000080: 295f 31be 933e c23c 5cff f0bd 2ab6 a03e
00000090: 661b 98bd 4385 a1be 1897 91be 9351 7b3e
000000a0: ea7d 4b1e 60b5 cdb2 f6fa 2180 3486 f383
000000b0: ccb8 b530 9055 27a0 3320 2211 7e75 0893
000000c0: c849 4cad 46af 9595 8283 19bd dd58 c5bd
000000d0: 58f2 003d be7c 22be 8848 71bd b182 e5bc
000000e0: bd47 e93c 58f9 64be 688c 9dbd 9580 de3d
000000f0: 9821 2ebd 71e8 98bb 1c72 2abd b772 2abd
00000100: 17d5 0ebb 8d42 f8ba 48da 24bd 85f6 c4bb
00000110: 5fb4 4ebc 9992 0abb 473d f73d 053c c53d
00000120: bbce 753d 8a63 5b3d 4a5c 6e3d c675 f53c
00000130: 41f5 473d a931 233d 4c42 953c 5161 adbc
00000140: 4f08 33bf b5c8 91bd 0ce3 183f d277 1cbd
00000150: 49d4 cd3d 4173 033f c77b b7be a88b cdbe
00000160: 4b61 173e 0b01 92be 0fe4 0c80 7aee 15bc
00000170: bd46 0180 7a42 3800 daca 183b f4c4 b2b8
00000180: ad35 3780 ff21 1380 0258 0880 d081 4700

W_attention.bias f4 [10]
0.05245515 0.026838355 0.32639727 0.2452162 -2.949367e-12 0.3411235 0.006525642 0.0061748503
0.22299735 -1.33798216e-11
00000000: 36db 563d 1cdc db3c 8b1d a73e f519 7b3e
00000010: 138b 4fac bda7 ae3e 0dd5 d53b 6656 ca3b
00000020: 6b59 643e 5c61 6bad

W_out.0.weight f4 [20, 20]
0.1127624 -0.2174102 0.06539899 0.17296591 -0.061476726 0.046519645 -0.20241976 0.23127098
0.10265758 0.3222634 0.04532394 0.20928623 -0.17887546 -0.18145654 6.106081e-39 0.10311865
0.060389295 0.02167793 -0.105729304 -9.00912e-40 -0.028876912 -0.15229972 -0.13710825 0.2987675
-0.08348229 -0.11207159 -0.14165036 0.11822793 0.2003814 -0.111415245 0.045108765 0.16634107
-0.15211914 -0.19739537 4.114132e-39 0.027184188 0.06669119 0.16676936 -0.10746227 -3.418934e-39
0.14739914 -0.21621668 -0.35269898 0.039067954 0.14607303 -0.04512971 0.2042124 -0.27885032
-0.26901495 -0.00218308 0.030361861 -0.05437509 0.069490746 0.25270373 -6.729297e-39 0.11856584
-0.010337281 0.1351002 0.25153562 6.837756e-39 0.019634712 -0.04033484 -0.35700148 -0.23609018
0.18066579 -0.29782844 0.30683047 -0.09418864 -0.15706801 -0.09575629 0.021735957 -0.06019994
0.09879373 0.22880413 6.387449e-39 -0.12005914 -0.009628976 0.17399818 0.3266125 -6.72751e-39
-0.051258706 -0.04305783 -0.122128494 0.08334381 0.047231942 -0.0069746035 0.05908889 -0.12977518
-0.026872989 -0.037414998 0.05041269 0.15180913 0.11097827 0.08721287 -3.510481e-39 0.090966605
0.009540281 -0.05647131 0.052407127 -2.369405e-39 0.19124089 0.12630682 -0.3249876 -0.34578973
0.2198019 -0.58131045 0.34353316 -0.0053574443 -0.24405019 -0.15956375 0.041171152 -0.07173583
0.41615036 0.12932836 -4.021683e-39 -0.2991734 -0.010655823 0.16725977 -0.09956708 -1.565084e-39
-0.2798598 -0.31280223 -0.28519645 0.44929922 -0.23660293 -0.041098636 -0.043622993 0.17951708
0.39036745 0.16612713 0.124908246 0.14635096 -0.29119873 0.018367535 -1.678564e-39 -0.14644156
0.04283374 0.07146112 -0.21294312 -7.1833e-40 -0.087500945 -0.2969009 0.06523328 0.31454095
-0.16401236 -0.2222386 0.030241283 0.1584228 0.18769048 0.27496347 0.04538338 0.17018119
-0.39267 -0.07032963 -6.24939e-39 -0.036466524 0.037908908 0.19984141 -0.07847674 -4.133068e-39
-0.01897498 0.026629187 -0.32366854 -0.14917795 0.4651258 -0.3338942 0.2567377 0.005806775
-0.29393584 -0.18416512 0.040361818 -0.15646887 0.45448452 0.1848086 -3.779365e-39 -0.29091597
-0.012414296 0.085918754 0.2394465 -2.868838e-39 -0.16150284 -0.070574686 -0.08235224 0.40670484
-0.21718192 0.122568585 0.1318312 0.17986621 0.5497134 0.41722783 0.039867267 0.17484711
-0.24377048 -0.26855987 -2.628539e-39 -0.08328609 0.047592625 -0.0121174455 -0.17308564 -5.570711e-39
-0.10889588 0.2382046 0.105132826 -0.47677732 0.2720847 -0.4213746 0.17868604 -0.107565306
-0.11928635 -0.038562696 0.065194435 0.043741338 0.12456201 0.32487363 -3.953813e-39 -0.13653965
-0.001975817 0.1573513 0.02752513 4.75714e-39 -0.2343719 -0.17358577 0.034023907 0.25162023
0.008849626 0.23424076 0.0012549461 0.10869683 0.29671985 0.5074463 0.022729555 0.1788259
0.09982365 -0.25499803 -1.33396e-39 -0.028669352 0.047510926 0.014216173 -0.10274341 -3.66648e-39
-0.06813146 -0.09171637 -0.110494815 -0.31975606 0.4013615 -0.25707963 0.2673797 -0.0037165424
-0.12980351 -0.38056636 0.015292709 -0.08431707 0.18278973 0.33727255 5.800777e-39 -0.28965056
00000000: f9ef e63d c8a0 5ebe e8ef 853d fa1d 313e
00000010: 05cf 7bbd 628b 3e3d 2047 4fbe 4dd2 6c3e
00000020: 233e d23d b5ff a43e 99a5 393d 214f 563e
00000030: 212b 37be becf 39be 457d 4200 df2f d33d
00000040: c45a 773d ea95 b13c 9b88 d8bd 60cf 0980
00000050: 468f ecbc 75f4 1bbe 1b66 0cbe 0ef8 983e
00000060: c3f8 aabd ca85 e5bd cb0c 11be 7c21 f23d
00000070: c830 4d3e ad2d e4bd f8c3 383d 5055 2a3e
00000080: 1fc5 1bbe 0322 4abe 87cc 2c00 60b1 de3c
00000090: 6495 883d 96c5 2a3e 2e15 dcbd 993a 2580
000000a0: cdef 163e e867 5dbe f694 b4be b805 203d
000000b0: 2b94 153e eed9 38bd 0e1d 513e 78c5 8ebe
000000c0: 54bc 89be 0112 0fbb 70b9 f83c 6ab8 5ebd
000000d0: 2a51 8e3d 6262 813e 8b46 4980 a6d2 f23d
000000e0: b35d 29bc b557 0a3e 47c9 803e e274 4a00
000000f0: fad8 a03c 2536 25bd e6c8 b6be a0c1 71be
00000100: 7400 393e f87c 98be e218 9d3e f9e5 c0bd
00000110: 70d6 20be e01b c4bd 9b0f b23c 3694 76bd
00000120: 5e54 ca3d a14b 6a3e 9c8d 4500 91e1 f5bd
00000130: dac2 1dbc 942c 323e c139 a73e 9041 4980
00000140: a6f4 51bd 685d 30bd 811e fabd 29b0 aa3d
00000150: 4876 413d 378b e4bb 3107 723d c9e3 04be
00000160: be24 dcbc 7840 19bd 897d 4e3d da73 1b3e
00000170: 9348 e33d a99c b23d cb39 2680 b34c ba3d
00000180: d74e 1c3c 764e 67bd dba8 563d f0cc 1980
00000190: a7d4 433e 9356 013e c664 a6be 5a0b b1be
000001a0: c013 613e c3d0 14bf 94e3 af3e 808d afbb
000001b0: 4be8 79be ae64 23be 15a3 283d 3cea 92bd
000001c0: a911 d53e a76e 043e d1ca 2b80 422d 99be
000001d0: c395 2ebc 2546 2b3e d3e9 cbbd d10a 1180
000001e0: c949 8fbe 9d27 a0be 4505 92be 8c0a e63e
000001f0: 0a48 72be 0b57 28bd 06ae 32bd 53d3 373e
00000200: 3ede c73e 3b1d 2a3e e5cf ff3d 07dd 153e
00000210: 0018 95be 8377 963c 2747 1280 c7f4 15be
00000220: 6f72 2f3d 355a 923d c30d 5abe 69d2 0780
00000230: b233 b3bd 6503 98be 0799 853d 830b a13e
00000240: dbf2 27be 8492 63be 91bc f73c 9639 223e
00000250: ef31 403e 03c8 8c3e ece3 393d fa43 2e3e
00000260: 0b0c c9be fb08 90bd c20c 4480 ec5d 15bd
00000270: 5f46 1b3d 3aa3 4c3e 6ab8 a0bd 5001 2d80
00000280: 6b71 9bbc 7425 da3c e2b7 a5be 1bc2 18be
00000290: f824 ee3e 2ef4 aabe 2073 833e c246 be3b
000002a0: c27e 96be c895 3cbe 6f52 253d 6039 20be
000002b0: 32b2 e83e 773e 3d3e 5527 2980 f0f2 94be
000002c0: 5565 4bbc 2cf6 af3d 7731 753e 273d 1f80
000002d0: 0061 25be 7689 90bd 4ba8 a8bd 9e3b d03e
000002e0: f064 5ebe 3d05 fb3d c2fe 063e d92e 383e
000002f0: 04ba 0c3f e39e d53e dc4b 233d 1f0b 333e
00000300: f89e 79be ae80 89be 4c9f 1c80 e691 aabd
00000310: 7cf0 423d 4088 46bc 5d3d 31be e0a8 3c80
00000320: ce04 dfbd e8eb 733e e14f d73d 281c f4be
00000330: b04e 8b3e 69be d7be 79f9 363e 334b dcbd
00000340: 674c f4bd ebf3 1dbd a984 853d 1e2a 333d
00000350: 5e1a ff3d d655 a63e 9f0d 2b80 0dd1 0bbe
00000360: b57c 01bb b320 213e 627c e13c f9cc 3300
00000370: 30ff 6fbe 78c0 31be a75c 0b3d 5ed4 803e
00000380: 06fe 103c cfdc 6f3e 017d a43a 729c de3d
00000390: aaeb 973e 00e8 013f 5533 ba3c 231e 373e
000003a0: 5870 cc3d 1a8f 82be 8a86 0e80 fddb eabc
000003b0: d19a 423d f4ea 683c 236b d2bd a8ec 2780
000003c0: 8288 8bbd cbd5 bbbd 1b4b e2bd 11b7 a3be
000003d0: 417f cd3e f19f 83be fee5 883e 3c91 73bb
000003e0: 36eb 04be 98d9 c2be 458e 7a3c 6eae acbd
000003f0: 3b2d 3b3e fdae ac3e 352a 3f00 144d 94be

W_out.0.bias f4 [20]
-0.19745244 -0.0064319586 -0.16844352 -0.118968904 0.07130388 -0.23014261 -0.38078475 0.15148771
0.07404328 -0.21293929 -0.13170323 -0.07701419 0.05053323 -0.19669226 -0.32242683 0.5034095
0.5553323 0.33234057 0.0354445 -0.0025269582
00000000: f930 4abe 2ec3 d2bb 757c 2cbe f8a5 f3bd
00000010: c507 923d 81aa 6bbe 38f6 c2be 981f 1b3e
00000020: 01a4 973d c20c 5abe 36dd 06be 9eb9 9dbd
00000030: effb 4e3d b269 49be 2115 a5be 72df 003f
00000040: 422a 0e3f 8b28 aa3e 412e 113d 539b 25bb
