baselines/CPI/CPI-GNN/results/model/model_fold3.pt (torch, 605575 bytes, 21 tensors)

embed_fingerprint.weight f4 [6239, 10]
00000000: be17 0a00 5717 2980 c920 1e80 cac7 1700
00000010: 8dfc 3100 dce5 0680 d57c 0380 2079 3c00
00000020: f30c 3880 a04d 3b80 a123 3e00 9620 3b80
00000030: 2d1e 2900 fda9 4700 b704 1100 d7ec 2d00
00000040: 0a64 2d00 534d 4000 2f5b 4700 acfc 2280
00000050: 0186 4700 a3e7 4080 65d4 3380 9c88 0300
00000060: 350b 3e00 26de 1f00 d1e0 1d80 5fdd 0000
00000070: 84d1 3380 e09f 4580 8fd5 2a00 f104 2a80
00000080: 4629 0700 58ff 0800 8133 4c80 0052 0d80
00000090: 53e0 3300 d5a1 2200 da6a 2700 a5f5 2f80
000000a0: f547 4c80 eed9 0c80 0fbc 4600 9f86 4980
000000b0: 43b0 1700 0066 4700 baae 1200 8334 4b80
000000c0: 36c4 4a80 d319 4080 fafd 4a80 445b 4900
000000d0: e95a 4700 bcf8 0b00 bf93 3300 0459 2480
000000e0: 21d2 4a80 e59d 1b80 d4e7 2d00 5307 2e00
000000f0: 2b21 4200 8509 0280 187b 3080 5ffc 3980
00000100: 54e7 3d00 cb74 4900 aba2 2300 ed38 1200
00000110: f3ee 0880 8638 1180 06ab d33e 5b23 c63f
00000120: 8fa6 743e e1ec e0be b264 97bf 233c 72bf
00000130: 6439 573f 1333 843d abe7 bfbe 8e1f e8bd
00000140: 17bb 4abf 07c8 903f bae5 3bbf 9094 9ebf
00000150: 1b28 a1bb 80a3 a0bf 8592 c83e 99e0 993f
00000160: 6ebe 9c3f 8aaf aebe 31bc afbf 3d06 0e3e
00000170: 4f45 d5be 187e 26bf 6f4d 8c3f 88b2 8f3f
00000180: 8d19 52bf 28e5 86bd 204c a8be cbbc 8fbd
00000190: cd3f c3be 74d3 9cbe d1ff a2bd eb22 893d
000001a0: 89cb 1f3e 7ff3 cc3e e81e 1ebf da85 5c3f
000001b0: 4556 913e 6699 04bf e5c9 17bd ccbf cdbe
000001c0: cc3f f9bd 07c3 2bbd 6189 f6bd df82 0f3f
000001d0: 85be 21bf b9aa 413f 879e 95ba e08d 6abe
000001e0: 6709 dcbe 8fc3 cc3e a112 a1bf a6a5 33bf
000001f0: 439b ac3f 39c6 1d3e 6075 2a3f 8b46 19bf
00000200: b278 92bf c4f3 c13d 802c c2bf f7e5 2cbe
00000210: 9de1 0ec0 b968 013f e2a3 893f c8e8 30bf
00000220: 3810 29bf 1e89 e43d 7d15 82bf d886 05bf
00000230: cff7 e93f 03cd 51bd e6cb a4bf fa97 783f
00000240: 9fff a7be c65e 0f40 1f8a 313e 7813 3abf
00000250: 3563 353e 5047 ab3e 699e 0c00 c0cf 1580
00000260: d8c3 0f00 0939 4b80 7b40 4980 4b7e 3c80
00000270: 96d2 4580 7feb 2d80 a6a3 1e00 8007 4300
00000280: 706c 0800 92e1 3180 e29d 3e80 817c 4a80
00000290: 73d6 2700 b36e 1800 beaf 4a00 3740 1400
000002a0: 3f79 1480 3741 3900 6c49 3d80 1df2 0b80
000002b0: a50e 4180 d5c6 1480 5a39 4b00 cdd1 2a80
000002c0: d2ff 0a00 1302 2180 687c 4000 3db1 3100
000002d0: 874a 4c80 aa56 2380 b688 1b00 466f 1480
000002e0: 40c9 2280 0ff0 0880 b7c5 0080 632a 3400
000002f0: 09a1 1100 da24 1280 9673 3600 fb1d 4680
00000300: e9d5 3100 6716 2480 7761 0980 da8b 0c00
00000310: ddc1 0e80 83ee 0780 1076 4700 f523 3b00
00000320: b035 4680 9476 0300 58be 2c00 7f67 4180
00000330: 2187 3800 17cd 1a80 9de9 0800 1811 4300
00000340: 5e65 4a00 7700 1300 1032 0c80 a8bd 2500
00000350: 4eaf 4900 64c1 0300 5ef4 3800 c8ff 4180
00000360: 1f4c 0280 922c 1900 5a49 2200 6b95 1180
00000370: 411d 2a00 ed01 4900 4018 0d80 7b34 4400
00000380: 0e0f 4600 c707 1e80 81e0 4080 77a9 0900
00000390: 45bd 1a80 b720 0700 b17a 4900 18b9 4500
000003a0: f98f 3600 96e2 3a00 be7d 4280 2f72 4a00
000003b0: 322e 4300 3104 3f00 5ae7 3c80 d41d 1680
000003c0: c767 1780 1417 1c80 6929 3880 af75 1380
000003d0: 7209 2e00 7e37 0380 caee 3900 ae16 4c80
000003e0: 94d8 4b80 b5e3 4900 dc1f 4a00 35f9 3c80
000003f0: 97d4 4600 88ec 2380 b266 4b80 1491 4a80
9.26872e-40 -3.773628e-39 -2.766826e-39 2.183887e-39 4.590537e-39 -6.33471e-40 -3.20288e-40 5.553581e-39
-5.147433e-39 -5.446141e-39 5.706582e-39 -5.429984e-39 3.77608e-39 6.5813e-39 1.562895e-39 4.21756e-39
4.168485e-39 5.90521e-39 6.553031e-39 -3.213048e-39 6.568392e-39 -5.960567e-39 -4.759803e-39 3.24513e-40
5.697821e-39 2.926592e-39 -2.743878e-39 7.9413e-41 -4.75877e-39 -6.394002e-39 3.933701e-39 -3.858863e-39
6.57655e-40 8.26284e-40 -6.997974e-39 -1.223278e-39 4.764083e-39 3.180461e-39 3.619915e-39 -4.404389e-39
-7.005311e-39 -1.180204e-39 6.495947e-39 -6.752284e-39 2.175447e-39 6.556911e-39 1.715719e-39 -6.9065e-39
-6.866214e-39 -5.886736e-39 -6.886936e-39 6.736731e-39 6.552933e-39 1.09942e-39 4.736612e-39 -3.33801e-39
-6.871207e-39 -2.5362e-39 4.215762e-39 4.22706e-39 6.073041e-39 -1.87086e-40 -4.452262e-39 -5.325157e-39
5.68495e-39 6.745889e-39 3.272597e-39 1.67346e-39 -8.20403e-40 -1.58148e-39 0.41341418 1.547954
0.23891662 -0.43930724 -1.1827605 -0.9462301 0.84071946 0.06455054 -0.37481436 -0.113341436
-0.79191726 1.1311044 -0.7339741 -1.2389088 -0.004918111 -1.2549896 0.39174286 1.2021667
1.2245615 -0.341183 -1.3729306 0.13869567 -0.4165444 -0.65036154 1.0961131 1.1226358
-0.8207024 -0.06586677 -0.3287058 -0.07018431 -0.38134614 -0.30630076 -0.07958949 0.06696113
0.15604986 0.40029523 -0.6176591 0.8614174 0.2838613 -0.5179657 -0.037057776 -0.40185392
-0.121703714 -0.04193404 -0.12037922 0.5605907 -0.63181335 0.7565113 -0.0011415043 -0.22905684
-0.42975923 0.3999295 -1.258381 -0.70174634 1.3484882 0.15407647 0.6658535 -0.59873265
-1.1443083 0.09470323 -1.516983 -0.168846 -2.2325203 0.5055042 1.0753138 -0.69105196
-0.6604037 0.111589655 -1.0162808 -0.5215888 1.827875 -0.051220905 -1.2874725 0.971069
-0.3281221 2.2401595 0.17337845 -0.72685957 0.17713626 0.33452845 1.158853e-39 -2.003072e-39
1.447788e-39 -6.908123e-39 -6.727122e-39 -5.555435e-39 -6.412193e-39 -4.217077e-39 2.813771e-39 6.155669e-39
7.73584e-40 -4.580859e-39 -5.750438e-39 -6.84049e-39 3.658514e-39 2.243763e-39 6.858871e-39 1.859746e-39
-1.880205e-39 5.258018e-39 -5.628304e-39 -1.097044e-39 -5.974561e-39 -1.908037e-39 6.908236e-39 -3.932353e-39
1.010126e-39 -3.031315e-39 5.9221e-39 4.56352e-39 -7.006233e-39 -3.245332e-39 2.528601e-39 -1.876627e-39
-3.194602e-39 -8.20801e-40 -7.0927e-41 4.790651e-39 1.618972e-39 -1.666259e-39 5.000581e-39 -6.43924e-39
4.576676e-39 -3.314114e-39 -8.61483e-40 1.152195e-39 -1.355242e-39 -7.2841e-40 6.562673e-39 5.431193e-39
-6.447744e-39 3.18044e-40 4.109044e-39 -6.006435e-39 5.191263e-39 -2.461295e-39 8.18489e-40 6.15911e-39
6.83219e-39 1.745041e-39 -1.119985e-39 3.465949e-39 6.766879e-39 3.44882e-40 5.23045e-39 -6.061064e-39
-2.10978e-40 2.311876e-39 3.14872e-39 -1.614805e-39 3.867585e-39 6.704682e-39 -1.202561e-39 6.26364e-39
6.433885e-39 -2.757855e-39 -5.958009e-39 8.87312e-40 -2.45562e-39 6.54584e-40 6.748005e-39 6.403048e-39
5.010764e-39 5.407742e-39 -6.10625e-39 6.836788e-39 6.16955e-39 5.78714e-39 -5.593123e-39 -2.031081e-39
-2.149445e-39 -2.579673e-39 -5.157643e-39 -1.787091e-39 4.227821e-39 -2.95413e-40 5.320285e-39 -6.987634e-39
-6.965356e-39 6.785677e-39 6.807256e-39 -5.599528e-39 6.504748e-39 -3.299094e-39 -6.924502e-39 -6.847871e-39

embed_word.weight f4 [8374, 10]
00000000: ebc4 0a80 ee0a 0580 e3eb 3b80 d268 4000
00000010: b414 0300 6b12 0700 5bfd 1b80 c9de 4400
00000020: 14ca 0d00 c7eb 2c00 1049 4800 3363 2400
00000030: 5887 0d80 ba63 2000 32e4 2c80 9713 4980
00000040: 3b3b 4a00 faf9 3200 3a4f 4900 8837 0880
00000050: 3443 3600 d023 4780 d6de 2680 a92c 0d80
00000060: a9f9 4180 725d 2880 7151 0a00 0da2 1980
00000070: 6818 3900 fce6 0f80 62ee 0600 fbc8 0180
00000080: a795 4980 886a 3c80 a3f1 4580 2c20 4a00
00000090: ffb0 4900 e235 1200 ccc9 0200 6b4a 0600
000000a0: 2f26 0280 632d 1980 8bd7 4280 063d 3d80
000000b0: 2755 1780 41ff 2580 617e 2f80 e5a6 4580
000000c0: 2578 1a00 7466 3f00 e648 1f00 860d 0680
000000d0: cd75 4b00 fd98 2f00 9a6f 4480 5a53 3900
000000e0: d48e 2280 07fb 4500 859e 2380 0fed 3d00
000000f0: 4769 0000 358d 3000 03e3 0980 1a6f 3700
00000100: 94d0 3c00 2641 3f80 fabc 2c80 128b 1200
00000110: 8285 0a00 9aad 4800 b94d 4a00 a18c 4980
00000120: ef36 4000 f70e 0180 c998 2a80 7716 4080
00000130: d0e5 0300 62d8 1d00 e3ef 0680 4911 4100
00000140: 3ee4 2000 6fc9 3680 0284 2280 d8d4 3d80
00000150: 5d6c 4a00 0b1f 0800 6c79 4a80 b0b5 4a80
00000160: 6060 2d00 3a3a 4c80 92f7 3680 ac61 0b80
00000170: edcb 3e80 e9ad 0f80 6a7d 4300 a11c 0680
00000180: 19dd 4980 f0d7 4400 acc7 4280 bc46 2c00
00000190: 988b 1680 12be 1400 3b72 4680 ffb1 4a00
000001a0: c857 4900 3fc0 2b00 c40e 4900 be58 4b00
000001b0: f87b 0000 2fea 2300 9cb7 3480 5530 2d00
000001c0: 8023 0580 5fe1 1200 2088 0480 5c80 3480
000001d0: 1b6b 4980 eef5 3e80 39ce 3b00 8e8c 4b80
000001e0: 61a4 2a00 d0f7 2c00 4636 2800 60e9 2a80
000001f0: e0ec 4580 0439 1480 594f 2280 f839 0280
00000200: 5bce 0980 430b 3180 7b1e 2d00 9cee 4900
00000210: 579d 0c00 51e5 1280 05bb 3780 1cea 4a00
00000220: a7d9 4a00 bf1a 4b00 40e2 4080 7382 3c00
00000230: f823 2200 1c94 1a00 425d 2c80 b9aa 2c80
00000240: fc71 4100 5708 4400 4dfb 4b00 dbee 3500
00000250: 215c 3380 04f7 4b80 8842 2b00 6fb8 3880
00000260: fc31 4a00 3fc8 2800 b3e4 4480 2c45 3580
00000270: 5bec 4900 6444 0a00 8d10 3980 83f3 3c80
00000280: 8ac3 2680 d4e4 1280 59d0 3700 18bd 0b80
00000290: 0b88 3f00 953f 0580 bf6d 0480 b64b 3f80
000002a0: 4cab 3b80 3d25 2280 d8cd 2480 47ca 2f80
000002b0: edf9 0b80 c453 4b80 fd6d 0a80 c996 4900
000002c0: 5621 2b80 1468 3d00 2f2b 4a80 8880 2d00
000002d0: d881 4a80 03f2 4900 7b77 4780 3af6 4880
000002e0: b1ef 4880 eef3 0600 4cd7 1300 3171 4580
000002f0: 3331 0b80 342f 2980 de17 1080 c37c 4780
00000300: e118 2680 6867 1980 6466 4b80 5ce4 0c00
00000310: b142 1080 5b50 2980 98fb 0900 9aa6 4b80
00000320: 9993 4700 b094 2280 8a85 3e80 1127 0880
00000330: a76e 4380 4f33 4a00 db9c 3580 ac64 2300
00000340: 5828 2480 3d15 4200 c1e9 4700 e847 4900
00000350: 3af2 4a80 9696 4800 cca4 4900 1f09 0680
00000360: e7e5 1080 e112 4480 0f01 3700 ef11 4280
00000370: fe00 4b00 6670 1c80 8b14 4c00 346b 4780
00000380: e14c 3500 2be0 3880 5678 4300 16a3 4000
00000390: b707 3480 ff23 4980 f108 1280 0579 1c80
000003a0: c776 2300 1993 1780 d249 0600 9995 3980
000003b0: 30ce 1580 5d39 1100 91d2 0080 7921 3580
000003c0: b5b1 4200 fe15 2380 169b 3000 3d45 2400
000003d0: 9c77 2980 674b 4980 3541 2500 f07e 4b00
000003e0: a6a3 1900 a15d 2700 867e 4100 0c1f 2c00
000003f0: 8438 1700 acff 4200 0c46 1b00 697c 4300
-9.88996e-40 -4.63098e-40 -5.502914e-39 5.915074e-39 2.82933e-40 6.49456e-40 -2.570445e-39 6.324734e-39
1.266353e-39 4.125343e-39 6.638366e-39 3.341664e-39 -1.242414e-39 2.974511e-39 -4.122623e-39 -6.711019e-39
6.817075e-39 4.68145e-39 6.732412e-39 -7.54605e-40 4.983225e-39 -6.533167e-39 -3.569687e-39 -1.209882e-39
-6.058868e-39 -3.706942e-39 9.4757e-40 -2.35402e-39 5.243379e-39 -1.460394e-39 6.36529e-40 -1.63934e-40
-6.757676e-39 -5.548346e-39 -6.423332e-39 6.807368e-39 6.767485e-39 1.672368e-39 2.56062e-40 5.77709e-40
-1.97369e-40 -2.312169e-39 -6.138465e-39 -5.623856e-39 -2.142763e-39 -3.489481e-39 -4.361605e-39 -6.39652e-39
2.430823e-39 5.82239e-39 2.873051e-39 -5.55864e-40 6.929921e-39 4.37115e-39 -6.284849e-39 5.264524e-39
-3.173644e-39 6.426701e-39 -3.271108e-39 5.687006e-39 3.7766e-41 4.45876e-39 -9.07956e-40 5.090808e-39
5.584954e-39 -5.809007e-39 -4.108554e-39 1.702928e-39 9.66249e-40 6.674432e-39 6.823708e-39 -6.75444e-39
5.897178e-39 -9.7204e-41 -3.9119e-39 -5.88553e-39 3.57948e-40 2.740853e-39 -6.37068e-40 5.975508e-39
3.020614e-39 -5.031378e-39 -3.169762e-39 -5.678319e-39 6.8347e-39 7.4582e-40 -6.839385e-39 -6.861004e-39
4.16717e-39 -7.000385e-39 -5.047928e-39 -1.045229e-39 -5.766956e-39 -1.43992e-39 6.197968e-39 -5.61283e-40
-6.783306e-39 6.322278e-39 -6.132772e-39 4.066137e-39 -2.070458e-39 1.904894e-39 -6.469463e-39 6.85968e-39
6.735481e-39 4.017891e-39 6.709288e-39 6.919497e-39 4.4472e-41 3.298252e-39 -4.841312e-39 4.149936e-39
-4.71912e-40 1.733887e-39 -4.16174e-40 -4.821492e-39 -6.742413e-39 -5.782024e-39 5.492273e-39 -6.938084e-39
3.916059e-39 4.12966e-39 3.69289e-39 -3.94081e-39 -6.421624e-39 -1.857163e-39 -3.150871e-39 -2.04466e-40
-9.00546e-40 -4.503979e-39 4.143532e-39 6.789588e-39 1.158469e-39 -1.735302e-39 -5.118042e-39 6.87981e-39
6.873906e-39 6.897257e-39 -5.958635e-39 5.556926e-39 3.13531e-39 2.440855e-39 -4.074216e-39 -4.102006e-39
6.010197e-39 6.247806e-39 6.977812e-39 4.952966e-39 -4.71666e-39 -6.976275e-39 3.972793e-39 -5.20895e-39
6.813758e-39 3.745255e-39 -6.326856e-39 -4.892095e-39 6.78878e-39 9.42889e-40 -5.24056e-39 -5.597485e-39
-3.559895e-39 -1.735127e-39 5.125693e-39 -1.078025e-39 5.834439e-39 -4.81986e-40 -4.06711e-40 -5.812796e-39
-5.479744e-39 -3.135765e-39 -3.37992e-39 -4.388832e-39 -1.099847e-39 -6.917712e-39 -9.57811e-40 6.758083e-39
-3.960885e-39 5.639301e-39 -6.811318e-39 4.178706e-39 -6.842406e-39 6.790809e-39 -6.563182e-39 -6.700485e-39
-6.698141e-39 6.38518e-40 1.822108e-39 -6.377255e-39 -1.02784e-39 -3.782189e-39 -1.47793e-39 -6.565076e-39
-3.498674e-39 -2.332983e-39 -6.924393e-39 1.183946e-39 -1.493292e-39 -3.794081e-39 9.16774e-40 -6.947428e-39
6.573268e-39 -3.175746e-39 -5.741706e-39 -7.48698e-40 -6.192673e-39 6.814233e-39 -4.92355e-39 3.250357e-39
-3.32055e-39 6.068762e-39 6.604175e-39 6.729786e-39 -6.882721e-39 6.666176e-39 6.763109e-39 -5.54285e-40
-1.551841e-39 -6.251586e-39 5.051332e-39 -6.067576e-39 6.888018e-39 -2.611715e-39 6.986867e-39 -6.558777e-39
4.89486e-39 -5.223204e-39 6.196147e-39 5.935976e-39 -4.778213e-39 -6.716904e-39 -1.656247e-39 -2.614808e-39
3.256852e-39 -2.164985e-39 5.77495e-40 -5.288289e-39 -2.002512e-39 1.581782e-39 -7.5537e-41 -4.879289e-39
6.124892e-39 -3.222132e-39 4.463738e-39 3.330916e-39 -3.808163e-39 -6.73104e-39 3.421305e-39 6.933199e-39
2.354593e-39 3.615172e-39 6.014695e-39 4.0519e-39 2.13249e-39 6.15286e-39 2.504686e-39 6.197608e-39

W_gnn.0.weight f4 [10, 10]
00000000: 4d74 d03e c70a 85be 33a1 e33e 368d 923d
00000010: 58f0 873e ed5a 203e c153 8b3e a32e 10be
00000020: 2da5 4e3e 7392 503d 231d 4a3d b4da 053e
00000030: 1799 06bd 6c6d dfbc a91b 38be 4264 c73e
00000040: d2c5 ef3e cc83 a2be 22da a03e 754e 023f
00000050: d149 633e 2894 9abc 828d ef3d 6e91 9dbe
00000060: c2ce 8a3e 39d0 393e 8330 153e 2be2 b33e
00000070: cd96 c13e 71f1 773e cad1 70bd 550e 04bd
00000080: bcc1 adbd 40fc 833e 0eee ea3e 8136 003e
00000090: 754e 84be 59fb ae3e 58a5 293e 74db 41be
000000a0: c9c9 553e ca66 203e b459 243e d087 343e
000000b0: e9d6 3c3e fd6e ddbd 3656 653e 6854 ebbd
000000c0: b4f1 583e c5cb 91bc b657 bdbe 14cd 53be
000000d0: 0a13 aebe 1169 f43e d602 1d3d 289c b53e
000000e0: b319 e83d 0268 063e d835 a1bd bae3 f7be
000000f0: cdad b2be 1bd9 c93e cc18 fb3d 3cee 993e
00000100: ee5a 42be bc64 1c3f a71e bd3e 60ac efbd
00000110: 6b1b ca3e f355 943e e43f c6be cc5c 97bd
00000120: f131 9e3e 1bd0 8dbe 8f3f 04be 962b 223f
00000130: 5ee4 99be 43d6 cc3e 6d06 83bd 17ae 00be
00000140: 9e34 763e 264f 7c3d 9e0e cf3e 9a9c bf3e
00000150: f89d 143f 7ea9 2a3e b085 1c3e 5fb9 05be
00000160: 89c3 a33e bfdc 9ebd aabe 1c3e 7355 e83d
00000170: 4d2c 7f3e aaf6 323e acb5 053f 60c9 5a3b
00000180: 29a9 ca3d 08da 473e 53de 15be fb50 d73e
0.4071373 -0.25984785 0.44458923 0.0715584 0.26550555 0.15659685 0.27212337 -0.1408029
0.20180197 0.050920915 0.049344193 0.1307171 -0.03286084 -0.027273856 -0.17979302 0.38943678
0.46830612 -0.31741178 0.31416422 0.50900966 0.22196127 -0.018869475 0.11696912 -0.30775017
0.2711087 0.18145837 0.14569287 0.3513349 0.37810364 0.24213196 -0.05879382 -0.03224023
-0.084842175 0.2577839 0.45884746 0.12520792 -0.25841108 0.34176138 0.1656698 -0.18931371
0.20877756 0.15664211 0.16049844 0.17629933 0.18441357 -0.10812185 0.22396168 -0.114907086
0.21185952 -0.01779736 -0.3698098 -0.206837 -0.339989 0.4773641 0.038332783 0.354707
0.11333027 0.13125613 -0.07871598 -0.4841593 -0.34898224 0.3942345 0.12260589 0.3006457
-0.1898 0.6109121 0.36937448 -0.117028 0.39474043 0.28971824 -0.3872062 -0.073907465
0.30897477 -0.27697834 -0.1291487 0.63347757 -0.30057043 0.4000722 -0.0639771 -0.1256641
0.2404351 0.06159892 0.4044084 0.37424165 0.5805354 0.16666219 0.15285373 -0.13058995
0.3198512 -0.07756948 0.15307108 0.11344423 0.24919243 0.17476907 0.52230334 0.003338419
0.09895546 0.19516766 -0.14635591 0.4205397

W_gnn.0.bias f4 [10]
00000000: 625e 013e dcaf 293e f3bb 47be c3ee 95be
00000010: 5e3b 87be 31ba 7b3e 7974 903d 7e6a a93e
00000020: 1942 c3bd a9f6 183e
0.1263366 0.16570991 -0.1950529 -0.29283723 -0.2641248 0.24582745 0.070534654 0.3308906
-0.095340915 0.14937843

W_gnn.1.weight f4 [10, 10]
00000000: 0deb 503e dc50 923e d3e9 523e cfec a93e
00000010: db8b 28bd 7ea5 9dbd f0b5 b43e acb5 8cbe
00000020: f73b f63e cf23 2e3e 520f f73e b08b bcbd
00000030: 28ea 1ebe a81e 153e c822 303e f9fd 0bbf
00000040: 2fff ca3d 2bd3 043d e7df d63e 9539 723e
00000050: c48c e13e cdbe 22bd c090 9b3e 38ba c23e
00000060: f205 873e ed10 25bc c891 c13d 6175 36bf
00000070: d826 483d a589 a5be f77f 9c3e e9d0 383e
00000080: 33af 1fbe 7745 6e3e b1e0 823e bc2f 0dbf
00000090: 86f1 6abd 0624 643d 69dd 06be 2e08 59be
000000a0: 0c4f aa3d a77b 58be 27db 84be ffff 463d
000000b0: bbc6 a03e f52a 15bf 80a9 0abd ac3e 41be
000000c0: 9a83 c93e 0285 1b3c 2a7f 893e 4d4c c6be
000000d0: a35d b2be b8f3 8a3e dc2d f53d 7a9f 4ebd
000000e0: 560d 08bf 8b31 cf3e c906 ec3e 26db 24bf
000000f0: 0fa1 febd ec39 e4be 799b 0a3e 2857 af3e
00000100: 35ad 2d3e 7b1f 943e 006e 99be 042e 363e
00000110: b8f9 693e 8c21 24bf 24f5 aebd fa83 03bf
00000120: 1479 163d 1d14 d73e c974 373e 91d8 883d
00000130: 6602 c6be 590e 023f 055b 493e 4348 b0be
00000140: 37b5 213d 308c 3fbe d49b 0b3e 9faa 923e
00000150: 27d8 983e fa66 b83d e71d 713e 5a0c 12bf
00000160: b6a8 603e 1f19 9e3e cc38 e53d 4e9e dcbe
00000170: 8414 92be 59ce e6bd eba9 c0be d651 e4be
00000180: 05e6 43bf bf53 643d 3146 e2be 2e2c a53e
0.20402165 0.28577316 0.2059701 0.33188483 -0.041149 -0.07697581 0.35295057 -0.27482355
0.48092625 0.17005847 0.48253876 -0.09206331 -0.15519011 0.14562476 0.17200768 -0.54684407
0.09911954 0.032427948 0.419677 0.23654778 0.44052708 -0.039732743 0.30383873 0.380327
0.26371723 -0.010074836 0.09451634 -0.71272856 0.04886517 -0.32331577 0.3056638 0.18048443
-0.15594177 0.23268686 0.2556205 -0.5515096 -0.05735924 0.055698417 -0.13170399 -0.21194527
0.08315858 -0.2114092 -0.2594845 0.04858398 0.3140162 -0.5826867 -0.033853054 -0.18871564
0.39358217 0.009492161 0.2685483 -0.38730088 -0.34837064 0.27139068 0.119716376 -0.050445057
-0.5314535 0.40467486 0.46098927 -0.64396894 -0.12433063 -0.4457544 0.1353587 0.34246182
0.16960604 0.28930268 -0.29966736 0.17790991 0.22849166 -0.6411369 -0.085428506 -0.51373255
0.036736563 0.42007533 0.17915644 0.06681932 -0.38673705 0.5080314 0.19663627 -0.3443013
0.03947946 -0.18705821 0.13633662 0.286458 0.2985241 0.09004016 0.23546563 -0.57050097
0.21939358 0.3087854 0.11192474 -0.43089527 -0.28531277 -0.112698264 -0.37629637 -0.44593686
-0.76522857 0.05574393 -0.44194177 0.3226027

W_gnn.1.bias f4 [10]
00000000: fcbd 07be f3ee ab3c ce6b 3d3e 0a46 1bbf
00000010: f35a 90bc 2b9f 863e e436 6b3e 068a fa3c
00000020: e94c 81be ede3 b23e
-0.13256067 0.020987963 0.18498155 -0.60653746 -0.017621493 0.2629331 0.22970158 0.030583393
-0.2525399 0.3493952

W_gnn.2.weight f4 [10, 10]
00000000: 807c 9fbc e2a1 a7bd c219 b8be 002a 4a3e
00000010: 33af e03b f630 a8be fbb0 b8be 4be7 2b3e
00000020: ffda e4bd 01f8 8ebe a3ea b7bd 1555 613e
00000030: 101b 133e 8b63 103f 746a b43e 580c c13d
00000040: e96d 6dbd cb8d 5cbf b37c f43b f819 5ebe
00000050: ef93 fa3d 46d0 2f3e 398a 733d ffab a33e
00000060: 33c8 b83e cf28 bdbd 128e 9ebc 8bd4 d6be
00000070: 47dc 273e cfa4 54bd 51fe 9a3e a3c4 d03c
00000080: 5637 033e c7cc ca3e 9e3a 813d 4e97 e1be
00000090: 68dd 4a3e a518 47be 2344 683e a6ea 0dbe
000000a0: 0883 b8be 3b35 d8be ea76 19bd 4108 9a3e
000000b0: 7e3e d83e c78d 453e b4d1 863e c496 ee3e
000000c0: 0b80 91be 0642 93be d640 24bf 2d11 33be
000000d0: 3349 d2bd a64c 8f3e 0f0e a33e d2cb d73e
000000e0: cc6c 9c3d e36b a33d 7ffe 843e cb25 32bb
000000f0: 4e74 dfbe 79f0 80be e92e 8e3e 3832 e83e
00000100: ccfc a63e 1b61 e63e c086 b33d d9e3 213f
00000110: 4442 7cbe 588b a9be c390 063e 2a97 29be
00000120: adc0 56bf 9cb8 b7bb 0d9b 1cbf 75d9 143c
00000130: 6078 2fbf 5d80 10bf b937 243f 1694 e2bd
00000140: 2f70 a13e c2a5 bc3d 5414 10be fb59 f33e
00000150: b213 c33e 3fb0 d2be 51a6 6dbe c24c 98be
00000160: af6b 4d3e 056c eabd d49f fcbe b512 583e
00000170: 5f94 4d3e dc0e 9abe 20b2 c0be 639a 38bc
00000180: 79ff 01bf af0d 3ebe dcac 953e dfd5 c7bd
-0.019468546 -0.081851736 -0.35957152 0.19742584 0.006856823 -0.32849854 -0.36072525 0.1678745
-0.11174583 -0.27923587 -0.089803 0.22005112 0.14365792 0.5640189 0.35237467 0.094261825
-0.057966147 -0.8615386 0.0074611544 -0.21689594 0.12235247 0.17169294 0.05945799 0.3196716
0.3609024 -0.09236299 -0.019354854 -0.41959032 0.16392623 -0.051914986 0.30272153 0.025484389
0.12814078 0.39609358 0.063100085 -0.4406075 0.19811022 -0.19442995 0.22682242 -0.13859043
-0.3603747 -0.42228112 -0.03746692 0.30084422 0.42235178 0.19292365 0.26331866 0.465994
-0.28418002 -0.2876131 -0.6416143 -0.17487021 -0.10267868 0.27988166 0.31846663 0.4214769
0.07637939 0.07979562 0.25975415 -0.002718317 -0.4364342 -0.25183466 0.27770165 0.45350814
0.32614744 0.4499596 0.08765936 0.6323829 -0.24634653 -0.33114123 0.1314116 -0.16561571
-0.8388775 -0.005606724 -0.6117409 0.009085049 -0.6854305 -0.56445867 0.64147526 -0.110634014
0.31530902 0.09211303 -0.14070255 0.47529587 0.38100964 -0.4115009 -0.23207976 -0.29746062
0.2006061 -0.11446384 -0.4934069 0.21100886 0.2007613 -0.30089462 -0.376359 -0.011267277
-0.50780445 -0.18559907 0.29233444 -0.097575895

W_gnn.2.bias f4 [10]
00000000: 46c7 48be 1abe 86bd aae0 5fbe a562 b0be
00000010: ac1b 60be b470 6d3d f692 8abe 2e08 3e3d
00000020: cb24 85ba b44b 61be
-0.19607267 -0.06579228 -0.21863046 -0.3445026 -0.21885556 0.05796881 -0.27065247 0.04639452
-0.001015806 -0.22001535

W_cnn.0.weight f4 [1, 1, 23, 23]
00000000: c2a3 4800 f848 4000 f64e 3980 0e15 0380
00000010: 56e9 0e80 6cfa 4a00 6169 4980 4b4a 4c00
00000020: d94e 0100 6069 4900 ce62 4a00 35f1 2b00
00000030: c6aa 3800 9393 1700 7632 0e00 d6a9 3b80
00000040: 8127 4800 0da3 0680 79e2 1100 6429 4600
00000050: 4d17 4980 bf6d 2600 6cb1 1080 d638 1e00
00000060: d8f9 1c00 70fa 2400 959c 4800 ca90 3380
00000070: 03e2 0700 e80e 4800 6645 4780 f0de 4100
00000080: 7988 0380 5329 0980 b692 1980 5b97 1700
00000090: e261 2d80 9863 2500 8b08 4a80 8338 2c80
000000a0: 7b8d 3c80 6c19 4b80 48c4 1680 6995 0380
000000b0: 8062 4680 e872 3300 d5fb 3f00 22d7 1e80
000000c0: 32e7 3680 fadf 3900 f671 0000 7458 0000
000000d0: 5279 4000 752a 3380 d331 4780 9768 4780
000000e0: f9c2 1b00 646e 4180 947f 2300 5447 0800
000000f0: 78ef 3e80 3489 4180 f07d 4000 2110 1280
00000100: 7b09 3100 4994 0800 c3b0 0c80 08cf 3900
00000110: 6d51 0780 3074 2780 801a 4600 81fb 2680
00000120: 2d34 2600 a7de 2680 8019 0500 a9c7 3200
00000130: c33e 3a00 a747 4980 2249 4b00 7660 4900
00000140: 45cf 3a80 5790 3480 2331 4700 c026 0e80
00000150: ed51 0d00 689b 0980 4fa7 2e00 03f7 4700
00000160: 8fec 4800 a57c 0e80 4ecf 4a00 d40e 4500
00000170: 54ba 2a00 bcd3 0000 6fe8 0e80 4504 4c00
00000180: 2a87 1e80 264c 1c00 f92f 4a80 79fe 1500
00000190: a1cd 3a80 06e8 0b00 1360 1400 abf4 4700
000001a0: 2c7c 1b00 fffd 3e00 de91 2f00 29ef 4b00
000001b0: 3b6c 1880 e2be 3c00 e23f 0080 b9bc 1980
000001c0: 1096 3a00 7d96 2600 0f32 4800 4756 2d80
000001d0: fb48 4c80 5c21 4b80 343e 0880 9524 4580
000001e0: 8b7b 2d80 ba92 2300 9ebc 1500 998b 4500
000001f0: d7d4 3780 a36c 2d00 6f78 2080 d1e4 1700
00000200: 442e 4900 1141 2f00 d2f3 2480 ff76 4200
00000210: 6187 4980 8e8b 0280 b276 4400 1d9b 4b00
00000220: 39b6 2880 604d 2d00 92b7 1180 6f9f 3e00
00000230: 355a 4900 8007 4900 127f 2980 3d75 0080
00000240: 3813 4a80 96b2 4a80 6d23 2d80 75b8 2180
00000250: 1082 0900 a2ad 1600 c834 1600 35cd 0b80
00000260: 6898 1e00 ad9f 1580 b2fc 1a00 6c3c 1980
00000270: 270e 4780 b7d7 3300 1aab 4a80 fb77 1880
00000280: 10d4 3280 e73a 4c00 e0df 4880 2933 2480
00000290: fe04 4a00 418b 1900 9f6a 0c00 9cb2 4000
000002a0: 30a8 4500 bde1 1280 1402 3600 ba04 0880
000002b0: 1b7a 0980 f88f 3f00 3484 4a80 6551 0c80
000002c0: da49 0600 d235 4c00 70a1 1200 10e2 2480
000002d0: 9bd8 4b80 2287 0300 c50b 1800 4977 3100
000002e0: e76a 0480 d795 0300 a5ae 1000 1e56 3080
000002f0: 91b3 1100 bcd4 3980 0358 4700 ae2e 4280
00000300: 2b8a 2580 2d54 0500 e087 4880 f18c 4880
00000310: 7a09 1700 f441 2b80 2f22 0800 aa00 1800
00000320: 8c52 4300 c624 4500 d199 4680 849d 0680
00000330: ed10 3900 749f 3480 cfe4 0080 af53 0600
00000340: 75a5 4880 73db 3c00 4e6b 3f80 61da 0500
00000350: a578 4a80 897e 4900 a297 4980 1de2 4a00
00000360: 4d8b 2900 d724 0a00 1f6b 4200 bc63 3b80
00000370: 4b7e 1a80 9cb4 0280 7cf5 4280 5dfc 4700
00000380: d7da 1780 d588 4500 0f43 1f00 fead 1a00
00000390: cc56 1200 16f8 0b00 0751 4780 8e17 4c80
000003a0: dfe4 4a80 2221 3600 f363 2980 546b 4900
000003b0: 9bac 4180 a8c0 4580 a2bb 4a80 c3e2 2180
000003c0: f0ba 2300 8de8 2500 3ec0 3700 6fe0 0f00
000003d0: 45ae 0e00 acad 4900 1d36 4200 1189 4600
000003e0: c987 2f80 d315 2200 08ed 1f00 78e6 0680
000003f0: d520 2780 4002 4900 1875 4380 db58 3380
6.670901e-39 5.903648e-39 -5.262949e-39 -2.8306e-40 -1.369402e-39 6.885661e-39 -6.741794e-39 7.006149e-39
1.20121e-40 6.741793e-39 6.831271e-39 4.035455e-39 5.20405e-39 2.165156e-39 1.303799e-39 -5.47922e-39
6.626327e-39 -6.09505e-40 1.642447e-39 6.443333e-39 -6.71235e-39 3.529118e-39 -1.533015e-39 2.775454e-39
2.661021e-39 3.395918e-39 6.668327e-39 -4.735551e-39 7.23926e-40 6.617503e-39 -6.545216e-39 6.049282e-39
-3.24464e-40 -8.41344e-40 -2.348517e-39 2.166513e-39 -4.167711e-39 3.433641e-39 -6.798891e-39 -4.061034e-39
-5.560883e-39 -6.896782e-39 -2.090793e-39 -3.29105e-40 -6.46382e-39 4.724831e-39 5.875977e-39 -2.83224e-39
-5.042054e-39 5.314971e-39 4.0881e-41 3.1731e-41 5.920993e-39 -4.698841e-39 -6.538194e-39 -6.55784e-39
2.549501e-39 -6.008908e-39 3.260009e-39 7.60272e-40 -5.779706e-39 -6.018526e-39 5.92265e-39 -1.658825e-39
4.50334e-39 7.87879e-40 -1.165436e-39 5.308892e-39 -6.72059e-40 -3.623265e-39 6.437991e-39 -3.579971e-39
3.508466e-39 -3.569621e-39 4.68325e-40 4.6634e-39 5.348973e-39 -6.729695e-39 6.913897e-39 6.738595e-39
-5.400813e-39 -4.827225e-39 6.537947e-39 -1.299598e-39 1.223251e-39 -8.82269e-40 4.284452e-39 6.608931e-39
6.697017e-39 -1.330411e-39 6.870194e-39 6.341969e-39 3.923933e-39 7.5956e-41 -1.369078e-39 6.98103e-39
-2.803553e-39 2.598711e-39 -6.813036e-39 2.019833e-39 -5.400225e-39 1.093425e-39 1.871175e-39 6.60809e-39
2.524103e-39 5.784917e-39 4.368596e-39 6.973457e-39 -2.242878e-39 5.578606e-39 -2.2917e-41 -2.363588e-39
5.380291e-39 3.543734e-39 6.630113e-39 -4.163548e-39 -7.005678e-39 -6.89963e-39 -7.56998e-40 -6.349772e-39
-4.176916e-39 3.266878e-39 1.996209e-39 6.386727e-39 -5.127305e-39 4.171569e-39 -2.98194e-39 2.1943e-39
6.720588e-39 4.33961e-39 -3.393544e-39 6.10383e-39 -6.752556e-39 -2.33734e-40 6.287394e-39 6.943306e-39
-3.738789e-39 4.160354e-39 -1.627056e-39 5.750995e-39 6.736351e-39 6.706682e-39 -3.81084e-39 -4.2057e-41
-6.802721e-39 -6.859891e-39 -4.145306e-39 -3.096742e-39 8.73177e-40 2.082669e-39 2.039315e-39 -1.083805e-39
2.809738e-39 -1.985826e-39 2.478373e-39 -2.317563e-39 -6.525397e-39 4.760994e-39 -6.857206e-39 -2.247093e-39
-4.667848e-39 7.000628e-39 -6.692467e-39 -3.32443e-39 6.797618e-39 2.345842e-39 1.140274e-39 5.941545e-39
6.396984e-39 -1.734019e-39 4.959862e-39 -7.3638e-40 -8.70323e-40 5.837283e-39 -6.843252e-39 -1.131225e-39
5.77506e-40 6.998805e-39 1.710952e-39 -3.387174e-39 -6.965366e-39 3.23983e-40 2.208274e-39 4.542731e-39
-4.05691e-40 3.29259e-40 1.532019e-39 -4.438997e-39 1.62562e-39 -5.310938e-39 6.551893e-39 -6.077888e-39
-3.447479e-39 4.89374e-40 -6.660898e-39 -6.662716e-39 2.115616e-39 -3.972586e-39 7.46947e-40 2.20429e-39
6.18259e-39 6.349841e-39 -6.483664e-39 -6.07519e-40 5.240695e-39 -4.832647e-39 -8.2081e-41 5.81033e-40
-6.67151e-39 5.588853e-39 -5.82413e-39 5.37517e-40 -6.839106e-39 6.749383e-39 -6.758387e-39 6.876941e-39
3.815227e-39 9.3157e-40 6.09957e-39 -5.454072e-39 -2.433028e-39 -2.48461e-40 -6.149206e-39 6.610851e-39
-2.190721e-39 6.385735e-39 2.870956e-39 2.45014e-39 1.684176e-39 1.099187e-39 -6.549387e-39 -6.987948e-39
-6.87793e-39 4.971003e-39 -3.80111e-39 6.742493e-39 -6.031226e-39 -6.405761e-39 -6.863137e-39 -3.111918e-39
3.281303e-39 3.481337e-39 5.119916e-39 1.458044e-39 1.348213e-39 6.766293e-39 6.080555e-39 6.477655e-39
-4.364979e-39 3.130236e-39 2.931931e-39 -6.3369e-40 -3.593362e-39 6.704798e-39 -6.194984e-39 -4.715486e-39

W_cnn.1.weight f4 [1, 1, 23, 23]
00000000: d033 4000 004b 4b00 251d 0880 f1a2 0b80
00000010: ee0a 4a00 283c 4780 0b2b 0780 8a26 2f80
00000020: 9334 4b00 34f0 4980 21e5 1200 3581 4b00
00000030: 7b4f 0000 1616 3400 c0ca 1b80 ffcc 2180
00000040: 5272 0700 04c9 4b00 5e32 4900 c93b 3380
00000050: 686e 4a00 b57c 2980 d0f4 4200 8fb1 4500
00000060: d1ae 1b00 f700 2d80 db8e 2c80 8130 1280
00000070: e7a7 0080 4d9a 1980 bed6 1700 5542 4700
00000080: 2b0d 2d00 2fbc 1100 210e 2f00 f42c 0780
00000090: 1a12 2100 9c89 3b00 012c 4c00 91c1 4000
000000a0: 58de 1500 cc78 0800 693e 3780 e7e4 0500
000000b0: 4ff2 0100 f2a2 0b80 4e8a 0200 8993 0280
000000c0: e455 2800 0bca 0d00 c851 0a80 2375 4380
000000d0: 17fb 3880 dd43 2300 da05 2d80 bc0f 3b00
000000e0: ada4 0800 63e3 1f00 ef80 4980 d47e 3980
000000f0: 9a17 2e80 553d 2b80 fb23 2380 6237 3a80
00000100: 8e32 4700 d678 0200 71a4 4980 5c51 3100
00000110: 8a9f 4300 8d71 4580 36fb 3880 a129 4500
00000120: 0aa7 2280 102e 0980 ed82 0700 6840 4800
00000130: 64d3 0a80 90f4 1400 c1ef 2300 62b0 4500
00000140: 0206 2f80 df17 4580 b50c 1500 9c19 2300
00000150: af94 4b00 6a8f 0980 f339 4900 c5b6 1c00
00000160: 13c9 2c00 eb2a 4600 3353 1d80 10d1 2680
00000170: 673c 4080 3334 0c00 a24a 1880 e86f 0000
00000180: 87b3 3d00 e582 0600 0916 2900 3c40 3c00
00000190: 5a00 2e80 f871 3300 fdc9 3d00 7275 0100
000001a0: a246 3200 47d1 0280 da5e 1800 a007 0700
000001b0: 4b1c 4200 a8a9 3680 46f6 4b00 8ce0 3c80
000001c0: 33bf 1400 86e9 3c80 a768 0b00 c1f3 1a00
000001d0: c4fe 4180 e9f7 1500 b95d 1c00 b7f7 0180
000001e0: fa76 3880 1954 3900 62f0 4980 56a0 4100
000001f0: 4179 4500 5be0 2000 ebe6 4a80 af58 1c00
00000200: bf83 2380 af48 1180 e21e 3d00 52e8 0800
00000210: 29e4 2c00 05bb 2980 26a8 3e80 c113 3f00
00000220: 693c 1200 92e8 3b00 2091 4580 4a3e 1d00
00000230: e884 2a80 2962 4400 6f5d 4980 86b8 1180
00000240: c854 3800 f057 2480 056c 1600 1067 1b80
00000250: 05ce 1400 a4cc 4580 e05c 4280 cf8e 4980
00000260: 9934 2f80 372a 1f80 8c3d 1380 1955 0380
00000270: 593d 0080 9434 4080 69fb 1180 51e6 4180
00000280: db77 2e00 6ccc 4480 1cb7 1580 c1cb 4280
00000290: 7711 2f00 cc5c 3f00 e587 4a00 d67b 2580
000002a0: f176 3e00 0d8e 0100 7748 4b00 bc9a 2300
000002b0: 399f 4280 3157 3a00 c899 0a80 7c08 4a00
000002c0: 7a7a 1700 170f 3c80 581d 0d80 016b 2200
000002d0: 7b9c 4080 5844 4780 e4c6 2380 d665 2780
000002e0: 405f 0700 f994 1400 558e 0380 fccd 3b00
000002f0: 450d 4980 8f46 4980 c2d4 1180 fbf7 0880
00000300: 7b6f 4580 3793 0e80 2ea8 4980 c753 2300
00000310: 3def 3a80 ddba 4080 ad1e 2600 495b 3900
00000320: ef2e 3480 50d0 2b80 9edc 4800 2fcc 4980
00000330: 19df 4900 7c28 1500 b015 3500 83f8 3d80
00000340: b4e0 3c80 47ce 4600 83b7 3f00 6238 4780
00000350: ae62 1b80 5dd6 3680 2348 2180 6e94 1200
00000360: ff67 4900 ea53 4a00 25a8 2b00 4897 4880
00000370: 0254 1480 3609 4580 76ab 1680 1b98 4900
00000380: 8734 0700 4614 2000 e0d5 1d80 027e 3200
00000390: 355c 3880 010f 4100 b100 4400 61d5 1180
000003a0: 39f1 0f00 3ec7 0f80 3874 4b00 668d 4680
000003b0: e56f 4400 04ec 0180 1ede 3e00 f2f2 0400
000003c0: 4d1c 4280 8773 0000 a524 4000 45d6 2000
000003d0: 123c 2d80 3765 4980 49ce 1a00 213c 4380
000003e0: 26e9 3080 83de 3b00 a38a 3c00 6b00 1f00
000003f0: c488 0680 b400 4380 0c58 2100 a0f4 3e00
5.896059e-39 6.914567e-39 -7.45139e-40 -1.068643e-39 6.799748e-39 -6.5419e-39 -6.5829e-40 -4.330094e-39
6.906522e-39 -6.79016e-39 1.735235e-39 6.934013e-39 2.8512e-41 4.783369e-39 -2.552291e-39 -3.10411e-39
6.83859e-40 6.959773e-39 6.72206e-39 -4.705057e-39 6.835433e-39 -3.809992e-39 6.148965e-39 6.400345e-39
2.542271e-39 -4.132943e-39 -4.092009e-39 -1.670439e-39 -6.0232e-41 -2.35124e-39 2.189251e-39 6.544116e-39
4.137321e-39 1.628711e-39 4.321337e-39 -6.58975e-40 3.037065e-39 5.467659e-39 6.995283e-39 5.94691e-39
2.008307e-39 7.78018e-40 -5.073341e-39 5.41292e-40 1.7876e-40 -1.068644e-39 2.33285e-40 -2.36597e-40
3.704232e-39 1.266341e-39 -9.47693e-40 -6.194999e-39 -5.232862e-39 3.238587e-39 -4.134696e-39 5.423939e-39
7.93759e-40 2.928471e-39 -6.750244e-39 -5.28012e-39 -4.2329e-39 -3.970928e-39 -3.22715e-39 -5.346326e-39
6.538456e-39 2.27019e-40 -6.762982e-39 4.529126e-39 6.21021e-39 -6.377384e-39 -5.232905e-39 6.351583e-39
-3.182329e-39 -8.43044e-40 6.89816e-40 6.63526e-39 -9.94188e-40 1.924442e-39 3.30025e-39 6.399923e-39
-4.318424e-39 -6.345213e-39 1.933104e-39 3.223429e-39 6.941e-39 -8.77967e-40 6.72478e-39 2.636959e-39
4.112894e-39 6.443881e-39 -2.693076e-39 -3.564746e-39 -5.89914e-39 1.120752e-39 -2.230825e-39 4.0144e-41
5.666368e-39 5.97969e-40 3.77316e-39 5.533173e-39 -4.224559e-39 4.724495e-39 5.674425e-39 1.33967e-40
4.617113e-39 -2.58746e-40 2.238078e-39 6.45584e-40 6.071292e-39 -5.019978e-39 6.976008e-39 -5.590682e-39
1.905299e-39 -5.593902e-39 1.047733e-39 2.475165e-39 -6.0607e-39 2.017479e-39 2.605015e-39 -1.80699e-40
-5.185469e-39 5.264792e-39 -6.790224e-39 6.026825e-39 6.380147e-39 3.01922e-39 -6.878664e-39 2.603208e-39
-3.261504e-39 -1.587277e-39 5.613044e-39 8.18025e-40 4.12261e-39 -3.832345e-39 -5.754121e-39 5.792723e-39
1.67471e-39 5.501725e-39 -6.38871e-39 2.685574e-39 -3.904769e-39 6.280027e-39 -6.737509e-39 -1.627398e-39
5.173202e-39 -3.337624e-39 2.059131e-39 -2.51653e-39 1.910616e-39 -6.41006e-39 -6.09446e-39 -6.755221e-39
-4.335137e-39 -2.862044e-39 -1.766953e-39 -3.06034e-40 -2.2007e-41 -5.896333e-39 -1.651392e-39 -6.051929e-39
4.267429e-39 -6.318146e-39 -1.994233e-39 -6.134236e-39 4.322534e-39 5.818926e-39 6.844576e-39 -3.442337e-39
5.736469e-39 1.42794e-40 6.913658e-39 3.26975e-39 -6.118261e-39 5.357737e-39 -9.73521e-40 6.79887e-39
2.156153e-39 -5.515543e-39 -1.204388e-39 3.160793e-39 -5.933606e-39 -6.544837e-39 -3.285591e-39 -3.618116e-39
6.77018e-40 1.890151e-39 -3.26566e-40 5.492188e-39 -6.708751e-39 -6.729303e-39 -1.637527e-39 -8.23643e-40
-6.376641e-39 -1.338508e-39 -6.764323e-39 3.244296e-39 -5.412281e-39 -5.944506e-39 3.500753e-39 5.26737e-39
-4.792282e-39 -4.023655e-39 6.691298e-39 -6.777238e-39 6.784024e-39 1.943068e-39 4.875061e-39 -5.691114e-39
-5.590738e-39 6.502483e-39 5.851468e-39 -6.540547e-39 -2.514958e-39 -5.036016e-39 -3.056449e-39 1.706285e-39
6.741298e-39 6.82593e-39 4.009245e-39 -6.666425e-39 -1.866846e-39 -6.339953e-39 -2.08189e-39 6.758556e-39
6.61692e-40 2.946009e-39 -2.739953e-39 4.636978e-39 -5.175865e-39 5.97469e-39 6.245062e-39 -1.63775e-39
1.464067e-39 -1.449007e-39 6.929354e-39 -6.479209e-39 6.284954e-39 -1.76502e-40 5.773481e-39 4.54494e-40
-6.071295e-39 4.1443e-41 5.890617e-39 3.015601e-39 -4.154146e-39 -6.7403e-39 2.461724e-39 -6.174548e-39
-4.491742e-39 5.498116e-39 5.559863e-39 2.84705e-39 -6.00075e-40 -6.15323e-39 3.062157e-39 5.781556e-39

W_cnn.2.weight f4 [1, 1, 23, 23]
00000000: 39de 1980 525a 1e00 e442 3780 c4fd 4980
00000010: 744d 3a80 2511 1e80 8d8e 3300 20e3 4500
00000020: 90a3 0d80 f93a 0f80 a075 4b80 2c1f 4800
00000030: 4d23 0880 8798 4a80 d517 4980 c35b 4600
00000040: 5b8b 3580 9216 4500 4c91 3f00 e70a 1a80
00000050: 0117 0200 2780 1a80 fdaa 3e80 16bf 0c00
00000060: 8d9f 1480 aaf7 3780 a0a0 3000 f0f0 3280
00000070: a400 1f00 1dbb 2800 8c5e 0880 e49d 0500
00000080: e900 3800 cf91 1980 c051 4080 2b83 1680
00000090: 7a0d 4000 51b2 0c80 a89a 1980 281b 0800
000000a0: 1c66 3980 3c06 2800 a3c8 3900 7075 2700
000000b0: d2ca 0a80 5a42 2380 dbc8 1d80 7049 2900
000000c0: 8305 3200 3368 4900 76b4 4600 dcfb 4900
000000d0: 967a 0b80 95f7 4180 87dd 0100 f94c 4600
000000e0: 4b87 0980 1bee 1e00 7c3a 2580 904d 4900
000000f0: 3a4b 1d00 dc60 2a00 6e1d 0180 f780 1780
00000100: b9c1 4a80 c142 3980 671d 0a80 24de 4880
00000110: 7e75 1b80 d9a6 0280 d74d 4500 78c2 2500
00000120: 7597 1a00 d4b5 0680 e843 0680 b9bd 4a00
00000130: c334 1100 e2ad 3a00 2041 4880 c9a0 0b80
00000140: 2cfd 0180 8027 3400 b7d7 1580 4516 4780
00000150: ec07 3180 c82d 3c80 aa2b 4700 c279 4000
00000160: 3a8b 1700 5494 1480 a50a 2600 1577 4880
00000170: 34dd 4600 77f0 1c80 c6d7 4280 6473 0100
00000180: 2a43 4200 9e8c 4680 f3b6 0600 a0a2 0e80
00000190: 4caf 2300 8c8e 3600 9656 2b80 3ef5 4880
000001a0: 3015 1100 fdba 4b80 728c 3b00 31ad 4a00
000001b0: 42d0 3200 6142 4680 398c 3c00 5207 2280
000001c0: 3f48 2280 1699 4980 a3b9 3280 c0a8 2a80
000001d0: 49dd 0c00 62ee 4280 ab67 2300 45fd 4900
000001e0: 48c0 0880 0692 4880 9842 3380 39d8 1f00
000001f0: 4041 4780 d37b 4a80 2a2a 3c00 271c 3b00
00000200: 29fc 1600 05bb 0800 630e 3580 72e5 4b80
00000210: 3e03 4400 d8b2 4b00 822e 2e00 8ee9 0000
00000220: d0fd 1e80 b56f 3b80 4ff7 4900 fa23 4a00
00000230: 49a8 4380 12c8 0400 08bf 3f80 6164 0300
00000240: b071 3b80 5787 2a80 6b80 3800 fb92 3880
00000250: af2a 3b00 a993 1380 fb58 2c00 5832 4200
00000260: 19e9 0780 aea9 4580 3df1 2380 d469 0d00
00000270: f2b2 2300 6769 0200 e175 4400 00ff 3280
00000280: 9f65 4600 60d9 1380 cd2d 1100 ffa5 1980
00000290: 2813 4900 6ed6 4600 4bf0 0180 f00a 4c80
000002a0: db7a 4a80 fa13 4780 3992 4980 ca4c 1c00
000002b0: 4ffc 1900 bcec 4180 ffe6 4500 c06f 4b80
000002c0: af32 0c80 06a7 0200 256f 4280 db16 4480
000002d0: 5eb5 3d00 8881 4180 2b89 2900 1d53 4580
000002e0: d4f4 1280 6783 1680 6b22 4380 4bc5 3b00
000002f0: f52c 4900 c4fe 0c80 6379 4a80 a11b 0d80
00000300: 3315 0800 dcc0 0a80 2015 4b00 2bc5 3480
00000310: 8226 4880 87f0 2d80 9b39 0e00 344b 1d00
00000320: 7f54 2b80 b797 4a80 26eb 3300 537c 3900
00000330: f3ab 2e80 d003 3f80 5315 4900 cb81 4780
00000340: 4459 3280 9ab3 2880 5002 4b80 a147 1f00
00000350: d13d 1680 276b 4680 355f 3600 c132 3680
00000360: 2fe2 1200 cd7c 0b80 399f 2100 2c7b 1700
00000370: 4cb4 0000 ff5a 0900 0f78 2a00 6d61 1280
00000380: a757 2780 c393 4080 5e2d 1680 aeff 3300
00000390: 3328 4900 9d50 4180 b32c 0b00 0cc5 4b00
000003a0: cda9 1e00 b7c7 0d80 2fe9 4a00 a6ed 0d00
000003b0: dd27 4600 d12e 4b80 5486 2000 815c 0300
000003c0: 909b 0880 98e7 4780 4287 4800 19df 3080
000003d0: 4ef0 3c00 19a8 0080 589c 2300 57be 2300
000003e0: e1df 3180 05be 4800 08fd 3100 840c 1380
000003f0: 9f06 4c00 edd6 4300 f7ca 2900 1e14 2c80
-2.375606e-39 2.787466e-39 -5.074948e-39 -6.795025e-39 -5.354244e-39 -2.761215e-39 4.734748e-39 6.418126e-39
-1.252537e-39 -1.398688e-39 -6.929858e-39 6.623338e-39 -7.47348e-40 -6.850543e-39 -6.71254e-39 6.461403e-39
-4.917273e-39 6.344746e-39 5.837759e-39 -2.391634e-39 1.91923e-40 -2.433695e-39 -5.75514e-39 1.170575e-39
-1.893946e-39 -5.139797e-39 4.465725e-39 -4.678207e-39 2.84713e-39 3.740543e-39 -7.68601e-40 5.15818e-40
5.143114e-39 -2.348194e-39 -5.906798e-39 -2.067435e-39 5.882306e-39 -1.165994e-39 -2.351368e-39 7.44426e-40
-5.271253e-39 3.675656e-39 5.306598e-39 3.623713e-39 -9.91113e-40 -3.238045e-39 -2.735283e-39 3.7916e-39
4.593752e-39 6.741371e-39 6.493222e-39 6.794341e-39 -1.054166e-39 -6.058123e-39 1.71305e-40 6.456097e-39
-8.75053e-40 2.840481e-39 -3.418894e-39 6.731815e-39 2.690216e-39 3.891837e-39 -1.02393e-40 -2.15848e-39
-6.865321e-39 -5.25857e-39 -9.28903e-40 -6.691845e-39 -2.521707e-39 -2.43525e-40 6.364573e-39 3.467676e-39
2.442055e-39 -6.1624e-40 -5.75373e-40 6.863886e-39 1.580131e-39 5.388836e-39 -6.635518e-39 -1.06787e-39
-1.82656e-40 4.789616e-39 -2.00593e-39 -6.528309e-39 -4.502781e-39 -5.526553e-39 6.535984e-39 5.92115e-39
2.162161e-39 -1.88992e-39 3.493567e-39 -6.654874e-39 6.507837e-39 -2.657656e-39 -6.138548e-39 1.3323e-40
6.085237e-39 -6.478929e-39 6.16643e-40 -1.344036e-39 3.277127e-39 5.010253e-39 -3.979988e-39 -6.700132e-39
1.568804e-39 -6.954741e-39 5.468677e-39 6.857956e-39 4.666484e-39 -6.452297e-39 5.560432e-39 -3.125033e-39
-3.148324e-39 -6.758908e-39 -4.658369e-39 -3.917627e-39 1.181408e-39 -6.146658e-39 3.251431e-39 6.794847e-39
-8.03661e-40 -6.664539e-39 -4.7075e-39 2.924466e-39 -6.543728e-39 -6.840246e-39 5.525255e-39 5.428393e-39
2.110839e-39 8.01774e-40 -4.872442e-39 -6.969972e-39 6.245977e-39 6.951819e-39 4.241117e-39 8.3784e-41
-2.846116e-39 -5.458367e-39 6.792709e-39 6.808733e-39 -6.213348e-39 4.39114e-40 -5.854165e-39 3.11516e-40
-5.459078e-39 -3.905642e-39 5.188855e-39 -5.195514e-39 5.433606e-39 -1.797845e-39 4.072682e-39 6.079203e-39
-7.26468e-40 -6.397519e-39 -3.300782e-39 1.231825e-39 3.278436e-39 2.21482e-40 6.287101e-39 -4.683252e-39
6.46494e-39 -1.822854e-39 1.577634e-39 -2.355436e-39 6.710863e-39 6.505408e-39 -1.78036e-40 -6.983421e-39
-6.839899e-39 -6.527486e-39 -6.756446e-39 2.59894e-39 2.386399e-39 -6.054232e-39 6.419515e-39 -6.92775e-39
-1.120208e-39 2.43588e-40 -6.101014e-39 -6.253013e-39 5.667028e-39 -6.015774e-39 3.814462e-39 -6.366465e-39
-1.740867e-39 -2.067519e-39 -6.165325e-39 5.48907e-39 6.720119e-39 -1.193419e-39 -6.839372e-39 -1.203773e-39
7.42289e-40 -9.8754e-40 6.89524e-39 -4.846176e-39 -6.62597e-39 -4.218882e-39 1.306362e-39 2.690207e-39
-3.979238e-39 -6.850252e-39 4.767966e-39 5.279222e-39 -4.286117e-39 -5.787004e-39 6.711641e-39 -6.566881e-39
-4.623797e-39 -3.737849e-39 -6.888492e-39 2.872596e-39 -2.042556e-39 -6.466924e-39 4.99327e-39 -4.977324e-39
1.734178e-39 -1.05496e-39 3.08769e-39 2.156402e-39 6.4678e-41 8.59163e-40 3.90016e-39 -1.687989e-39
-3.613028e-39 -5.930479e-39 -2.036656e-39 4.775331e-39 6.718412e-39 -5.998226e-39 1.026226e-39 6.95835e-39
2.815978e-39 -1.265506e-39 6.879477e-39 1.279114e-39 6.442785e-39 -6.904457e-39 2.986924e-39 3.0869e-40
-7.90489e-40 -6.6034e-39 6.660677e-39 -4.488136e-39 5.596335e-39 -6.0302e-41 3.270328e-39 3.282523e-39
-4.580252e-39 6.680322e-39 4.59071e-39 -1.749364e-39 6.981873e-39 6.230079e-39 3.838065e-39 -4.047979e-39

W_attention.weight f4 [10, 10]
00000000: beaa 9ebc 2697 41bc 2acf 6bbc 7418 9cbb
00000010: 9be9 c43c be4c 95bc 9f98 a1bc 4d85 e03a
00000020: 5add 0bba 048a 80ba 52f6 4dbc 82d7 e33b
00000030: 5cf1 eabc 894d 63bd 34d7 a5bc 9122 183d
00000040: 7c77 213d ea3a 093d b178 5bbd 11de 863d
00000050: 7363 42af 016b 6baf 90d7 57af 3315 24af
00000060: 7d1d cdad 8607 b6ae 3831 daae d786 53ae
00000070: 4177 82af 02c1 43ae 5ba6 c198 4b56 0929
00000080: 5476 d617 758a 3700 99c5 3280 987b 6f0a
00000090: 9ddf 0089 6604 9f0c aeef 1b14 7b75 3009
000000a0: ff89 493d fb43 403e 6a13 6d3d 5168 d4be
000000b0: 0445 943d d4ae ebbe bc54 2dbe 3802 8bbe
000000c0: 9aaf 673c a954 ea3d 63c2 0600 9985 169a
000000d0: 803f 4a80 07b3 4380 34d3 0380 3c35 dda5
000000e0: fabf 1fa7 d19c bf9f 074c 020f 60ac cfa6
000000f0: 5896 4d3b f9db ae3b cfbe 843b 8994 1639
00000100: d364 dd36 0060 9ab9 5bfb 0dba 1385 c937
00000110: d853 d63a 374d e03a 55a4 c0b9 31d9 aab9
00000120: a107 b03b 53b5 97bc 4494 21bd fedb adbb
00000130: 3300 8c3b 3335 47bb e15a e9bb ed1f 24bb
00000140: e6f8 babd 929e d83d a473 10bd b018 a1bd
00000150: fff2 91bd 49bb 6e3d 983a aabd aea8 693d
00000160: 49ec b5bd 3e0e 423e 0f12 02ba 12f9 81b8
00000170: 01b7 6d3a 582b eb3b 4272 3a3d 7764 2bbc
00000180: b01a 7fbb ae4b d0bb b1c7 393c 749d c33b
-0.019368526 -0.011815822 -0.0143926535 -0.004763657 0.024037173 -0.01822507 -0.019726096 0.001712957
-0.0005335413 -0.0009806757 -0.012570934 0.006953181 -0.028679542 -0.055493865 -0.020244218 0.03714234
0.03942059 0.03350345 -0.053581897 0.065853246 -1.7679529e-10 -2.1411141e-10 -1.9630719e-10 -1.4923245e-10
-2.3318897e-11 -8.277738e-11 -9.922235e-11 -4.8095607e-11 -2.3731597e-10 -4.4509292e-11 -5.0057307e-24 3.0494958e-14
1.3859296e-24 5.100621e-39 -4.66266e-39 1.1530677e-32 -1.5512582e-33 2.4500476e-31 7.872769e-27 2.1240468e-33
0.04920387 0.18775932 0.057879843 -0.41485837 0.07239726 -0.4603182 -0.16926855 -0.2715013
0.014140988 0.11441929 6.20746e-40 -3.1127192e-23 -6.818606e-39 -6.217201e-39 -3.51272e-40 -3.8373462e-16
-2.2169753e-15 -8.115108e-20 6.424137e-30 -1.4410233e-15 0.003137013 0.0053362814 0.0040510665 0.00014360448
6.5980507e-06 -0.00029444695 -0.0005416178 2.4023035e-05 0.0016351892 0.0017112856 -0.0003674353 -0.00032586747
0.005372003 -0.01851908 -0.039448038 -0.005305766 0.0042724847 -0.00303967 -0.0071214293 -0.0025043443
-0.09129505 0.1057712 -0.035266533 -0.07866037 -0.07126426 0.058284078 -0.08311957 0.05704563
-0.088829584 0.18950745 -0.00049617974 -6.197592e-05 0.0009068102 0.007176798 0.04551912 -0.010460964
-0.003892582 -0.006356678 0.011339114 0.0059696976

W_attention.bias f4 [10]
00000000: 5b7f 7aba a886 b7ba c4bd 86ae fdba 84b7
00000010: b962 8a3e 6a18 3cb7 07a2 a3ba 83ea 103b
00000020: bc75 413d 6551 37b9
-0.00095557206 -0.0014001923 -6.1273236e-11 -1.58227e-05 0.27028444 -1.1211358e-05 -0.0012484201 0.0022112436
0.04723142 -0.00017482562

W_out.0.weight f4 [20, 20]
00000000: 74bd a03d 0ec3 dbbd 82e0 78be 8666 9dbd
00000010: 6cb0 cc3d 6651 b13e be9f 053f 2f02 e13e
00000020: cc74 79be 947a b7be 9f29 fd3c ffef f03c
00000030: 4677 fd21 eb3a 3600 d712 1ebe f5ea 0300
00000040: dce1 c5b8 28eb 303b 7bc1 b23c ac3f ea3b
00000050: 0c58 8ebd 1c89 99bd b52e e1bd 33f6 603d
00000060: 1d05 813e 4b9a f2bc 3223 e33d ec61 85bd
00000070: 4e85 053d bda3 07be 14f9 0c3d 4e78 553e
00000080: 0b0a 8d21 9635 1a80 9e88 253e 8f1e 4080
00000090: cf36 2800 33b9 a83d 7107 023e c910 4b3b
000000a0: e4b2 37bd dfbf 4c3d 5731 86be ccc0 88be
000000b0: 45af d63e 9eff a33e 8e80 e23e 807a dc3b
000000c0: 0f6e a2be a76f a1be 0a5b a43b 0953 e23d
000000d0: 69f8 1c22 13a2 1b00 00d1 853d 261a 2500
000000e0: 0ea5 512e 0171 a03b d279 abbd eedf 893c
000000f0: a880 ae3c 4d86 c53d 9ed7 073d 011f a73d
00000100: 160c 183d a308 61be d5b6 a0bd 0436 75bd
00000110: 9371 1c3e 3bf1 13be 3d8c 1536 6b10 4e3d
00000120: 078d 2a21 badd 2b80 79de 77bb ac58 1b00
00000130: 6a3d 4380 1599 9d3d 36e3 303d 227a 2100
00000140: 96e5 08bd 8279 1dbd cb37 0ebb 342a c03c
00000150: a44d 66bc 283a a6bd 4ba9 a2bd 4d7a 38bd
00000160: 696e ae3c 35e8 80bc 8f0c 3e00 6495 0080
00000170: 733b 3b00 2c0a 0680 9af2 818c 4b45 3200
00000180: 48cc 4180 27d3 0300 abd1 3200 ae59 0b80
00000190: 274c 523e a498 6f3e bdfc 6ebd 8031 233e
000001a0: 8da1 46be d71d 73be 5e23 34be 5752 eabd
000001b0: 1b8f 543d 4b07 47bd 55d2 083c f5e4 003d
000001c0: 73cc 341f f2bd 4080 a1d3 9bbe e734 4700
000001d0: 2412 47ab 1cc6 eb3c 9170 f5bd 4be7 ef3a
000001e0: 3020 373e 1cac c33e 4038 833e aea2 f43d
000001f0: 2db8 04bf 2e44 2cbe 1171 65bd 4a7c 2c3d
00000200: cbc8 82bd b651 29be e292 623d da74 c93d
00000210: 4eee 99a1 1fe2 1100 49d2 793e 1ce9 3a80
00000220: b0fb 1f33 766b af3c d79e 9e3d 211d af3c
00000230: 43b0 0d3d 81be d33d 3cd7 afbd 3dde 10bd
00000240: c9a4 59bd 4d11 12be 720e 8dbe 78f9 1e3c
00000250: d9a2 c63e 05dc c73c 98dc 193d 5a19 ff3c
00000260: 88e0 5b22 f07b 0480 ecff 153d df83 1480
00000270: 3761 1b00 e1e4 8a3b b460 853d 4a70 943c
00000280: ef2d 38be c371 c3bd 7561 abbd 883c dc3b
00000290: d276 003e 36b4 25bc 0839 403e 5b6c 1f3e
000002a0: bee5 babe c3cd a2be f5fc 423a e986 a73d
000002b0: 775c c221 9053 3d80 52d5 87be 269d 3a80
000002c0: fffe d21d a951 07bc 0680 52bc 4715 8b3c
000002d0: 40de 69be cc65 52be 88c1 303e cdf2 863d
000002e0: b0a1 a6bd 4d4b 453d 9433 5b3e 87aa 77bd
000002f0: a62f 123e ba31 c9be c9e7 b234 2264 653c
00000300: 92f9 47a2 8938 2080 3551 35be 6f30 4600
00000310: 8ea3 1700 a592 033b 89ad 84bd 9896 6c32
00000320: 859a ca3d f820 f03d b623 fe3d 1e9a a03d
00000330: fea0 ac3d c8d8 903c 81af f33c 232c 3d3d
00000340: 4fc6 133e 4f3d a13d d716 21b8 2dfc 763c
00000350: d4a1 1322 554e 1900 2374 883e 30b4 2b00
00000360: c333 b1af ec53 bb3c cba6 1a3e 5a4d 0800
00000370: 2f44 d1bb fb9b 133e a061 60be 439d bcbd
00000380: d251 9d3e 8cb6 373e 8574 a3be ad4c bfbe
00000390: 8ed2 9bbd 73cd be3e 6a5b 033e a20a 073d
000003a0: 727d 310f aef6 2780 8de6 453e 72f9 4700
000003b0: 0a59 2f80 51ec 10bc f6b6 11bb c8ac df3a
000003c0: cba3 1dbd 10a9 42be 9f65 99bd 803a e4be
000003d0: f91a 753e 751a d53c c0ec b4be 432c bf3c
000003e0: 1ec2 88be 664f d23e 1c8e 833d c4f4 093d
000003f0: dbeb 1680 1455 4800 5f20 803e f13c 0100
0.07848635 -0.10730563 -0.24304393 -0.076855704 0.09994587 0.34632415 0.5219687 0.43946978
-0.2436096 -0.35835707 0.030903636 0.029411314 1.7175518e-18 4.980253e-39 -0.15436874 3.59793e-40
-9.4357616e-05 0.0026995633 0.021820774 0.0071487036 -0.06950387 -0.07496855 -0.10995237 0.054922294
0.25199214 -0.029614588 0.11090697 -0.06512818 0.032597832 -0.13246055 0.034417227 0.20846674
9.55719e-19 -2.406946e-39 0.16165397 -5.888434e-39 3.693081e-39 0.08238449 0.12698151 0.0030985347
-0.044848338 0.04998767 -0.26209518 -0.26709592 0.41930595 0.32030958 0.44238704 0.0067284703
-0.31724593 -0.31530496 0.0050157355 0.11050994 2.127345e-18 2.5377e-39 0.06534004 3.407294e-39
4.7667696e-11 0.0048962836 -0.08372845 0.01683041 0.021301582 0.096447565 0.033164613 0.081602104
0.0371209 -0.21975951 -0.078473724 -0.059865966 0.152777 -0.14447491 2.228436e-06 0.050308626
5.778489e-19 -4.028467e-39 -0.0037821813 2.511368e-39 -6.17501e-39 0.07695214 0.043185435 3.074384e-39
-0.033422075 -0.038445957 -0.0021700736 0.023457624 -0.014056597 -0.08116561 -0.07942446 -0.04503851
0.021292882 -0.015735725 5.698306e-39 -5.3591e-41 5.43962e-39 -5.54662e-40 -2.0021608e-31 4.616632e-39
-6.04259e-39 3.51254e-40 4.66699e-39 -1.042361e-39 0.20536862 0.23398072 -0.0583465 0.15936852
-0.19397564 -0.23741852 -0.17591617 -0.11441486 0.05189429 -0.04859094 0.008350928 0.03146835
3.82856e-20 -5.945611e-39 -0.30434898 6.539298e-39 -7.072418e-13 0.02878099 -0.11984361 0.0018303184
0.17883372 0.38217247 0.25628853 0.11945091 -0.5184353 -0.16822883 -0.05601603 0.04211072
-0.063859545 -0.16535076 0.05531586 0.09836741 -1.0430762e-18 1.64232e-39 0.24396624 -5.410083e-39
3.724898e-08 0.021413546 0.0774514 0.021376194 0.034591924 0.1033907 -0.085859746 -0.035368193
-0.053135667 -0.14264412 -0.27550083 0.009703033 0.38796118 0.024396906 0.03756389 0.031140018
2.97989e-18 -4.11802e-40 0.03662102 -1.884016e-39 2.514433e-39 0.0042387103 0.06512585 0.01811995
-0.17986272 -0.09543183 -0.08368198 0.006721083 0.12545326 -0.010113766 0.18771756 0.15568678
-0.36503404 -0.3179761 0.0007438206 0.08180029 1.3170427e-18 -5.631942e-39 -0.26529938 -5.382833e-39
5.5850197e-21 -0.008259215 -0.012847906 0.01697792 -0.22838688 -0.20546645 0.17261326 0.06589279
-0.08136308 0.048167516 0.21406394 -0.060465362 0.14275989 -0.3929575 3.332373e-07 0.014000924
-2.710165e-18 -2.959017e-39 -0.1770676 6.44586e-39 2.170889e-39 0.002007642 -0.06478412 1.3771249e-08
0.098927535 0.11725038 0.12409155 0.078418955 0.08429144 0.017681494 0.029746773 0.04618467
0.14431117 0.07873022 -3.8406662e-05 0.015074772 2.0007886e-18 2.323988e-39 0.26651105 4.013565e-39
-3.223289e-10 0.022867166 0.15102689 7.62432e-40 -0.006386302 0.1441497 -0.21912241 -0.09209683
0.30726486 0.1794073 -0.31924835 -0.37363186 -0.076085195 0.3726612 0.1282784 0.032969125
8.750934e-30 -3.670076e-39 0.1932623 6.609804e-39 -4.34821e-39 -0.008845405 -0.0022234297 0.0017065043
-0.038486283 -0.19009805 -0.07490086 -0.44575882 0.2393607 0.026013592 -0.35336876 0.023336535
-0.267106 0.410762 0.064235896 0.033680692 -2.10499e-39 6.642676e-39 0.25024697 1.13697e-40
