baselines/CPI/CPI-GNN/results/model/model_fold2.pt (torch, 605575 bytes, 21 tensors)

embed_fingerprint.weight f4 [6239, 10]
000000 10 a9 21 80 a3 8a 18 00 6d 39 1b 00 fa b9 18 80
       -3.09122e-39 2.253785e-39 2.500159e-39 -2.270768e-39
000010 97 4b 26 00 44 79 28 80 d7 5c 51 00 f5 ae 41 00
       3.516865e-39 -3.716922e-39 7.47198e-39 6.03207e-39
000020 c1 13 24 00 f2 51 1b 00 a4 fe 3f 80 b1 11 3f 80
       3.313164e-39 2.508955e-39 -5.876984e-39 -5.791983e-39
000030 a0 27 0c 80 dd d5 4c 00 97 0c 4c 80 5e e7 0b 80
       -1.116241e-39 7.056217e-39 -6.984014e-39 -1.09319e-39
000040 ac 2c 31 00 ff 4f 35 00 de 25 2f 00 64 1c 0c 00
       4.515965e-39 4.895978e-39 4.329853e-39 1.11221e-39
000050 6b 96 4c 00 5c c2 0f 80 8b 58 01 00 8a 7b 19 00
       7.033458e-39 -1.447255e-39 1.23599e-40 2.340205e-39
000060 c1 cd 39 80 10 8a 09 80 36 34 2c 00 b1 67 4c 00
       -5.308434e-39 -8.76047e-40 4.059492e-39 7.016695e-39
000070 f4 d7 4f 80 0f 40 3f 00 78 f4 51 80 46 51 4b 80
       -7.332474e-39 5.808616e-39 -7.526374e-39 -6.916818e-39
000080 ed 18 1c 00 70 da 10 00 c2 dc 29 00 ca d9 3b 80
       2.580336e-39 1.547729e-39 3.844448e-39 -5.496422e-39
000090 a7 d2 06 00 b9 b0 4e 80 a5 fa 30 00 27 60 14 00
       6.26581e-40 -7.226565e-39 4.498018e-39 1.871203e-39
0000a0 a1 86 1f 80 cc e0 04 00 38 cd 46 80 cc f2 4f 80
       -2.895196e-39 4.47984e-40 -6.502103e-39 -7.342103e-39
0000b0 80 74 4d 00 a5 29 07 00 d4 ba 00 00 79 38 08 00
       7.113126e-39 6.57788e-40 6.7021e-41 7.54943e-40
0000c0 e2 16 4d 80 f9 d4 05 00 5b 55 22 80 f8 68 17 00
       -7.079542e-39 5.35578e-40 -3.153027e-39 2.149872e-39
0000d0 8e 70 16 80 31 f4 33 00 40 89 08 80 23 8e 16 00
       -2.060758e-39 4.77121e-39 -7.8392e-40 2.07137e-39
0000e0 65 6c 40 00 30 38 2c 00 c2 56 20 00 87 ab 21 00
       5.916356e-39 4.060918e-39 2.969859e-39 3.092104e-39
0000f0 b1 ae 49 80 60 3d 24 80 0b 13 4c 00 9b 3d 51 80
       -6.766659e-39 -3.328095e-39 6.986329e-39 -7.460775e-39
000100 19 35 00 00 63 25 1f 80 6c 90 07 80 d6 7f 37 00
       1.9048e-41 -2.860312e-39 -6.94657e-40 5.096811e-39
000110 71 44 47 80 a0 94 2a 00 05 cb c1 bd 33 28 83 bf
       -6.544872e-39 3.910407e-39 -0.09462551 -1.0246643
000120 29 49 fb 3f e9 59 9a 3e f0 ef bd be a7 5c 95 3f
       1.9631702 0.3014672 -0.3709712 1.16689
000130 44 53 f5 3e fe 8c d3 be 15 cf 73 3f 33 69 37 3f
       0.4791509 -0.41318506 0.9523786 0.71644896
000140 6b 37 bf bd ee 92 24 3f c4 18 09 be 4e ba bd 3e
       -0.09336742 0.64286697 -0.13388354 0.37056202
000150 c1 f8 5d bf 14 4b af bf d6 b7 23 bf ab e6 d7 bf
       -0.86707693 -1.3694787 -0.63952386 -1.6867269
000160 30 6e da be 75 ae 73 be de a6 61 bf 4e 65 5e bd
       -0.4266219 -0.23797019 -0.88145244 -0.05429583
000170 82 93 3b bf 49 01 bc bd 80 52 0e c0 18 e5 ab bd
       -0.73271954 -0.091799326 -2.2237854 -0.083933055
000180 8e 49 77 3f f4 dc 41 40 36 17 21 3e 11 d4 e5 be
       0.9659661 3.029111 0.1573151 -0.44888356
000190 1a 4f 85 3e 6a 9d 14 bf f6 33 6e bd fd db ac be
       0.26036912 -0.58052695 -0.058155023 -0.33761588
0001a0 b7 fb e2 3d 3b 1f 7a 3c 7c b3 72 3f 4f 56 5c 3d
       0.11083167 0.015266235 0.9480512 0.053793248
0001b0 d9 28 eb 3e 04 df be 3c 39 4d 05 be 01 c8 52 be
       0.45929602 0.023299702 -0.1301774 -0.20584108
0001c0 ca 20 45 be da 24 03 be ca a8 f5 bc df de bb 3d
       -0.1925079 -0.12807027 -0.029987711 0.09173369
0001d0 f8 88 86 3e e7 d4 f0 3d cc 55 69 3e 35 20 16 3e
       0.26276374 0.11759358 0.22786635 0.14660724
0001e0 02 8c fe be a7 a0 c0 bf 6b 93 44 bf 61 68 ad be
       -0.49716192 -1.5049027 -0.7678744 -0.33868697
0001f0 9f 93 72 be 71 07 0b 3f d3 ef 27 3f 26 79 a1 bf
       -0.23689125 0.5430823 0.6560032 -1.2615097
000200 6f 46 68 bf 71 4f ca 3f 35 54 8f 3f ef ed b3 bf
       -0.90732473 1.5805494 1.1197573 -1.4056987
000210 e1 1e 71 bf 34 70 3e bf a7 37 3e 3f 13 ea e0 3f
       -0.9418774 -0.7438996 0.7430367 1.7571434
000220 94 9c e7 3f be 57 c5 3f 5a bb 96 be d6 49 1c 3d
       1.8094659 1.5417402 -0.29439813 0.038156353
000230 6b af b1 bf 38 b2 89 bf 8b 26 72 bf 07 d7 88 3f
       -1.3881658 -1.0757513 -0.9459006 1.0690621
000240 da ed 95 bf 96 05 d4 be 38 f4 2d bf ef 31 39 3e
       -1.1713212 -0.41410512 -0.67950773 0.18085454
000250 24 c4 90 bf 17 56 6a 3e 5c fb 0a 00 0f 05 30 80
       -1.1309857 0.22884403 1.008526e-39 -4.409918e-39
000260 10 df 0f 00 c0 78 0b 00 11 cd 00 00 9e 23 28 80
       1.457552e-39 1.053507e-39 7.3564e-41 -3.686197e-39
000270 21 5d 52 00 38 ed 00 00 b5 d5 2d 80 87 55 2e 80
       7.563919e-39 8.5098e-41 -4.209261e-39 -4.255114e-39
000280 9e b3 4e 00 a0 51 4e 80 dd 89 18 80 99 f2 2b 80
       7.227603e-39 -7.19245e-39 -2.253508e-39 -4.035954e-39
000290 56 7d 0d 80 80 ea 10 80 a8 f9 4b 00 59 4e 09 80
       -1.238824e-39 -1.55349e-39 6.977222e-39 -8.54625e-40
0002a0 8a df 4c 00 9a df 01 00 29 bb 10 00 9e ea 2b 80
       7.059688e-39 1.72049e-40 1.536508e-39 -4.033091e-39
0002b0 45 2c 0a 00 da 7d 44 80 86 47 14 00 ba ec 0f 00
       9.34236e-40 -6.289961e-39 1.862368e-39 1.462454e-39
0002c0 c3 47 08 80 b8 61 0f 80 3a b2 4f 00 db 21 10 00
       -7.60427e-40 -1.412587e-39 7.31894e-39 1.481513e-39
0002d0 98 13 44 00 a9 33 20 00 db e1 18 80 2e a4 06 00
       6.251843e-39 2.957268e-39 -2.285074e-39 6.0991e-40
0002e0 c9 18 51 00 24 13 4d 80 0c c2 4e 80 b7 6c 1d 80
       7.447566e-39 -7.0782e-39 -7.23278e-39 -2.702229e-39
0002f0 80 4a 13 00 a5 08 0e 80 d6 28 37 00 f9 84 22 00
       1.7716e-39 -1.288798e-39 5.065601e-39 3.170108e-39
000300 d9 04 52 80 1b 8f 4f 00 ff 80 16 80 4c d5 37 00
       -7.53225e-39 7.306341e-39 -2.066656e-39 5.127469e-39
000310 4c 4c 04 00 23 53 25 00 28 4b 3d 80 c6 6e 07 80
       3.94712e-40 3.427737e-39 -5.628926e-39 -6.82586e-40
000320 87 fd 30 80 11 68 47 00 3f d0 23 80 7a 95 4e 80
       -4.499052e-39 6.557652e-39 -3.288947e-39 -7.216791e-39
000330 12 c5 0b 80 e0 3e 13 00 a4 1f 40 80 b7 5b 2b 00
       -1.080886e-39 1.76743e-39 -5.888822e-39 3.981827e-39
000340 a7 81 04 80 da f8 11 00 09 08 03 00 84 bd 03 00
       -4.13852e-40 1.650475e-39 2.78389e-40 3.43492e-40
000350 e6 6a 24 00 dd 30 01 00 ac 90 2c 80 a4 ad 4e 80
       3.344426e-39 1.09364e-40 -4.09266e-39 -7.225459e-39
000360 c0 d6 48 00 06 b5 35 80 81 02 0e 00 e0 d0 33 80
       6.689194e-39 -4.93222e-39 1.286595e-39 -4.75854e-39
000370 19 ec 4a 80 e4 36 22 80 07 7c 22 00 ce d7 4e 80
       -6.880523e-39 -3.142098e-39 3.1669e-39 -7.240585e-39
000380 34 a1 49 80 d0 ef 21 00 94 66 50 80 1f 2e 34 00
       -6.76182e-39 3.1166e-39 -7.383638e-39 4.791991e-39
000390 eb 84 0a 00 3f 89 0b 00 4c 4e 31 00 cd e5 11 00
       9.66037e-40 1.059425e-39 4.528027e-39 1.64364e-39
0003a0 ca 58 36 80 58 5e 25 80 a3 13 27 00 3e 63 4e 00
       -4.990968e-39 -3.431758e-39 3.588629e-39 7.19877e-39
0003b0 de dd 12 80 31 15 46 00 9f 56 0a 00 c8 9c 4d 80
       -1.73263e-39 6.436087e-39 9.49429e-40 -7.127576e-39
0003c0 d3 65 4f 00 f6 a3 37 80 57 38 01 80 ac d7 2a 80
       7.291532e-39 -5.10977e-39 -1.12046e-40 -3.93446e-39
0003d0 ca 2a 4e 00 5a 8c 17 00 85 e1 0e 80 f3 57 2a 80
       7.178519e-39 2.162565e-39 -1.366598e-39 -3.888641e-39
0003e0 c4 eb 0a 80 33 1c 3a 00 7f 9a 16 00 60 e3 19 80
       -1.002932e-39 5.336575e-39 2.075804e-39 -2.377454e-39
0003f0 8f 4e 05 80 a7 05 3b 80 5a 7d 0e 80 51 70 0e 80
       -4.87359e-40 -5.420322e-39 -1.330665e-39 -1.325988e-39

embed_word.weight f4 [8374, 10]
000000 31 fc 11 bf a3 d8 23 3f a8 ab 9a 3e 03 53 3f 3d
       -0.5702544 0.64002436 0.30209088 0.046710026
000010 12 42 ba 3c 9d cf 1e be 46 95 99 3e e0 24 ff bc
       0.022736583 -0.15508886 0.299967 -0.031145513
000020 46 bb 29 3f 45 b1 b8 bd bf 76 89 bd 8a 0c 50 be
       0.6630138 -0.090181865 -0.06712102 -0.20317283
000030 26 24 aa 3f 7d ce 7d 3d e5 ae e5 bd e6 ef 9d 3d
       1.3292282 0.0619645 -0.11214999 0.077117726
000040 85 f8 45 3e 83 14 bd bf 4b ba 00 be ac 0a 64 3e
       0.19333084 -1.4771885 -0.12571065 0.22269696
000050 65 d8 59 be 69 81 6e 3e be bd 39 bd 4f 03 9e be
       -0.21273954 0.23291554 -0.045346968 -0.308619
000060 fa 2e 11 3f 48 90 02 3e 58 56 03 3f 09 28 cd ba
       0.56712306 0.12750351 0.51303625 -0.001565219
000070 4a 79 0a 3e f0 a8 f2 3e 0a f5 e1 bd 0c 76 45 bf
       0.1352283 0.47394514 -0.110330656 -0.7713325
000080 1d 8e bb bf 54 87 98 3d bc 64 1a 3d 59 9b d8 3d
       -1.4652745 0.07447687 0.037693724 0.10576505
000090 1f ba 85 3d 25 7f ee 3e bf 65 d9 3d a1 b5 08 bf
       0.065296404 0.4658138 0.1061511 -0.53402144
0000a0 3e 87 bf 3e 7f ea a1 3e 38 6b a2 3d fd a3 c2 be
       0.3740787 0.3162422 0.079306066 -0.38015738
0000b0 b4 ec b1 3e 18 47 75 3e a7 ca 1f be 0b 78 7f bf
       0.34750903 0.23952901 -0.1560465 -0.99792546
0000c0 c1 ad 34 bf 7a 02 a7 3f 6d f9 45 be 8b 76 b9 3e
       -0.7057763 1.3047631 -0.1933343 0.36223254
0000d0 fe 7f 51 be de e3 e0 3e 12 43 05 3f 72 b2 7b 3e
       -0.20458981 0.4392385 0.52055466 0.2457979
0000e0 87 97 cb bb db 75 7d bd 56 89 0c bf 67 0f d0 3d
       -0.006213132 -0.061879974 -0.5489706 0.10159188
0000f0 cb 34 4e 3e 0e d9 de bd 2b 81 c8 be b2 fb 01 be
       0.20137326 -0.10881244 -0.39161047 -0.1269367
000100 3a b2 36 3f 15 65 13 3e 48 cb e7 be f5 9f 1a 3d
       0.713657 0.14394028 -0.4527228 0.037750203
000110 0e f5 33 3f 32 b8 cb 3d 25 29 47 3e 81 32 45 bb
       0.702958 0.09947242 0.19449289 -0.0030089917
000120 0c 1d 59 3e 5f 51 27 3e 51 80 29 3b 4e 2a dd bd
       0.21202487 0.16339634 0.0025863836 -0.107990846
000130 1a 71 b0 3e 99 9f 7f 3f 51 23 66 be c7 e4 2d be
       0.3446129 0.998529 -0.2247441 -0.16981803
000140 3f ee 3e 3e 34 b9 d9 be 79 08 23 bf 8b b6 42 be
       0.18645571 -0.4252411 -0.63684803 -0.19014947
000150 26 b8 22 be 9d 63 15 3f 23 d6 d6 be 3c 98 c5 ba
       -0.1589056 0.5835512 -0.41960248 -0.0015075277
000160 59 12 a5 bd 08 ce c1 3d 43 b1 c9 3c a7 df 57 bf
       -0.0806014 0.094631255 0.024620658 -0.8432564
000170 82 3f 46 3f f1 ec 4a 3f e7 9b 8d be 49 be 97 bd
       0.77440655 0.79267794 -0.27658007 -0.07409341
000180 97 7e 0b bf 0f df 78 3e b1 d9 e6 be 44 3f 82 bd
       -0.54490036 0.2430384 -0.4508796 -0.06359723
000190 c0 fe 02 bd 13 fd 98 bf b9 b9 53 3f b2 22 81 3f
       -0.03198123 -1.1952232 0.82705265 1.0088713
0001a0 e4 23 99 3e c2 e6 a5 3e 18 70 1c bf 6b b5 4d 3f
       0.29910195 0.32402617 -0.6110854 0.80354947
0001b0 8d 83 38 3e 9a 27 39 be 18 6b b4 be 49 fa 6b 3d
       0.18018933 -0.18081513 -0.35237956 0.057611737
0001c0 97 92 83 bf 5b b5 fd 3e 6e c5 96 3b f8 d9 34 3e
       -1.0279111 0.49552426 0.004601172 0.17661273
0001d0 f4 45 8f be bc 23 13 3e 13 e2 f4 bd 82 ee d8 3e
       -0.27983057 0.143691 -0.11957183 0.42369467
0001e0 0d 25 86 3f 6e d0 5c be d4 b5 9c 3e 9d ae bb bd
       1.0480057 -0.21563885 0.30607474 -0.09164164
0001f0 12 a2 33 bf b6 25 e1 3e 53 2c a7 3f 06 3b 12 bf
       -0.70169175 0.43974084 1.3060402 -0.5712131
000200 24 6f 57 be 59 34 8a 3e d0 2a 68 be 22 81 9f 3e
       -0.2103849 0.26993063 -0.22672582 0.31153208
000210 24 9c 20 bf cb c2 a1 be 20 8b b4 3e 24 30 b4 3e
       -0.6273825 -0.31593928 0.35262394 0.35192978
000220 40 7d e1 3d f1 e8 27 be 93 cb ad 3e c4 16 58 3f
       0.11010218 -0.16397454 0.33944377 0.8440974
000230 f1 1d 84 3e 48 b2 2a 3d 36 50 b6 3f 12 ed a4 be
       0.25804093 0.04167393 1.4243228 -0.3221212
000240 e0 e3 3c 3e dd 36 bd 3c f9 e2 85 be 3a f2 ea bd
       0.18446302 0.02309745 -0.2614973 -0.11471982
000250 df 71 94 3e 62 3d 4f be 33 e9 b4 bd ab 73 be 3d
       0.28993127 -0.2023826 -0.08833542 0.09299406
000260 c2 f1 b5 bf 09 7e 93 3e 04 89 4e 3d 68 b0 ca bf
       -1.4214404 0.28807095 0.050423637 -1.5835085
000270 df 00 8c 3f f8 06 c9 3d f7 24 0b c0 36 6a ea 3e
       1.0937766 0.09815782 -2.1741312 0.45784158
000280 cb be 92 3f a0 88 16 bf 85 92 84 bf 73 d5 5c 3e
       1.1464475 -0.58802223 -1.0357214 0.215658
000290 4e 9c 87 bd 80 c8 4a bf ed 5d 94 3e 26 71 31 3e
       -0.0662161 -0.7921219 0.2897791 0.17328319
0002a0 e7 6c 45 be 6a 46 6d be 00 11 bb bd b9 32 21 bf
       -0.19279824 -0.23171392 -0.09134102 -0.6296802
0002b0 64 63 ee be c7 13 0d 3f f1 72 2d 3f 99 a3 31 bf
       -0.46560204 0.551083 0.6775351 -0.69390255
0002c0 cf 2d 97 bd 6f 56 6a 3f 12 86 c3 be 3c a1 32 bf
       -0.07381784 0.9153814 -0.38188225 -0.69777274
0002d0 ef 22 de be c4 79 2a bd 64 ad 3f bf c3 38 0a bf
       -0.43386027 -0.04162003 -0.7487395 -0.5399286
0002e0 8a 7b 30 3f 4b 85 54 bb 6f 07 72 3f be 41 cd bb
       0.68938506 -0.0032428082 0.9454259 -0.0062639406
0002f0 be ae 93 bd 2b 1f 58 3e 2d 89 31 bd 75 f6 da 3d
       -0.07211064 0.2110564 -0.04334371 0.10691539
000300 ba 75 30 be 3d 84 9b 3e 60 87 52 bc 24 7f cb 3e
       -0.17232409 0.30374327 -0.012849659 0.39745438
000310 b2 0f b3 bc 5f d2 7a be 5e 94 d6 be 8b d6 27 3f
       -0.02185807 -0.24494313 -0.4191007 0.6556174
000320 fa 20 76 bd 41 c4 2a 3e 9a de 25 bf 19 44 eb 3b
       -0.060090043 0.16676427 -0.6479279 0.0071797487
000330 00 5a 00 bf 81 b8 dc 3e 74 95 ae 3e 2b 19 7b 3e
       -0.5013733 0.43109515 0.340984 0.2452132
000340 9b f2 80 3e 66 52 28 3e 41 9d 07 3f 13 d7 71 3f
       0.25185093 0.16437683 0.52974325 0.944688
000350 90 1a 3a bf 96 8e f8 3e 96 38 4f bf 11 04 1a bd
       -0.7269678 0.48546284 -0.8094572 -0.037601534
000360 e5 10 86 bf 33 67 cc be c9 d4 4c 3e bc 7c 37 3e
       -1.0473906 -0.39922485 0.20003046 0.17918676
000370 7e a5 39 bf d7 bd 33 bd 02 69 df be f1 b4 79 3e
       -0.72518146 -0.043882217 -0.43634802 0.2438543
000380 8f 4b 64 3f b1 3e 38 bf 02 af 29 bf 82 33 15 3f
       0.89177793 -0.7197066 -0.66282666 0.5828172
000390 2d 36 2f 3e 51 ee b4 3e 8a c1 95 3d 51 aa 13 bf
       0.1711051 0.3533807 0.07312305 -0.5768176
0003a0 75 dd 98 3f a7 82 a2 3e dc b7 15 be 67 2d 1a bf
       1.1942583 0.31740305 -0.14620918 -0.6022553
0003b0 7f b1 0d 3f 66 29 68 bd 8a 06 02 bd 4e d9 89 be
       0.5534896 -0.056680106 -0.031744517 -0.26923603
0003c0 29 c0 3b be 63 97 38 bf fd 63 20 bf ea 5f d5 3e
       -0.18335022 -0.72106 -0.6265257 0.4167474
0003d0 22 ba ef be 99 ef 55 3f 16 84 74 3f 89 ec 83 3e
       -0.46821696 0.8356872 0.9551405 0.257664
0003e0 97 6b 1d bf a7 30 e5 bd 63 8c 19 bf c1 16 4f 3c
       -0.61492294 -0.1119092 -0.5997984 0.012639702
0003f0 5b 57 be 3e 86 1d bf be 83 65 c8 bc d7 2f 7d 3f
       0.37176022 -0.37327212 -0.024462467 0.9890112

W_gnn.0.weight f4 [10, 10]
000000 ac d5 69 3e 5e 95 23 bd b9 bf ca 3e a5 a5 57 3e
       0.22835416 -0.03993737 0.39599398 0.21059282
000010 e1 09 cd 3e 7c 3a 07 3f 61 d7 c3 be c9 30 a3 be
       0.400466 0.52823615 -0.3825026 -0.31873158
000020 89 19 4a bd 92 4c 3e be 2a 1d b4 bd 9d 74 56 be
       -0.04934076 -0.18583897 -0.08794625 -0.20942922
000030 6a d4 1a be ff b1 4e be 98 63 e2 3d ce 06 a8 be
       -0.15120092 -0.20185088 0.11054152 -0.32817692
000040 be 83 18 be 5f 1c 8c 3e fd 8c 28 bd c8 0c d4 3e
       -0.14894006 0.27365395 -0.041150082 0.41416
000050 64 57 a1 3e 69 a7 d4 3d 16 19 a1 3e 94 15 b1 3d
       0.31511986 0.103834935 0.31464452 0.08646694
000060 50 6a 66 3e 13 2b 04 3e d5 38 51 be 2e 0f 97 3e
       0.22501493 0.12907057 -0.20431836 0.2950377
000070 b2 75 a8 be 2e 58 e4 bd 3d c6 ab 3d 8b 33 7a 3e
       -0.32902294 -0.111496314 0.0838742 0.24433725
000080 e5 95 40 be ee f5 03 3e bb a5 8c 3e 0e 60 0b 3f
       -0.1880718 0.12886783 0.27470192 0.5444344
000090 9a 87 c0 be 1a f5 2f 3b 43 7f 89 be 67 1f 26 be
       -0.37603456 0.0026848973 -0.26854905 -0.16222917
0000a0 14 33 c4 bd c6 c0 a7 3d ad 15 8b be 1c e1 4b be
       -0.09580055 0.081910655 -0.27164975 -0.19910091
0000b0 de 15 f1 3c ad d3 09 bf 58 ef 56 be 4b 7c b4 3e
       0.029429372 -0.53838617 -0.2098974 0.35251078
0000c0 c4 45 a3 3e f4 2b 29 3e 2d 8e 98 3e 5a dc c3 3e
       0.31889164 0.16520673 0.29795972 0.38254052
0000d0 af af 99 3e 6f 62 36 3e f3 02 e2 bd a6 1f b2 3e
       0.30016848 0.17810987 -0.11035719 0.3478977
0000e0 d9 b4 30 3e 5f 85 70 3d 3d d5 94 be 80 3f 8b be
       0.17256488 0.058720943 -0.29068938 -0.27196884
0000f0 6c 7f bc 3e 92 78 d7 be b3 34 dc be ad 35 04 bf
       0.36815965 -0.42084175 -0.43008956 -0.516444
000100 e5 e1 a2 3b 10 57 e3 3e 74 af 6c 3e 0f 11 16 3f
       0.0049707764 0.4440236 0.23113805 0.5861978
000110 7f 27 04 3f 79 e0 16 be 1c 3b ab 3e b0 1f 16 3e
       0.51622766 -0.14734067 0.33443534 0.14660525
000120 69 cd a2 3d f0 0b 89 bc 8f 9a 99 be fc 1b 0b be
       0.07949335 -0.016729325 -0.3000073 -0.13584894
000130 0a dd 88 be d3 e8 79 be aa 8f b0 bd dc ae bc be
       -0.2673114 -0.24405222 -0.08621152 -0.36852157
000140 09 de 83 3d 84 ad f5 3d ec a0 30 be e7 bc ba be
       0.06438834 0.11995986 -0.17248887 -0.36472246
000150 7f fa e1 bd 29 18 a4 3d 5b c8 6b be 08 6e 91 3e
       -0.110341065 0.08012421 -0.23025648 0.2840426
000160 7d 6f 35 3d 28 45 8b be 85 bc 66 3f 88 e2 63 be
       0.044295777 -0.272012 0.9013141 -0.22254384
000170 6f b5 c0 3e 04 71 1a be 81 ab c7 3e 3f ce c8 be
       0.37638423 -0.15082175 0.38998035 -0.39219853
000180 45 9f f0 3e 16 11 9c be ef 98 e0 3d b6 3b 99 be
       0.46996513 -0.30481786 0.1096667 -0.29928368

W_gnn.0.bias f4 [10]
000000 b4 60 18 3e b0 8f e2 be 34 b2 8b 3d 91 02 14 3e
       0.1488064 -0.4425025 0.06821099 0.14454104
000010 60 fb 81 be 04 29 9f bd 6d 67 8d bd 38 4b 9e be
       -0.25387096 -0.07771495 -0.069044925 -0.30916762
000020 d4 f2 fc be 41 c2 8a be
       -0.49404013 -0.2710133

W_gnn.1.weight f4 [10, 10]
000000 e3 bb 84 3e 08 71 8d 3e 7c dc bd 3e 8c 75 cc 3e
       0.25924596 0.27625299 0.3708228 0.3993343
000010 ad c3 e2 3d 32 03 bf bd 44 e3 31 bf a7 ff 2e be
       0.110724784 -0.09326781 -0.69487405 -0.17089711
000020 42 d8 d3 bd f0 fd 9b bd 92 24 7b 3d 89 ce 39 3e
       -0.10343982 -0.07616794 0.061314173 0.18145193
000030 f2 3f b8 3e 4c 29 95 3e e3 e9 1e 3e 1a c2 9d 3e
       0.35986286 0.2913307 0.15518908 0.3081215
000040 3f 9f c3 be 6e 26 df 3d ca 55 eb be 54 82 1f bf
       -0.38207433 0.10896002 -0.4596389 -0.6230824
000050 4d d8 00 be aa 7a 57 bd 72 10 fd 3d c1 bc a9 be
       -0.12582512 -0.052607216 0.12356652 -0.3315182
000060 a9 c8 9e be 0e b3 14 bd aa f3 d4 3d 98 43 e1 bc
       -0.31012467 -0.036303572 0.10398038 -0.027498052
000070 f0 b0 ce 3d 32 65 88 bd 7c 51 a2 be a4 e0 5a 3e
       0.10092342 -0.066599265 -0.31702793 0.21374756
000080 73 8d cb be 00 89 e3 3d a3 23 31 3e 8d 2c 84 3e
       -0.39756355 0.11110115 0.1729875 0.2581524
000090 ff c7 14 3e 19 a7 1b be ec de 0d 3e 6d 76 0a bf
       0.14529417 -0.15200461 0.13854569 -0.54086953
0000a0 59 ec 0d 3d 45 a8 05 bd 8c 4a 1c 3e 6f 9d ae 3e
       0.034649227 -0.032631177 0.15262812 0.34104487
0000b0 61 e7 6b 3e cc b1 ff 3e 89 89 c3 3d 2d 78 48 3d
       0.23037483 0.49940336 0.09547717 0.048942734
0000c0 9c 36 99 be 2d 0f 1b bf ab 4a 03 be e8 3f 4c be
       -0.29924476 -0.6057003 -0.12821452 -0.19946253
0000d0 f8 bf 10 3e 3d 3d ea bd 94 82 f4 bc 4b b3 5a be
       0.1413573 -0.114374615 -0.02984742 -0.21357457
0000e0 ee 26 e7 bd 74 1f 13 3e c8 cd c0 bd e0 f7 89 be
       -0.11286722 0.14367467 -0.0941425 -0.26946926
0000f0 3e da 8f 3e ba e8 5f be 87 bd 78 3e e2 1c 3b bf
       0.28096193 -0.21866122 0.24291049 -0.73090947
000100 b1 0c 2e bd 02 e4 40 3c 4c 55 b1 bd c9 23 68 bc
       -0.042492572 0.011773111 -0.08658847 -0.014168688
000110 88 49 87 be a0 80 b7 bd 12 91 a2 be b1 2b 64 3e
       -0.26423287 -0.0896008 -0.31751305 0.22282292
000120 84 9b 26 be e2 a6 16 be cd 44 17 be de e2 ac be
       -0.16270262 -0.14712098 -0.14772339 -0.33766836
000130 c5 01 31 3f f7 2e 61 3e 6f bc 4d 3e b5 96 ae 3e
       0.69143325 0.21990572 0.20091413 0.34099355
000140 3b 13 6f bd 72 c6 79 be 3a 41 a9 bc d7 1e 13 be
       -0.05836795 -0.24392107 -0.020660985 -0.14367233
000150 99 bc c7 3d e1 c8 24 bc fd e9 28 be c5 b7 0a be
       0.09752769 -0.010057659 -0.1649551 -0.13546665
000160 71 16 65 3e 6e 84 ba be ea 4e 49 bf 28 ea f0 be
       0.22371842 -0.3642916 -0.7863604 -0.47053647
000170 ac 27 43 be 3f d8 99 3e 70 73 3a 3e e4 80 eb bd
       -0.19058102 0.30047795 0.18208098 -0.11499193
000180 e1 a1 c6 3e a0 32 0f bf 6f d5 5e 3e 83 43 f2 3e
       0.3879538 -0.5593662 0.21761106 0.47317132

W_gnn.1.bias f4 [10]
000000 db be a0 be 3d 7e 55 3e 96 a4 c6 3d 98 ab 9a bd
       -0.3139561 0.20848937 0.09699361 -0.0755226
000010 7b 0c ab bd 23 ca 24 be 9a b7 34 bd 2f e6 6d 3e
       -0.0835199 -0.16092734 -0.04412041 0.2323234
000020 68 51 c3 be 21 4a c5 3d
       -0.38148046 0.096332796

W_gnn.2.weight f4 [10, 10]
000000 28 da b9 3d 00 da ff 3e 85 3e 22 bc e9 bf 7d be
       0.09074813 0.49971008 -0.009902601 -0.24780239
000010 04 b4 15 3e d1 35 c3 3e c0 da b9 be 08 d8 24 bf
       0.14619452 0.38126996 -0.36299706 -0.6439214
000020 1c 28 27 3d df 64 33 be ff 38 af bd b4 18 c5 3d
       0.040809736 -0.17518948 -0.08555793 0.09623852
000030 6a 5c 97 3e 0e 7c 4a 3d 59 bf 45 3e f5 1f 01 be
       0.29562694 0.049434714 0.19311275 -0.12609847
000040 d9 78 9f 3e 43 a4 83 3d c9 0d 83 be eb 8e 49 bf
       0.31146887 0.06427815 -0.25596455 -0.787337
000050 1e e8 9e 3b 76 0b 88 3e 8a 0f 4c be 67 33 09 be
       0.004849448 0.26571244 -0.19927803 -0.13398515
000060 d9 8c 5e be 05 99 e3 bd ee 45 60 be 2e 39 83 be
       -0.21733417 -0.111131705 -0.21901676 -0.25629562
000070 39 4a 09 bd d1 27 28 bf 77 05 01 bf dd 2f 1d 3e
       -0.03351805 -0.65685755 -0.50398964 0.1535029
000080 bf 38 ca 3d 5a 3b 2f be 26 07 39 be a0 de 15 3e
       0.09874105 -0.17112485 -0.18069133 0.14635706
000090 32 c2 00 be 96 62 ac be e1 5c ae bd 01 ca 39 be
       -0.1257408 -0.33668965 -0.08513809 -0.18143465
0000a0 24 d8 f1 bd a8 26 b9 3d ac 02 d6 3d da 27 00 3d
       -0.11808804 0.09040576 0.10449728 0.031288005
0000b0 64 02 06 be 69 6b 39 be fa e4 9b be 7b c6 fc be
       -0.1308685 -0.1810738 -0.30448133 -0.4937018
0000c0 e9 a0 e6 3d b0 11 2d be 37 f3 20 be 8d 8f f0 be
       0.1126116 -0.16901278 -0.15717779 -0.4698452
0000d0 f0 49 3d 3e 3a 23 02 be c3 cf 82 be 6c 46 6c 3d
       0.18485236 -0.1270875 -0.25549135 0.057684347
0000e0 95 db 41 3e 11 1d c8 bd 23 53 d2 bc 89 5c 14 bf
       0.1893142 -0.09771169 -0.025674408 -0.579537
0000f0 6f 0f 38 bf 07 c2 c6 3d 78 ef 5a be 76 a9 63 3e
       -0.7189855 0.097049765 -0.21380413 0.22232613
000100 c4 2c 40 bd 06 1a 68 3e a0 8f f1 3d 08 17 19 bc
       -0.04691769 0.22666177 0.117949724 -0.00934387
000110 15 b2 7c 3e bf 00 d4 3e ef 34 27 bf d5 7e 9e be
       0.24677308 0.4140682 -0.65315145 -0.3095614
000120 e2 bf 38 3e 73 3c be be 6b 0b b8 be 50 0f 9c be
       0.18041947 -0.37155494 -0.3594621 -0.30480433
000130 83 e7 3e 3e eb ad 90 3e 21 fd 09 3e a9 8d f4 3d
       0.18643002 0.2825769 0.13475467 0.11941082
000140 8d ae 19 3e 7d 38 8b be b8 40 a8 bd 79 ef 9d be
       0.15007992 -0.27191535 -0.08215469 -0.30846766
000150 4b 60 13 bd f5 46 20 3e b8 86 38 bd 2e 57 71 be
       -0.035980504 0.15652068 -0.045050353 -0.23568413
000160 30 d7 78 be 51 5c 9c be 38 57 cd be 88 57 70 be
       -0.24300838 -0.30539182 -0.40105605 -0.2347089
000170 c2 b3 6f 3e d5 2a da be 76 16 ca be 6c 73 5a bd
       0.23408416 -0.42610803 -0.3947026 -0.05333273
000180 2c 28 b7 3e df 33 95 3e 5b fd 83 3e a6 18 96 3e
       0.35772836 0.29141137 0.25779232 0.2931568

W_gnn.2.bias f4 [10]
000000 6d 3a ae 3e e1 61 41 be cc 04 25 3e db b4 8c bd
       0.3402895 -0.18884994 0.16115111 -0.06870433
000010 2b fc 40 be 25 0d a1 be b6 07 2f 3e 5a 44 a6 3e
       -0.18846194 -0.3145534 0.17092785 0.32474023
000020 c4 02 c3 3c 2d 1b 92 3e
       0.02380503 0.28536358

W_cnn.0.weight f4 [1, 1, 23, 23]
000000 e8 cf 49 80 0a 30 2b 00 e2 c8 14 3e 4b 7c 58 bd
       -6.778574e-39 3.96616e-39 0.14529756 -0.05285291
000010 36 4d 78 3d b8 74 9a be 55 96 81 be 13 6e 0a bd
       0.06062051 -0.30167174 -0.25310007 -0.03379638
000020 dd 5a 5e 3e c1 48 77 be 2d a2 c8 3d 2d e5 5d 3d
       0.21714349 -0.24148847 0.097965576 0.054173637
000030 7e 36 e3 3d cb 0e 2e be 26 81 ed 3d 5d 02 cd bd
       0.11094378 -0.1699783 0.11596899 -0.100102164
000040 10 5b b4 3d 6e 28 26 be ec 44 32 3c 11 bb 13 3e
       0.08806431 -0.1622636 0.01088069 0.14426829
000050 1b 04 c8 bb bb fb 25 00 87 c8 0e 00 04 1b 1c 80
       -0.006104005 3.488217e-39 1.357633e-39 -2.581085e-39
000060 2d 30 04 00 9e b8 94 3e 50 21 11 3d 06 0b 20 be
       3.84624e-40 0.29047102 0.03543216 -0.15629205
000070 e7 a9 91 be 89 91 82 be 97 bd 14 be bf 27 44 3e
       -0.28449938 -0.2550166 -0.14525448 0.19155787
000080 c2 5f 89 be 7e d8 ab bb 88 9e 11 3d 13 27 14 3e
       -0.2683087 -0.0052443137 0.035551578 0.1446803
000090 a6 b5 38 be 90 36 e2 3b 9c c4 8c bd bd fd 2f bd
       -0.18038043 0.006903477 -0.06873438 -0.042966593
0000a0 9b 62 26 be 0e 0e 1f 3d 4d f8 de bc a5 69 1c be
       -0.16248553 0.038831763 -0.027218008 -0.15274675
0000b0 df 5a 17 00 93 b9 1d 80 57 dc 36 80 62 32 4e 00
       2.144815e-39 -2.729801e-39 -5.03816e-39 7.181243e-39
0000c0 a1 f8 f0 3d 6c 92 0d 3d 11 20 54 be 37 5c 8c be
       0.11766172 0.034563467 -0.20715357 -0.27414104
0000d0 ca 15 76 be 23 d5 04 bd 6f 83 ae 3e 97 2c 83 be
       -0.2403175 -0.032429826 0.3408465 -0.25619957
0000e0 b5 e3 18 ba 47 a1 1a bd 0b ba 6d 3e 0e db 14 bc
       -0.0005832271 -0.037751462 0.23215501 -0.00908543
0000f0 44 6f 68 3d d7 e6 35 bd 88 32 b2 bd c4 96 3c be
       0.056746736 -0.0444096 -0.08701044 -0.18416888
000100 5a 60 43 3e 4a 58 a6 3c 45 6e 10 3d d4 27 38 00
       0.19079724 0.020305771 0.03526141 5.157075e-39
000110 e5 7a 48 80 e2 65 43 80 7c f4 07 80 01 d0 43 3e
       -6.656242e-39 -6.189527e-39 -7.30553e-40 0.19122316
000120 23 26 ae 3d 10 7f 8b bd 83 04 6a be 28 9d 1d be
       0.08503368 -0.068113446 -0.22853284 -0.15391982
000130 6f 07 c3 3c 99 7f b3 3e ab 32 0c be 79 87 c6 3d
       0.023807256 0.35058287 -0.13691203 0.09693808
000140 31 92 11 bd 1d b9 83 3e 2c f3 8d be d2 c4 d5 3d
       -0.03553981 0.25727168 -0.27724588 0.10437931
000150 e6 3e 20 be d7 45 b3 3d b9 36 9b bd 9d ad 06 3e
       -0.15648994 0.08753555 -0.07578797 0.13152166
000160 d8 c1 a9 3d a3 40 7c 3e e4 4c 1d 80 39 1a 4a 00
       0.08288926 0.24634032 -2.690813e-39 6.805234e-39
000170 9e 00 4b 00 1e fd 39 80 1c e4 33 3e 46 7c 33 bb
       6.887884e-39 -5.325425e-39 0.17567486 -0.0027387305
000180 29 80 3b 3c c9 ca 4b be 3f b8 2b be 06 13 79 bd
       0.01144413 -0.19901575 -0.16769503 -0.060809158
000190 57 94 98 3e 24 9e 81 be f3 24 0d 3e 29 a2 e4 3c
       0.29800674 -0.25315964 0.13783626 0.027909355
0001a0 79 75 48 3e 1a 94 d2 bd 43 b7 85 bd d1 ae 24 be
       0.19576062 -0.102821544 -0.06529095 -0.16082312
0001b0 91 78 a8 bd c4 f5 24 bc 61 85 a6 3d 70 9e 13 3e
       -0.08226121 -0.010068361 0.08130909 0.14415908
0001c0 e0 d3 0f bd 2c 7f 4a 00 5e f8 20 00 91 7a 39 80
       -0.03511417 6.841447e-39 3.027833e-39 -5.278592e-39
0001d0 2f 51 44 00 ad fd 7a 3e 6a 28 30 3d ea df d9 bd
       6.273937e-39 0.24510832 0.04300729 -0.10638411
0001e0 23 cb 3d be 65 0d 1f bd 70 75 42 3c 02 8f 8f 3e
       -0.18534522 -0.038831133 0.01186882 0.28038794
0001f0 7f 2f 31 be 89 c9 48 3d 76 04 71 bc 21 92 0b 3e
       -0.17303275 0.049020324 -0.014710536 0.13629963
000200 17 7a e1 3b a9 8c 07 be a0 9b c4 bd 79 33 22 be
       0.0068810093 -0.13237251 -0.095999956 -0.15839948
000210 d6 77 17 bc 44 98 18 3d 30 11 33 3e f6 74 a5 bd
       -0.00924488 0.037254587 0.17487025 -0.08078949
000220 df 34 4e 80 7c 41 0e 80 27 e4 48 00 99 e1 07 00
       -7.182135e-39 -1.309188e-39 6.694001e-39 7.23778e-40
000230 74 2b 56 3e 17 a0 08 3e fc 3f 2f 3d e0 53 83 be
       0.20915014 0.1334232 0.04278563 -0.2564993
000240 80 7e 58 be 51 3b 85 3d a4 42 30 3e 68 f5 43 be
       -0.21142006 0.06505454 0.17212921 -0.19136584
000250 e7 bf ac 3d 77 dc 2c 3c 5e 5b 89 3e 79 7e 87 bd
       0.0843504 0.01055061 0.2682752 -0.066159196
000260 e9 8b e8 bc fc 09 95 3d d4 b6 a3 bd a5 03 1b 3d
       -0.028387027 0.07277295 -0.07993856 0.037845273
000270 f2 49 9f bd b2 d2 2a 3e 1e 9e 0c bd 30 bf 49 00
       -0.07777776 0.16681936 -0.03433048 6.772576e-39
000280 21 49 53 00 25 af 1d 00 99 9f 02 00 de 05 fb 3d
       7.64858e-39 2.72606e-39 2.40924e-40 0.122569785
000290 8f 21 bf bc b4 36 e8 3d e2 e9 8f be 23 00 34 be
       -0.023331432 0.11338559 -0.28108126 -0.17578177
0002a0 16 af b1 3b e7 bc 45 3e 89 64 23 be 80 2e a1 3d
       0.005422483 0.19310342 -0.1595632 0.07870197
0002b0 e5 2e 78 3d 87 12 a9 3d 37 42 0b bd b4 9b 92 3d
       0.060591597 0.08255487 -0.033998694 0.07158604
0002c0 31 93 ca 3c 60 86 a3 3d c1 a9 9b bd 4a 71 e8 bc
       0.02472839 0.07984614 -0.07600737 -0.028374333
0002d0 57 8e dd 3d 08 08 bf 3d 82 b0 07 00 59 7c 52 00
       0.10818165 0.09327704 7.06168e-40 7.575118e-39
0002e0 18 a8 1f 80 55 c6 40 00 86 a0 ca 3d 86 a1 a4 bd
       -2.907201e-39 5.94862e-39 0.09893899 -0.08038621
0002f0 77 88 29 bd 07 29 9e be a1 c5 2e be 4d 9d a1 3d
       -0.04138991 -0.30890676 -0.17067577 0.07891331
000300 0f 59 44 3e db 64 07 be 38 f0 ff ba f1 22 38 bc
       0.19174598 -0.13222067 -0.0019526547 -0.011238799
000310 dc e8 28 3e a0 11 16 3d ae 00 dc 3c 64 8c 18 3c
       0.16495079 0.036637902 0.026855793 0.0093108155
000320 00 99 22 3d 0a ee d5 bd 8e 55 b9 be 58 12 cd bd
       0.039696693 -0.10445793 -0.36198086 -0.100132644
000330 1f 3d a2 bc e1 76 4a 80 6a b7 44 80 05 58 26 00
       -0.019804535 -6.838472e-39 -6.31061e-39 3.521324e-39
000340 3f a2 01 00 f6 3c ef 3d 20 34 1f be 8d 63 13 3d
       1.50038e-40 0.11681549 -0.15547228 0.03598361
000350 9e 59 a8 be e0 e3 2a be 1f d7 12 3e 87 23 8f 3e
       -0.32880872 -0.1668849 0.14339875 0.27956793
000360 58 a5 06 be 0a 68 ef 3c 43 60 b8 bd 59 b8 de 3d
       -0.13149011 0.029224414 -0.090027355 0.10875005
000370 8f 47 ee bd d5 ae 9b 3d 2f ed cb bc 99 59 1a bb
       -0.116347425 0.07601706 -0.024893371 -0.002355194
000380 54 a2 41 be 2b b4 c8 bd 35 d9 10 3e ac bf 8d 3d
       -0.1890958 -0.09799989 0.14145358 0.06921324
000390 47 11 20 00 50 c8 4b 00 b9 1a 1e 80 6c cf 14 00
       2.944934e-39 6.959521e-39 -2.764651e-39 1.911119e-39
0003a0 b6 c9 37 bd df d1 72 bd 04 65 a4 3d 9f 8e a0 be
       -0.0448701 -0.05928218 0.0802708 -0.3135881
0003b0 44 68 27 be 5e 34 fa 3d 16 c7 83 3e 23 9a 00 be
       -0.16348368 0.122170195 0.25737828 -0.12558798
0003c0 bd f5 62 3d 6b 15 bd bc 66 f0 56 3d 1c 32 0b be
       0.055410136 -0.023081502 0.052475356 -0.13593334
0003d0 23 95 84 3c 5d 6b f3 3c a1 24 8e bd ab f6 31 be
       0.016184395 0.02971428 -0.0694058 -0.17379253
0003e0 35 c8 42 be 7f a0 b7 bd 5d f2 4d bd 52 2c 17 00
       -0.19021685 -0.08966159 -0.050279964 2.128116e-39
0003f0 42 cf 16 00 bd aa 08 00 b8 56 3d 80 73 99 a7 3d
       2.094731e-39 7.95933e-40 -5.633074e-39 0.08183565

W_cnn.1.weight f4 [1, 1, 23, 23]
000000 3d 37 1f 80 0f e3 0e 00 79 e1 15 bd 3d c9 3f 3d
       -2.866716e-39 1.36715e-39 -0.03659198 0.046822775
000010 fe 5f 41 be 28 76 16 be 7a 20 40 bd 8f ac a4 3b
       -0.18884274 -0.1469351 -0.046905972 0.0050254534
000020 0d 8a b6 bd 7f 3e 13 bc 42 bd ec bd fb 7d 80 be
       -0.0891305 -0.008987068 -0.115595356 -0.25096115
000030 56 82 9b be ee 0f 01 3e 18 5d 83 3d 75 91 9d be
       -0.30372876 0.12603733 0.064142406 -0.30775037
000040 70 8e 8b bd ef ed 88 3e 40 f4 20 be d5 40 7a be
       -0.06814277 0.2674403 -0.15718174 -0.24438794
000050 0a 4a 7c be 69 bd 3b 80 9e 04 49 00 c4 4b 29 80
       -0.24637619 -5.486242e-39 6.705648e-39 -3.792435e-39
000060 63 b1 51 80 b7 d0 02 bd b6 f4 84 3d 94 f3 7d be
       -7.50231e-39 -0.031937327 0.064919874 -0.24799949
000070 ef fe 1c be 31 93 83 bd df 0f 55 bc 6b 9e 03 be
       -0.15331624 -0.06424559 -0.013004272 -0.128534
000080 98 ea 43 bd 6b ef d9 bd b3 f1 95 be 13 e6 99 be
       -0.047831148 -0.106413685 -0.29285964 -0.30058345
000090 60 99 fe 3d 5c 6e 5b 3d ae a9 93 be c1 41 a7 bd
       0.12431598 0.053572044 -0.28840393 -0.081668384
0000a0 a2 e6 a2 3e 71 a8 d8 bd 82 23 7e be 34 3f 4a be
       0.31816584 -0.10579003 -0.24818233 -0.19750673
0000b0 7e 44 3b 00 42 74 31 00 d0 08 1f 80 7b b4 1d 80
       5.442865e-39 4.541645e-39 -2.850062e-39 -2.727974e-39
0000c0 25 92 b0 3b b8 70 32 3d 7e ee 51 be 69 6f 03 be
       0.0053885155 0.04356453 -0.20501134 -0.12835468
0000d0 e2 ce c4 bd e0 23 96 3c b2 1b 3e bd cf 92 34 bd
       -0.09609772 0.018327653 -0.04641313 -0.04408532
0000e0 71 02 0d be 75 8c 53 be 70 1f 81 be 00 d3 aa 3d
       -0.13770463 -0.20659049 -0.25219297 0.08341026
0000f0 19 cd cc 3d e9 5c 9d be 9c 21 35 bd ae c2 97 3e
       0.10000057 -0.30734947 -0.044221506 0.29640716
000100 bc 1b 15 be 72 9a 2b be 9d ee 4c be a1 dd 43 80
       -0.14561361 -0.16758135 -0.20012899 -6.232484e-39
000110 16 10 03 00 52 a0 30 80 b0 67 08 80 51 bf 8f bc
       2.81277e-40 -4.465616e-39 -7.7188e-40 -0.017547281
000120 9b f6 08 3c b2 12 26 be 00 36 23 be e8 a0 11 bd
       0.008359577 -0.16218069 -0.15938568 -0.035553843
000130 66 87 52 3c 53 d5 c1 bd d5 d0 cf bc d2 64 18 be
       0.012849664 -0.094645165 -0.025368134 -0.1488221
000140 b9 94 95 be 26 6a 25 be 93 72 95 3c e4 d9 27 3d
       -0.2921503 -0.16153774 0.01824311 0.04097928
000150 c5 e4 a8 be a1 33 c7 3c 46 6f 8e 3e c0 18 25 be
       -0.32987037 0.02431661 0.2781927 -0.16122723
000160 1e 8e 1e be cb be 3b be 84 14 1a 80 f0 7e 24 00
       -0.15483901 -0.183345 -2.395083e-39 3.351614e-39
000170 09 e2 4d 80 0f c7 35 80 90 f6 8c 3c 4f 62 f1 3c
       -7.15242e-39 -4.93869e-39 0.017207414 0.029465823
000180 63 83 41 be c0 f1 4c be 5b 45 f7 bc 90 84 a0 3c
       -0.18897776 -0.20014095 -0.030184438 0.01959446
000190 75 85 5e bb cb 7b 65 bd 40 1f 48 be 5b e0 92 be
       -0.0033954058 -0.05602626 -0.19543171 -0.28686795
0001a0 77 f6 68 be 45 9f df 3c 99 89 c3 3c 8e c3 a5 be
       -0.22750269 0.027297625 0.023869323 -0.3237576
0001b0 e0 bc 24 3c 73 e8 80 3e be cb cd bd 46 fc 45 be
       0.010054797 0.25177345 -0.10048626 -0.19334516
0001c0 2d 9c 40 be 6b 5f 1d 80 85 3f 2b 00 09 40 0a 80
       -0.18809576 -2.697459e-39 3.971713e-39 -9.41326e-40
0001d0 de 54 11 00 e7 a0 71 bb 78 fc f7 3c 24 c9 1c be
       1.591648e-39 -0.0036869587 0.030271754 -0.15311104
0001e0 2f 18 77 be 9e 1e 8f bd 74 b7 f6 3c b5 c7 63 3d
       -0.24130319 -0.06988262 0.030116774 0.055610377
0001f0 f5 4c cd bc 7b 09 ee bd 94 d4 6e be 8e ac 68 be
       -0.02506111 -0.11622902 -0.2332328 -0.22722074
000200 cf e5 06 bd 98 12 66 bc 68 ec 93 be ce 61 65 bc
       -0.032934006 -0.014042519 -0.288913 -0.014000369
000210 0a 20 5b 3e 43 4b d3 bd f7 9f 05 be 3d f0 58 be
       0.2139894 -0.103170894 -0.13049303 -0.21185394
000220 5f 7f 4d 80 da a3 40 80 e1 02 12 00 22 c5 19 80
       -7.117025e-39 -5.93625e-39 1.654072e-39 -2.366605e-39
000230 e3 6e cb bb 18 77 40 3d 71 e3 b2 bd d3 d6 60 be
       -0.006208287 0.046988577 -0.08734787 -0.21956949
000240 8d 7a 27 bd 52 7a dc 3c 73 3e 98 3d 9b 94 fe bc
       -0.040888358 0.026913796 0.07433786 -0.03107672
000250 57 be e3 bd 64 47 a5 be 7f c5 42 be 17 cf 97 bc
       -0.11120289 -0.3228103 -0.19020651 -0.018531365
000260 23 b1 b0 3c 67 30 86 be 00 58 3b bc 4f a5 21 3e
       0.02156884 -0.26208803 -0.011434555 0.15785716
000270 38 ef 37 be 46 48 22 be d5 ce 2c be 47 1b 43 80
       -0.17962348 -0.15847883 -0.16875775 -6.162764e-39
000280 cb 60 36 00 1e ed 14 80 1f fd 0f 00 86 6f 6d bc
       4.99384e-39 -1.921772e-39 1.468335e-39 -0.014491921
000290 a0 81 57 3d ca aa 0d be 99 7c 3c be c3 44 15 bd
       0.052613854 -0.13834682 -0.18406905 -0.03644253
0002a0 80 ba f9 bc ba 2e 4d 3d 56 24 96 bd 6b 8d c8 bd
       -0.030484438 0.05009339 -0.07331149 -0.09792598
0002b0 a1 0b 76 be bd 14 39 be b7 b2 9a 3c 6b b7 58 3d
       -0.24027874 -0.18074317 0.018884046 0.052909296
0002c0 bc 1e a2 be 16 5e 1c 3d f4 59 06 3e 94 1f dd bd
       -0.31664073 0.038175665 0.13120252 -0.10797039
0002d0 59 e9 44 be 32 b2 4a be 46 7c 44 00 a9 ef 42 00
       -0.1922964 -0.19794539 6.289395e-39 6.147117e-39
0002e0 ae 5c 42 80 b1 d5 06 80 64 a5 ce bb da b9 09 bb
       -6.09439e-39 -6.27671e-40 -0.006306337 -0.0021015317
0002f0 92 6a f4 bd ec 2b 28 be 6d df a0 bc 10 d9 bc bb
       -0.11934389 -0.16423005 -0.019637788 -0.0057631806
000300 de 65 16 3d a3 31 0f 3b d9 28 41 be cf ac 91 be
       0.036718242 0.0021849654 -0.18863238 -0.28452155
000310 af 0e 1a be 79 7b 29 3d 51 06 8e 3c e7 44 9e be
       -0.15044664 0.04137752 0.017336996 -0.30911943
000320 c4 51 7e 3d 9f 08 4c 3e 81 f7 cd bd 10 f4 2e be
       0.062089697 0.19925164 -0.10056973 -0.1708529
000330 47 22 31 be 24 85 49 00 47 fe 4d 80 60 27 30 80
       -0.17298232 6.751753e-39 -7.162551e-39 -4.422229e-39
000340 10 55 1d 80 da e7 2f bc 4d 55 64 bd fd 20 2d be
       -2.693744e-39 -0.01073643 -0.05574541 -0.16907115
000350 2e 65 50 be 33 0b 99 bc e9 ef c3 bc 59 8e 36 3d
       -0.20351097 -0.018682098 -0.023918109 0.044569347
000360 74 22 86 3d 21 43 00 be 50 52 95 be 98 7b 4e be
       0.0654954 -0.12525608 -0.29164362 -0.20164335
000370 28 20 cd 3c 63 27 39 3d cf 45 cf be e1 da 3b bc
       0.025039747 0.045203578 -0.40482947 -0.011465759
000380 fa e8 76 3e f8 39 0b be e2 cf 2a be 60 eb 28 be
       0.24112311 -0.13596332 -0.16680863 -0.16496038
000390 a3 39 2a 80 64 62 07 00 f9 a1 1b 00 ae cc 4a 00
       -3.877767e-39 6.78144e-40 2.537663e-39 6.869252e-39
0003a0 82 7c 32 3c 3d b2 a1 bd f0 92 26 be 5c 1f cb bd
       0.010893943 -0.078953244 -0.1626699 -0.09918091
0003b0 bf 3f 58 bd 36 20 04 bc 15 f9 94 3c f2 f8 e9 3a
       -0.052795168 -0.00806432 0.018185178 0.0017850681
0003c0 98 b0 4d be b9 11 8e be 90 11 4f be d3 67 83 3a
       -0.20086896 -0.27747896 -0.20221543 0.0010025449
0003d0 ef 9b de 3c aa 3b c7 be 30 07 e1 bc 9f 58 5d 3e
       0.027173964 -0.38912708 -0.027469248 0.21615838
0003e0 5a ab c4 bc 0b 12 88 be 7d b5 45 be a6 c9 13 80
       -0.024007488 -0.26576266 -0.19307514 -1.817212e-39
0003f0 d4 b5 15 00 10 ae 04 00 a3 b1 10 80 43 35 b9 bc
       1.993773e-39 4.29784e-40 -1.533092e-39 -0.022608405

W_cnn.2.weight f4 [1, 1, 23, 23]
000000 c1 a4 15 00 4e 82 3e 00 03 8c 7c 3e 4e f6 f1 3c
       1.987648e-39 5.740545e-39 0.24662785 0.029536393
000010 52 2b cc be c7 76 59 be 83 bb 6b 3c 60 b5 2f 3e
       -0.398768 -0.21236716 0.014387968 0.17159033
000020 b8 15 df be 5c 49 60 be 11 3c bd 3d 28 17 4c be
       -0.43571258 -0.21902984 0.092399724 -0.19930708
000030 d3 22 20 bf 7f 82 ef bc 8d a6 59 be bf 44 2c be
       -0.6255314 -0.02923703 -0.2125494 -0.168231
000040 38 b1 0a be cb b6 a8 bd 9c 38 2a 31 fc 81 c6 3c
       -0.13544166 -0.0823799 2.4770435e-09 0.024231903
000050 d2 c0 22 a0 ef 02 41 80 3f 57 1d 00 42 af 4e 00
       -1.3785733e-19 -5.97036e-39 2.694527e-39 7.22604e-39
000060 4e fe 4d 00 d4 1f 7c 3e 90 a7 7a 3d 9b ef c9 be
       7.16256e-39 0.24621516 0.061194956 -0.39440617
000070 60 3f 04 be f3 0f 13 bd 02 78 31 3e c3 7e ed be
       -0.129148 -0.035903882 0.17330936 -0.46385774
000080 16 6e 4d be 61 9c 9e 3d d7 3a 56 be f3 8d 19 bf
       -0.20061526 0.07744671 -0.20920883 -0.5998222
000090 56 8f 89 bd de 67 36 be 9d f3 44 be b9 55 a0 bd
       -0.06716792 -0.1781306 -0.19233556 -0.0782885
0000a0 2e 32 ea bd a2 68 a5 30 06 18 c7 3c e9 7e be 9f
       -0.11435352 1.2035068e-09 0.024303447 -8.0678085e-20
0000b0 d7 68 50 80 fd 2e 16 80 df ac 2e 00 79 20 49 00
       -7.384449e-39 -2.037237e-39 4.286447e-39 6.71564e-39
0000c0 da 95 80 3e 00 0d b8 3d 4a 16 d9 be af a9 fc bd
       0.25114328 0.089868546 -0.42399818 -0.12337052
0000d0 8f de ea 3b 5d 83 22 3e b4 c0 e8 be 4a 23 0c be
       0.0071676443 0.15870424 -0.4545952 -0.13685337
0000e0 0b 20 a9 3c ef ad 55 be 25 19 06 bf 9a 43 89 bd
       0.020645162 -0.20867132 -0.5238212 -0.06702347
0000f0 f1 d1 11 be e1 cf 32 be ff f2 bd bd 5d 7b a6 bd
       -0.14240243 -0.17462112 -0.092748635 -0.081289984
000100 53 07 c9 2e 79 74 c7 3c 8b 7e b0 9f b9 23 1f 80
       9.141723e-11 0.02434753 -7.474825e-20 -2.859715e-39
000110 dd ec 49 00 5e ec 07 00 73 83 0e 00 7b 6f 6a 3e
       6.788962e-39 7.27641e-40 1.332852e-39 0.22894089
000120 49 16 70 3d eb 05 b0 be 50 2f 1e be 7e 97 49 bc
       0.058615003 -0.34379515 -0.15447736 -0.012304185
000130 20 9e 38 3e ee 50 06 bf 21 80 d6 bd 35 4d 9e 3d
       0.1802907 -0.5246724 -0.104736574 0.0772957
000140 31 51 31 be 99 f5 f9 be 85 ce 8f bd a7 4f 32 be
       -0.17316128 -0.4882019 -0.07021812 -0.17413197
000150 b2 f9 07 be 4a 14 c1 bd 96 5c f8 bd 36 8a ce 2a
       -0.13278845 -0.09427698 -0.12127034 3.6688854e-13
000160 9e 13 c8 3c c0 50 a7 9f 30 66 08 00 39 e4 31 00
       0.024423417 -7.086084e-20 7.71342e-40 4.58181e-39
000170 fd 28 00 00 04 e6 53 80 64 e5 5b 3e f5 af 41 3d
       1.4704e-41 -7.70486e-39 0.21474224 0.047286946
000180 ba 48 bf be 78 f1 0c be 50 0e 80 bd 1f 44 2b 3e
       -0.37360173 -0.13763988 -0.0625273 0.16725205
000190 b0 59 fc be 58 30 d8 bd d1 8a 54 3c 3f ba 18 be
       -0.49287176 -0.10556096 0.01297255 -0.14914797
0001a0 b9 16 ca be 2f 54 9f bd 62 70 50 be 0f 15 9d bd
       -0.3947046 -0.077797286 -0.2035537 -0.07670032
0001b0 f3 b6 e1 bd 0b 15 a7 bd 6b fe cb 29 8f ca cd 3c
       -0.11021223 -0.081583105 9.0591454e-14 0.025121002
0001c0 17 00 02 9f ff 3c 4a 00 f2 6a 50 80 81 b2 0e 00
       -2.7528645e-20 6.817708e-39 -7.385204e-39 1.349732e-39
0001d0 1e 09 11 80 67 db 76 3e c7 f4 9c 3d 5b 79 c8 be
       -1.564474e-39 0.24107133 0.07663875 -0.39155087
0001e0 85 a4 d4 bd f2 0e ee ba b4 5d 2b 3e 76 4f 02 bf
       -0.10382942 -0.0018162413 0.16734964 -0.509025
0001f0 00 d1 c6 bd 8c 4c da 3c b0 8d 11 be 01 4c b5 be
       -0.09707832 0.026647829 -0.14214206 -0.3540955
000200 fd 31 bb bd cb 2d f8 bd ea 50 6b bc f7 0c cf bd
       -0.09140394 -0.12118109 -0.014362553 -0.10109895
000210 d6 51 c8 bd 24 b5 8d 1e 65 19 df 3c 00 74 1d 9e
       -0.09781234 1.5003874e-20 0.027233789 -8.335499e-21
000220 d5 a8 2a 00 6e 6c 11 80 35 a1 2e 00 be 15 1f 00
       3.917656e-39 -1.6001e-39 4.282263e-39 2.8547e-39
000230 fa bf 7a 3e b7 cc 2c 3d 93 63 a4 be 71 dd 0e be
       0.24487296 0.04218742 -0.3210722 -0.1395166
000240 71 83 13 bd e2 dc 21 3e d2 ad eb be d0 e8 6b bd
       -0.036014024 0.15806916 -0.46031052 -0.057595074
000250 9b 65 6f bb ce dc 2a be 3b e9 96 be 47 f8 c6 bd
       -0.0036529067 -0.16685793 -0.29474816 -0.09715324
000260 a0 1e 4d be e1 35 63 3a 07 73 59 bd 96 fb f3 bd
       -0.20031214 0.00086673914 -0.053088214 -0.119132206
000270 98 c7 67 17 7c d7 df 3c cb 83 03 9d b6 19 25 00
       7.489205e-25 0.02732443 -1.740584e-21 3.407137e-39
000280 f0 d6 29 80 3d 54 08 00 56 39 50 00 60 58 59 3e
       -3.84236e-39 7.64903e-40 7.367408e-39 0.21225119
000290 ca f4 88 3b 59 94 a5 be 2d f9 0f be cd f4 37 bd
       0.0041795718 -0.32339743 -0.14059897 -0.044911195
0002a0 4d ef 04 3e e6 7f ec be 6e 90 20 bd 81 bd 09 3d
       0.12981911 -0.4619133 -0.03920024 0.03362799
0002b0 98 14 0b be f4 5d 7a be c9 c5 c4 bd e3 7a 29 be
       -0.13582075 -0.24449903 -0.09608037 -0.16550784
0002c0 01 60 23 3c 96 8d 56 bd b5 67 d7 bd ba 0b 99 b4
       0.00997162 -0.05238112 -0.105178274 -2.8507003e-07
0002d0 37 d2 e1 3c 71 01 b2 a6 f5 cf 3f 80 40 89 03 00
       0.027566059 -1.2351622e-15 -5.860237e-39 3.24743e-40
0002e0 47 13 29 80 33 84 39 80 19 05 79 3e 83 67 58 3d
       -3.772171e-39 -5.282047e-39 0.24318351 0.05283309
0002f0 cc b2 96 be a2 6f 06 be 54 c9 4f bc cb 00 ee 3d
       -0.29433286 -0.13128522 -0.012682278 0.11621245
000300 6c d5 da be cb e7 3b bd f0 ce 68 3c e0 06 32 be
       -0.42740953 -0.045875352 0.014209494 -0.17385435
000310 3d 71 3c be e3 39 9f bd 4c 5a fe bd 1f 0f b5 3c
       -0.18402572 -0.07774713 -0.124195665 0.022101937
000320 ac 28 48 bd 03 2a aa bd 33 42 9c 39 87 c4 e1 3c
       -0.048866913 -0.08308794 0.0002980396 0.027559532
000330 32 f1 97 9a d7 27 26 80 16 1e 15 80 55 a8 3b 80
       -6.284181e-23 -3.50404e-39 -1.939338e-39 -5.47868e-39
000340 b6 a7 4c 80 87 e4 5e 3e 1f 8a b2 3c fb e3 a0 be
       -7.039661e-39 0.21766864 0.021794377 -0.31423935
000350 af f9 c4 bd 7a 3d 39 bd be ef be 3d 29 8e e3 be
       -0.09617936 -0.045224644 0.09323071 -0.44444397
000360 43 5c 20 bb 90 bf 3f bb 04 fc ea bd 48 92 0d be
       -0.0024469055 -0.0029258467 -0.114738494 -0.13825333
000370 4d d3 16 bd fe 3d 11 be 9e 40 fc 3c 05 7c 80 bd
       -0.036822606 -0.14183804 0.03079253 -0.06273655
000380 35 4e 75 bd a3 bf 4b 3c 6c 3b dd 3c 81 d5 d3 99
       -0.059889037 0.0124358265 0.027005874 -2.1903122e-23
000390 bc 04 00 00 e6 ec 48 80 0e 22 36 00 cd 16 4a 00
       1.698e-42 -6.697139e-39 4.971333e-39 6.804006e-39
0003a0 ac 49 4d 3e 44 58 76 3c d2 7d a8 be cd d7 e1 bd
       0.20047635 0.015035693 -0.32908493 -0.11027489
0003b0 cb 59 58 bd 84 9e af 3d 95 50 d3 be 78 b0 3e 3c
       -0.05282001 0.08575156 -0.41272417 0.011638753
0003c0 c1 b3 22 3d c2 64 0b be 95 7e e8 bd a3 1b 1e bd
       0.039722208 -0.13612655 -0.113522686 -0.038600575
0003d0 bc 72 e1 bd a7 59 13 3d 31 c2 cc bd 03 de b6 bd
       -0.11008212 0.03597417 -0.099979766 -0.08929064
0003e0 91 18 9b 3c 76 03 d9 3c 57 7b 72 9a 41 a0 3b 80
       0.018932613 0.026490908 -5.014406e-23 -5.475783e-39
0003f0 0b a8 15 80 f9 79 24 80 da 12 4f 80 48 5e 37 3e
       -1.988828e-39 -3.349833e-39 -7.261767e-39 0.17907059

W_attention.weight f4 [10, 10]
000000 0b 64 3b bc f9 97 d7 be 81 6c ab bd 01 44 e7 3d
       -0.011437426 -0.42108133 -0.08370305 0.112922676
000010 7a ac 01 3e c5 d0 d0 3c cc c5 5e bd ee 82 0f bd
       0.12663451 0.025490174 -0.054387853 -0.035036974
000020 ea fd ba 3c 71 03 b5 bd cc 5b 27 3e e2 21 9a bd
       0.022826154 -0.08838547 0.16343611 -0.07525994
000030 19 0e 88 be 52 b0 c8 3d bb 71 0c bf 1b d7 a4 be
       -0.26573256 0.097992554 -0.5486104 -0.32195362
000040 52 49 9e 3e 4b 94 bc 3d 92 56 12 be 16 2c 7a 3c
       0.30915314 0.09207972 -0.14290836 0.0152693
000050 21 e5 99 bd 92 45 ae 3d 0d c0 33 3e 2d 7a 0c 3e
       -0.07514406 0.08509363 0.1755373 0.13718481
000060 be c8 9f 3d 69 0a e6 bd 9d 1d 15 3e 77 c1 42 3d
       0.078019604 -0.11232454 0.14562078 0.047547784
000070 68 cc b5 3d 4e 5f 13 bb 06 ce 5e 37 2a 97 9e 3c
       0.08876878 -0.0022487226 1.32802e-05 0.01935919
000080 03 1a 94 3d b0 42 01 b8 0e 2c 55 bd 36 f6 8e bc
       0.07231524 -3.0818104e-05 -0.052043967 -0.017451387
000090 ba b4 62 be c1 c6 68 b8 63 75 8a bd 2d 46 0b be
       -0.22139254 -5.5498214e-05 -0.06760671 -0.13600989
0000a0 b2 96 87 3c 89 8e 6d 3e f2 c6 ad bc 2d d3 b3 be
       0.01655135 0.23198904 -0.021213029 -0.35122052
0000b0 bf 42 f8 3e a4 81 8e 3e 02 d1 4e bd 9b 36 cd 3e
       0.48488423 0.27833283 -0.050492294 0.40080723
0000c0 4c ca de 3a 91 49 d2 3e 2d 0b 10 bc d1 5b 0b 3e
       0.0016997545 0.41071752 -0.008791727 0.13609244
0000d0 97 af 00 3e ec 31 a1 bd 3c 5e 11 3e c9 b5 f1 3d
       0.12566982 -0.0787085 0.14196104 0.11802251
0000e0 b3 b2 a0 bd 09 12 ac 3d f7 93 f1 3d e0 9c 1e 3e
       -0.07846584 0.084018774 0.117958 0.1548953
0000f0 38 ed f9 3d 46 9e 0b 3d 03 22 87 3d 69 60 92 3d
       0.12203449 0.03408649 0.06598284 0.07147295
000100 a9 bb bb 3c a4 8f 36 3c cc 16 59 3d a5 8e c9 bc
       0.022916632 0.011142645 0.053000256 -0.024604151
000110 02 67 d8 bd 1f 3d 76 bc 92 f0 91 38 92 41 2c b7
       -0.10566522 -0.015029221 6.9589485e-05 -1.0267266e-05
000120 f6 2d a6 bc 41 72 23 be 8a 6a 5f be 07 dd 9a bc
       -0.020285588 -0.15961553 -0.21817985 -0.018904222
000130 88 1c 29 bb 02 2a a4 3c bf bb 39 b5 75 e3 12 bd
       -0.002580436 0.020039562 -6.9191077e-07 -0.03586145
000140 12 f3 0a 3c b7 58 92 be 3f 78 df be aa a3 5e 3e
       0.008480804 -0.2858331 -0.43646428 0.2174212
000150 fe ce ba be ce 77 1e bf ff b4 8a 3e c5 28 c8 bc
       -0.36486048 -0.6190156 0.27091214 -0.024433503
000160 74 2f 28 bd 66 60 93 3d 7e a4 35 be 11 52 69 be
       -0.04106088 0.07196121 -0.1773853 -0.22785212
000170 9a f2 81 be 70 cf 32 be ad 10 bf bd 1c 3e 74 be
       -0.25380403 -0.17461944 -0.093293525 -0.23851818
000180 71 97 40 3e 77 e0 82 be 13 6c f0 bd e0 49 4d 3c
       0.1880777 -0.25561878 -0.117393635 0.01252982

W_attention.bias f4 [10]
000000 4b bb 74 be 3f 41 a2 3e f4 67 00 3d 95 ef e4 bd
       -0.23899572 0.31690404 0.031349137 -0.11178509
000010 7c 21 6d 3d 04 4f 21 3c d1 2e af 3c cc dc 3e be
       0.05789326 0.009845499 0.021384628 -0.18638915
000020 cb 96 8c 3d 9d 90 e9 3c
       0.06864699 0.02851134
