baselines/CPI/CPI-GNN/results/model/model_fold5.pt (torch, 605575 bytes, 21 tensors)

embed_fingerprint.weight f4 [6239, 10]
3.805823e-39 7.077802e-39 -5.571557e-39 3.680551e-39 5.26614e-39 -2.64793e-39 6.14592e-39 -7.528766e-39
6.210884e-39 -1.05112e-39 2.189774e-39 6.773297e-39 2.11778e-39 -4.840662e-39 5.09214e-39 7.43946e-39
-1.393165e-39 1.00342e-39 3.764468e-39 -4.0525e-39 -4.349612e-39 -3.636483e-39 6.334854e-39 6.740415e-39
3.69972e-40 3.943869e-39 5.321313e-39 2.835949e-39 -3.754435e-39 -4.925638e-39 5.19958e-39 -4.62532e-40
-6.761509e-39 -5.72211e-39 6.980093e-39 -1.12523e-40 9.23955e-40 2.200849e-39 2.870032e-39 -2.333518e-39
2.97494e-39 -4.672739e-39 2.849151e-39 -2.115868e-39 6.061595e-39 -3.023599e-39 3.609194e-39 2.712308e-39
2.563435e-39 -4.522972e-39 -6.405851e-39 6.366599e-39 6.809468e-39 -3.307328e-39 -4.162395e-39 -6.97466e-39
6.096263e-39 4.350185e-39 1.713136e-39 -1.778e-42 5.406162e-39 4.004868e-39 4.094579e-39 1.35584e-39
4.113859e-39 -2.683487e-39 -5.961751e-39 1.397155e-39 -7.353349e-39 -6.47475e-39 -0.6386596 -0.008567172
-1.7099808 -0.5175658 -1.6411319 -0.17895025 0.119298145 -0.1734138 0.48665673 -0.0071940473
-0.9274295 -1.8701513 0.14439204 0.5320861 0.19734867 0.88371384 0.071833655 0.064941846
0.5103467 -2.342208 0.52649206 2.359127 1.3851339 -1.3241616 0.2482745 0.85192543
-0.28851947 1.3714408 -0.38691416 -0.47535193 0.1257027 0.7055299 -0.51384884 -0.36938322
0.6491515 0.28845802 -0.3110066 -0.34197646 0.32398123 -0.6455845 0.21233456 0.60813564
0.8297241 -0.29991016 -0.045536596 0.055962004 -0.8624157 -1.2868966 -0.1783519 -0.6229486
0.6342777 0.6430143 -0.59142286 -1.9682724 0.8991398 0.90563285 0.05265382 0.022827376
-0.06821056 -0.07918546 -0.51897025 -0.44748807 0.533561 -1.033169 0.63526934 -0.20548749
-2.0004423 -0.1298571 -0.70457745 0.75054336 -0.31106973 -1.2163239 -0.47383213 2.3748572
0.1786981 0.30903557 -0.74294215 -1.3518789 0.3599705 0.574287 7.555458e-39 1.545627e-39
2.97783e-40 4.29562e-39 6.396576e-39 -2.082397e-39 3.682751e-39 -1.072624e-39 -3.346735e-39 -5.473071e-39
-5.516703e-39 -5.89481e-39 -7.18913e-39 -7.191364e-39 5.711883e-39 -2.420467e-39 -1.496234e-39 7.493692e-39
5.789275e-39 4.682178e-39 -3.580028e-39 -7.126613e-39 -4.421174e-39 -6.025666e-39 -2.660783e-39 -5.675755e-39
1.350371e-39 -5.408882e-39 -5.53813e-40 -5.186147e-39 -1.830963e-39 -6.791254e-39 3.44359e-40 -3.398376e-39
3.743465e-39 -2.075734e-39 -3.862584e-39 -6.953645e-39 3.981934e-39 4.956426e-39 -1.754358e-39 -5.683346e-39
-1.954816e-39 3.046374e-39 5.350617e-39 6.817915e-39 -1.59989e-40 5.660383e-39 -1.286106e-39 -3.66137e-40
-3.475912e-39 -6.914896e-39 -4.939503e-39 -6.960775e-39 -6.342353e-39 4.358145e-39 4.445199e-39 7.509878e-39
3.45335e-40 -4.695405e-39 -7.498623e-39 -2.354556e-39 -4.681521e-39 6.318778e-39 5.734246e-39 7.057584e-39
1.712807e-39 5.548618e-39 -2.268537e-39 5.739562e-39 -6.739644e-39 5.931108e-39 -3.01877e-39 -2.51792e-40
3.987378e-39 -3.4016e-40 2.337687e-39 6.525868e-39 1.783019e-39 -5.07187e-40 7.376284e-39 -2.078105e-39
-2.834422e-39 7.517672e-39 -7.037171e-39 -5.268982e-39 -7.4731e-41 4.524228e-39 -4.93557e-39 2.729141e-39
-6.83654e-39 -3.849902e-39 5.769542e-39 3.964447e-39 -6.92846e-39 -2.838104e-39 2.977997e-39 -5.580188e-39
-3.505481e-39 1.525134e-39 -2.25514e-39 -1.417013e-39 6.661846e-39 1.608657e-39 -5.238617e-39 -1.244001e-39
00000000: 1671 2900 0812 4d00 3cab 3c80 e113 2800
00000010: db57 3900 5ad5 1c80 53ec 4200 23fb 5180
00000020: 6ba1 4300 1872 0b80 33d8 1700 32c1 4900
00000030: 820f 1700 ccb5 3480 d172 3700 3002 5100
00000040: 942b 0f80 20ed 0a00 cefd 2800 b920 2c80
00000050: f35c 2f80 0999 2780 fffa 4400 8965 4900
00000060: 5507 0400 e7f1 2a00 a8f1 3900 79e1 1e00
00000070: d6e1 2880 ada2 3580 509e 3800 5a09 0580
00000080: 56a0 4980 ea4e 3e80 a901 4c00 ab39 0180
00000090: 9c0f 0a00 12f7 1700 7b40 1f00 e668 1980
000000a0: ec64 2000 b2e1 3280 4606 1f00 2e0a 1780
000000b0: 4301 4200 90ec 2080 f74c 2700 d088 1d00
000000c0: d0e9 1b00 3540 3180 e8c0 4580 7d53 4500
000000d0: 0726 4a00 7c03 2480 1053 2d80 84f2 4b80
000000e0: e761 4200 8c5e 2f00 87a7 1200 f504 0080
000000f0: 2ede 3a00 f19b 2b00 0596 2c00 88c3 0e00
00000100: c4cb 2c00 7838 1d80 f0ea 4080 b336 0f00
00000110: 2512 5080 f880 4680 327f 23bf 535d 0cbc
00000120: a7e0 dabf 317f 04bf 9c10 d2bf bc3e 37be
00000130: 9652 f43d 6393 31be 122b f93e 0bbc ebbb
00000140: 056c 6dbf 1e61 efbf 82db 133e cb36 083f
00000150: c515 4a3e 123b 623f 861d 933d 3b00 853d
00000160: 15a6 023f bce6 15c0 2fc8 063f f0fb 1640
00000170: 114c b13f 217e a9bf ac3b 7e3e c917 5a3f
00000180: d3b8 93be 5f8b af3f 9d19 c6be 5461 f3be
00000190: 35b8 003e 9c9d 343f 998b 03bf cc1f bdbe
000001a0: cb2e 263f c5b0 933e 423c 9fbe 8a17 afbe
000001b0: dee0 a53e 0745 25bf 3b6e 593e c7ae 1b3f
000001c0: cc68 543f d38d 99be 9584 3abd 6a38 653d
000001d0: 46c7 5cbf 07b9 a4bf e1a1 36be 8f79 1fbf
000001e0: 0660 223f 969c 243f 7d67 17bf 5af0 fbbf
000001f0: 072e 663f 8ed7 673f 88ab 573d 7a00 bb3c
00000200: fab1 8bbd fd2b a2bd 3cdb 04bf 281d e5be
00000210: 7497 083f e23e 84bf 03a1 223f 506b 52be
00000220: 3f07 00c0 42f9 04be 305f 34bf 9c23 403f
00000230: 8844 9fbe 80b0 9bbf 209a f2be a9fd 1740
00000240: a2fc 363e e939 9e3e 7531 3ebf 5e0a adbf
00000250: 0e4e b83e 7904 133f 8b45 5200 94d4 1000
00000260: 193e 0300 71c6 2e00 0da7 4500 e0ac 1680
00000270: 031a 2800 0aae 0b80 5671 2480 b298 3b80
00000280: 5312 3c80 5530 4080 5f48 4e80 994e 4e80
00000290: 6832 3e00 475b 1a80 e44a 1080 5d99 5100
000002a0: 250a 3f00 02fc 3200 a9fb 2680 199a 4d80
000002b0: 6f24 3080 1b9d 4180 2ef9 1c80 b2cd 3d80
000002c0: 49b4 0e00 c3e5 3a80 ce07 0680 de78 3880
000002d0: fbef 1380 41f3 4980 efbf 0300 4a01 2580
000002e0: 42c3 2800 4d9a 1680 500f 2a80 efb7 4b80
000002f0: 035c 2b00 80f8 3500 701a 1380 dbe2 3d80
00000300: 3b49 1580 0d2c 2100 5843 3a00 933d 4a00
00000310: fcbd 0180 d8a2 3d00 2401 0e80 a4fc 0380
00000320: 6ed9 2580 eb4b 4b80 53c9 3580 cfcb 4b80
00000330: e60f 4580 bc74 2f00 6867 3000 7cc6 5100
00000340: a7c2 0300 e120 3380 1ca7 5180 8ba3 1980
00000350: 2dfa 3280 2fce 4400 bf70 3e00 acd9 4c00
00000360: 9ca6 1200 4a6b 3c00 c2b3 1880 907f 3e00
00000370: 6363 4980 8495 4000 1adf 2080 e5bd 0280
00000380: 306b 2b00 3ab4 0380 8574 1900 770f 4700
00000390: 556a 1300 d585 0580 1452 5000 e9a0 1680
000003a0: 37dd 1e80 36dc 5100 c5a0 4c80 c75f 3980
000003b0: 52d0 0080 b543 3100 5cbe 3580 bcb7 1d00
000003c0: 7e71 4a80 f6eb 2980 23d3 3e00 442b 2b00
000003d0: ba71 4b80 7be7 1e80 726d 2000 4bc3 3c80
000003e0: db2b 2680 749b 1000 6a8e 1880 0e6e 0f80
000003f0: 848a 4800 4884 1100 220b 3980 c58b 0d80

embed_word.weight f4 [8374, 10]
-5.19822e-39 -5.23501e-40 -6.740243e-39 7.209344e-39 -7.048046e-39 -3.37562e-40 4.534724e-39 -6.305191e-39
6.92633e-39 -6.743862e-39 7.504997e-39 -8.42912e-40 -5.70009e-39 -7.269105e-39 -6.915523e-39 3.191738e-39
-7.495571e-39 3.5673e-41 -7.202132e-39 3.591591e-39 7.177617e-39 2.67449e-40 -7.244238e-39 3.658831e-39
2.207149e-39 7.433e-40 3.033953e-39 -6.74484e-40 -4.61443e-40 5.14751e-39 -2.987916e-39 3.815684e-39
2.92155e-40 2.029541e-39 -5.011877e-39 -6.290415e-39 -2.092929e-39 4.698318e-39 -5.200193e-39 1.114056e-39
-1.521618e-39 -3.661883e-39 -1.932543e-39 -4.44867e-40 1.219863e-39 1.247255e-39 7.231171e-39 -4.524051e-39
-3.44336e-39 1.418732e-39 -7.04848e-40 1.198665e-39 7.189213e-39 -2.190068e-39 -5.025181e-39 3.327256e-39
3.275717e-39 2.213804e-39 -6.779867e-39 -5.666052e-39 -7.220344e-39 -6.146012e-39 3.297003e-39 2.22539e-40
-2.952763e-39 -6.787563e-39 1.914894e-39 9.90115e-40 7.360407e-39 -5.322736e-39 5.22801e-39 -7.644617e-39
-6.291506e-39 -2.943394e-39 -3.866687e-39 5.99604e-39 9.3942e-40 -4.15465e-39 6.94842e-40 -2.11031e-39
-5.981175e-39 6.853625e-39 1.609594e-39 7.484124e-39 7.306244e-39 4.582537e-39 7.201046e-39 -7.149618e-39
-4.051067e-39 7.393611e-39 -1.229373e-39 6.57279e-40 3.292026e-39 3.508657e-39 4.13252e-39 7.189447e-39
-4.1977e-40 -1.761085e-39 4.544956e-39 -4.047969e-39 -2.957445e-39 2.90695e-40 5.34199e-39 3.632733e-39
-6.706563e-39 -7.174917e-39 -6.388651e-39 2.793015e-39 -7.570778e-39 4.536159e-39 6.52889e-39 -7.46637e-39
-4.700967e-39 -2.273504e-39 7.72445e-40 8.51059e-40 1.086505e-39 2.512968e-39 6.80504e-39 -6.226541e-39
6.347142e-39 5.661267e-39 -6.850711e-39 -4.5599e-39 7.386815e-39 4.279375e-39 4.169373e-39 -7.453228e-39
-1.598376e-39 3.28763e-40 6.13931e-40 -6.708579e-39 2.244477e-39 3.661676e-39 -2.749264e-39 -5.98234e-40
6.222558e-39 -3.02623e-39 -5.836321e-39 -7.06487e-39 7.01879e-39 -1.89775e-39 -6.82787e-39 -5.663506e-39
7.146776e-39 2.810598e-39 5.995973e-39 -2.744971e-39 5.506229e-39 -3.38334e-40 -1.0659e-40 -1.300647e-39
1.52876e-40 7.09592e-39 6.316667e-39 -6.843255e-39 6.221732e-39 -6.235491e-39 -4.2774e-40 -6.120506e-39
-5.636596e-39 -6.788227e-39 6.25443e-39 4.680306e-39 4.938797e-39 -3.606928e-39 5.98333e-40 -5.797878e-39
-2.33382e-40 5.884334e-39 6.751582e-39 -6.60436e-39 7.035237e-39 6.09175e-39 -7.234506e-39 -8.04577e-40
4.895065e-39 3.979325e-39 -1.320701e-39 4.047763e-39 -2.340691e-39 -4.866068e-39 -3.62713e-40 -4.875137e-39
-4.594498e-39 9.32954e-40 -2.230297e-39 -3.58427e-40 -7.060938e-39 5.978012e-39 -1.746922e-39 5.861631e-39
-2.703336e-39 1.895266e-39 4.429052e-39 -2.064986e-39 1.650696e-39 7.98293e-40 -5.68474e-39 4.201767e-39
3.953378e-39 7.040772e-39 -9.56169e-40 2.540558e-39 -5.601197e-39 5.817257e-39 -4.95827e-39 -2.498727e-39
7.156312e-39 -4.680162e-39 -1.317683e-39 5.46861e-40 -7.024195e-39 -3.74339e-39 5.886311e-39 -2.540145e-39
-4.825472e-39 -7.045518e-39 3.91579e-40 -4.118136e-39 -3.234557e-39 7.571939e-39 -2.723927e-39 5.979984e-39
-4.43498e-39 5.499163e-39 4.085765e-39 -4.07346e-40 -2.154913e-39 -4.102237e-39 -3.94882e-39 -4.274936e-39
-6.546174e-39 -1.276792e-39 4.844254e-39 -7.024038e-39 -1.526102e-39 -1.705981e-39 -2.575147e-39 2.096623e-39
6.461181e-39 -6.363141e-39 -7.49496e-39 -7.35266e-39 -4.401788e-39 6.986129e-39 6.246216e-39 4.199141e-39
-2.671927e-39 5.389289e-39 -6.079552e-39 -6.64374e-39 5.208694e-39 7.268354e-39 -7.228838e-39 -5.796978e-39
00000000: 869a 3880 4fb3 0580 0e65 4980 b880 4e00
00000010: 16bf 4c80 fcac 0380 f760 3100 4fa8 4480
00000020: ca6b 4b00 256f 4980 e1b8 5100 b22d 0980
00000030: 8811 3e80 4f27 4f80 aa4d 4b80 44c1 2200
00000040: 9a9e 5180 7163 0000 9d6c 4e80 e51b 2700
00000050: 4728 4e00 8ae9 0200 fde1 4e80 55d7 2700
00000060: a208 1800 0518 0800 6d09 2100 3058 0780
00000070: 5106 0580 2a0d 3800 1889 2080 938c 2900
00000080: 692e 0300 8919 1600 1393 3680 1e7f 4480
00000090: 3cca 1680 0029 3300 06a0 3880 8921 0c00
000000a0: a791 1080 d7df 2780 250b 1580 1cd8 0480
000000b0: 7b48 0d00 d794 0d00 90bd 4e00 3743 3180
000000c0: b07e 2580 d972 0f00 d4ac 0780 640d 0d00
000000d0: 9a48 4e00 05d9 1780 29b8 3680 093b 2400
000000e0: 5eab 2300 2f1b 1800 83d3 4980 a6b2 3d80
000000f0: 629f 4e80 95ec 4280 b4e6 2300 596c 0200
00000100: 1a27 2080 f7e8 4980 f2d9 1400 0ac8 0a00
00000110: d225 5000 9ff5 3980 91ed 3800 153e 5380
00000120: 2982 4480 fc0c 2080 c01a 2a80 854a 4100
00000130: b93a 0a00 793d 2d80 f090 0700 b0fa 1680
00000140: 1521 4180 1ea1 4a00 e586 1100 b17e 5100
00000150: d68e 4f00 40e6 3100 9669 4e00 3ada 4d80
00000160: ba1c 2c80 6182 5000 fe62 0d80 3a28 0700
00000170: d4d8 2300 b534 2600 c9ff 2c00 4149 4e00
00000180: 2692 0480 302d 1380 7d7d 3100 1714 2c80
00000190: 2734 2080 572a 0300 4b2b 3a00 958e 2700
000001a0: 2b07 4980 c020 4e80 f690 4580 ca69 1e00
000001b0: 4070 5280 f764 3100 e417 4700 344d 5180
000001c0: 6230 3380 9bc1 1880 4369 0800 6844 0900
000001d0: bcd4 0b00 225d 1b00 af19 4a00 10cd 4380
000001e0: 401d 4500 4fa5 3d00 ff98 4a80 25a7 3180
000001f0: 6f6f 5000 2899 2e00 8466 2d00 9128 5180
00000200: 9f67 1180 7594 0300 64af 0600 ca0c 4980
00000210: b070 1800 43df 2700 d4ef 1d80 a283 0680
00000220: f6c1 4300 e6f3 2080 4a8d 3f80 fced 4c80
00000230: 886d 4c00 28aa 1480 5359 4a80 8dab 3d80
00000240: 4ed2 4d00 ce9a 1e00 554a 4100 dde3 1d80
00000250: 20f5 3b00 23af 0380 2129 0180 ad29 0e80
00000260: 28aa 0100 8a44 4d00 4cc8 4400 3684 4a80
00000270: a8bf 4300 03e6 4380 5da8 0480 7ba5 4280
00000280: 8960 3d80 d1ea 4980 ce1a 4400 caf6 3200
00000290: 5bc7 3500 a646 2780 e983 0600 2022 3f80
000002a0: 938a 0280 2113 4000 aa84 4900 45ea 4780
000002b0: 619b 4c00 5255 4200 dcc6 4e80 d5c2 0880
000002c0: 734d 3500 bd54 2b00 9461 0e80 8413 2c00
000002d0: e57c 1980 9efc 3480 19f3 0380 e615 3580
000002e0: 9707 3280 b228 0a00 2949 1880 26e7 0380
000002f0: 06e3 4c80 4418 4100 b505 1380 d8d3 3f00
00000300: cd6f 1d80 3ba3 1400 653a 3000 577c 1680
00000310: 78f9 1100 51b1 0800 bee6 3d80 d1c0 2d00
00000320: 690c 2b00 cfaa 4c00 6969 0a80 0baa 1b00
00000330: dcfd 3c80 2558 3f00 a4fd 3580 6f35 1b80
00000340: e3ec 4d00 63f6 3280 2a59 0e80 6df4 0500
00000350: 997c 4c80 0cc3 2880 a418 4000 e4a8 1b80
00000360: 748b 3480 0ab8 4c80 9043 0400 b0d7 2c80
00000370: a138 2380 7c73 5200 33a9 1d80 c31d 4100
00000380: eb4a 3080 6ee1 3b00 737d 2c00 846f 0480
00000390: 0577 1780 5eab 2c80 b4ff 2a80 c88c 2e80
000003a0: 1248 4780 2de7 0d80 cfbf 3400 297c 4c80
000003b0: 279e 1080 9593 1280 760a 1c80 88d4 1600
000003c0: 255b 4600 d949 4580 e69c 5180 3a10 5080
000003d0: 65ee 2f80 7c12 4c00 e903 4400 7fb9 2d00
000003e0: 3f18 1d80 25af 3a00 5133 4280 0b58 4880
000003f0: b8b7 3800 3725 4f00 0fb7 4e80 9e1f 3f80

W_gnn.0.weight f4 [10, 10]
-0.3232611 0.031894315 0.2333997 -0.066425174 -0.07466174 0.054532018 0.3237568 0.22175261
0.15881021 -0.31907615 0.1589866 0.4845243 0.4156463 -0.45444328 0.019532248 0.16692181
-0.25368917 -0.05231658 -0.17925617 -0.40855804 0.34890217 0.21243617 0.308018 0.14577788
0.19025117 0.4986363 -0.06135139 0.2671665 -0.2358061 -0.32681832 0.13958989 0.08967909
0.11659886 -0.27788627 -0.028178293 0.030842187 0.28051427 -0.014637704 -0.3759416 0.11377143
-0.12549615 -0.18449579 0.37171102 0.2615969 0.28105786 -0.6275577 -0.16259849 -0.13390167
0.17560193 -0.24097458 -0.09582135 0.3584259 0.24129486 0.04610184 -0.030197525 -0.3471114
-0.063745454 -0.018898318 0.16284797 -0.16755211 0.17054524 0.09168273 -0.3606922 -0.17719626
-0.10479938 0.35254344 -0.17196755 0.119528785 0.6049886 -0.106750265 -0.59370476 0.12762506
0.39069453 0.101676 -0.40165243 -0.06316241 0.36828613 0.36627954 -0.26813588 0.06300594
0.103136554 0.4056814 0.10995799 -0.45359945 0.5337557 0.25388512 0.065442726 -0.044871323
0.1909134 0.12883887 -0.24701364 0.20755157 0.004567645 0.20948057 -0.53509325 0.19266601
0.013160405 0.2757562 0.3446082 0.10681565
00000000: 7b82 a5be 9da3 023d 5500 6f3e ec09 88bd
00000010: 41e8 98bd f75c 5f3d 74c3 a53e 1e13 633e
00000020: 259f 223e f35d a3be 62cd 223e 9213 f83e
00000030: 98cf d43e caac e8be 1802 a03c 8ded 2a3e
00000040: 8ce3 81be e949 56bd ee8e 37be 852e d1be
00000050: 4ea3 b23e de88 593e 89b4 9d3e cc46 153e
00000060: 34d1 423e 424d ff3e 984b 7bbd 0cca 883e
00000070: 2777 71be bb54 a7be a7f0 0e3e aca9 b73d
00000080: 62cb ee3d 1c47 8ebe 2ad6 e6bc c1a8 fc3c
00000090: 919f 8f3e fbd2 6fbc 6b7b c0be ff00 e93d
000000a0: 1082 00be 77ec 3cbe e850 be3e 07f0 853e
000000b0: d1e6 8f3e 9fa7 20bf 3880 26be 851d 09be
000000c0: fed0 333e 0ac2 76be fc3d c4bd 9983 b73e
000000d0: 0016 773e 48d5 3c3d cd60 f7bc 96b8 b1be
000000e0: fa8c 82bd a5d0 9abc 9ec1 263e c892 2bbe
000000f0: 69a3 2e3e 28c4 bb3d a6ac b8be f072 35be
00000100: 0fa1 d6bd 9380 b43e 4318 30be 82cb f43d
00000110: 88e0 1a3f e29f dabd 09fd 17bf 25b0 023e
00000120: 1d09 c83e 823b d03d 63a5 cdbe 4b5b 81bd
00000130: 0090 bc3e fe88 bb3e 1b49 89be 4209 813d
00000140: 4239 d33d 79b5 cf3e a831 e13d 303e e8be
00000150: 37a4 083f 3bfd 813e d606 863d feca 37bd
00000160: cd7e 433e 56ee 033e 25f1 7cbe 6688 543e
00000170: 2fac 953b 1382 563e dffb 08bf 3d4a 453e
00000180: bd9e 573c eb2f 8d3e 7c70 b03e 2ac2 da3d

W_gnn.0.bias f4 [10]
-0.34339857 0.24826148 0.18445383 -0.20095542 -0.1914504 -0.41393825 -0.26670375 0.20869626
0.20179161 -0.3206435
00000000: f0d1 afbe 4238 7e3e 77e1 3c3e 42c7 4dbe
00000010: 930b 44be b7ef d3be 658d 88be 79b4 553e
00000020: 76a2 4e3e 632b a4be

W_gnn.1.weight f4 [10, 10]
0.052693706 -0.09217702 -0.040730815 -0.4542568 -0.5189157 -0.75857186 0.34498763 0.28342193
-0.0658776 -0.11907507 0.33953357 -0.3769179 -0.049651038 -0.1751584 -0.08469276 0.2814192
0.06098144 -0.5606913 0.1379574 0.17070675 -0.10024833 0.24995565 0.34615585 0.0029698003
-0.2615724 0.033764124 -0.09292356 0.040046714 -0.23424077 -0.1446218 0.47207016 -0.27063078
0.027512977 0.21519287 0.08327696 -0.11540115 -0.41447935 0.27992743 -0.3686596 0.05135978
0.37914228 0.2475304 0.31957987 -0.6509087 -0.14633188 0.058948122 0.17556028 -0.47982585
0.29299182 -0.36539316 0.18002108 0.569199 0.52842647 -0.38226238 -0.2772546 -0.06679313
-0.6748903 -0.42457524 -0.06399688 -0.42349398 0.26616466 -0.16999055 0.030113276 -0.23374435
-0.19990177 -0.5502475 0.3016942 0.11575301 -0.78325 -0.045122046 0.12512957 -0.015763521
-0.02973123 -0.10061227 0.1020133 0.1275303 -0.1075621 -0.22543623 -0.3245542 -0.19438334
0.038031306 -0.2034454 -0.3117274 0.11075718 -0.0025803554 -0.06419468 0.16749257 0.06629565
0.026094073 -0.08283275 0.12349185 -0.14814952 0.17482144 -0.35670382 -0.106387466 -0.38063437
0.2128678 0.3058027 -0.60436964 -0.42248365
00000000: 5bd5 573d 4ec7 bcbd 5bd5 26bd 5994 e8be
00000010: a9d7 04bf c431 42bf 38a2 b03e ae1c 913e
00000020: d6ea 86bd a1dd f3bd 58d7 ad3e 62fb c0be
00000030: e35e 4bbd b95c 33be 6673 adbd 2d16 903e
00000040: adc7 793d 7789 0fbf b444 0d3e c0cd 2e3e
00000050: ff4e cdbd 60f4 7f3e 573b b13e fba0 423b
00000060: d1ec 85be 404c 0a3d b54e bebd 0608 243d
00000070: d0dc 6fbe bd17 14be 2eb3 f13e 1e90 8abe
00000080: e562 e13c 855b 5c3e 1c8d aa3d 7057 ecbd
00000090: a336 d4be a652 8f3e f3c0 bcbe a25e 523d
000000a0: f01e c23e 9c78 7d3e f99f a33e f4a1 26bf
000000b0: 06d8 15be 9673 713d 13c6 333e bcab f5be
000000c0: 0603 963e d014 bbbe 7257 383e 07b7 113f
000000d0: f546 073f e5b7 c3be 51f4 8dbe d6ca 88bd
000000e0: 9cc5 2cbf ed61 d9be cc10 83bd 34d4 d8be
000000f0: bc46 883e 0112 2ebe 1eb0 f63c ae5a 6fbe
00000100: 0db3 4cbe 05dd 0cbf aa77 9a3e ea0f ed3d
00000110: 1283 48bf e5d1 38bd f721 003e 8022 81bc
00000120: e98e f3bc ce0d cebd 59ec d03d 4e97 023e
00000130: 8549 dcbd c1d8 66be f82b a6be 6d0c 47be
00000140: b7c6 1b3d fe53 50be bc9a 9fbe a9d4 e23d
00000150: 2e1b 29bb 8078 83bd 2c83 2b3e 04c6 873d
00000160: 3dc3 d53c 38a4 a9bd 4ce9 fc3d 82b4 17be
00000170: 6404 333e e2a1 b6be ace1 d9bd 82e2 c2be
00000180: 04fa 593e 2c92 9c3e f8b7 1abf c74f d8be

W_gnn.1.bias f4 [10]
0.06844734 0.07548672 -0.07778767 -0.29521254 0.18088986 0.13263477 0.36032128 -0.35311836
-0.727619 0.1481356
00000000: 1e2e 8c3d c898 9a3d 244f 9fbd 1926 97be
00000010: 313b 393e 69d1 073e 087c b83e eecb b4be
00000020: 3d45 3abf dcb0 173e

W_gnn.2.weight f4 [10, 10]
0.31412452 -0.08976061 0.08342324 0.23192288 -0.5603944 -0.008069662 0.13514368 0.15030168
-0.19724746 -0.0091585405 -0.30236477 0.2612494 0.1968669 -0.112321645 0.31304052 0.33136514
-0.50089574 -0.06865022 0.22656858 -0.2861429 -0.21486688 0.38237587 0.3930847 -0.045587145
-0.127604 0.41712657 -0.24645332 0.13975184 -0.3492659 -0.35024324 -0.20154755 0.24649373
0.23567615 -0.05158931 -0.39120936 0.22566925 -0.28303415 0.26464152 -0.40712368 0.06739808
-0.35821638 0.27826712 -0.18821993 -0.29877335 0.21828075 0.4810068 0.08766524 -0.07387084
-0.2303027 -0.23397797 0.2593243 -0.09885736 0.038828176 -0.06653864 0.355838 0.4612718
-0.28822717 -0.33543274 0.2711693 -0.3974894 0.27903 0.027279327 0.023940546 0.26160163
-0.53441024 -0.2808052 0.12962015 0.16055752 -0.15866253 -0.038251404 -0.017906545 -0.35359707
-0.05214167 -0.4303612 -0.21970351 -0.75150543 0.27819657 0.06874157 0.24353978 0.22340445
0.16683972 -0.28201297 0.34331098 -0.08896771 -0.47844493 -0.20495404 0.28163204 0.26279768
-0.24690898 -0.04790161 0.26941833 -0.21942094 -0.50400585 -0.36128193 -0.3516265 -0.6308163
-0.2238095 0.12407555 -0.17607054 -0.4077405
00000000: eed4 a03e 69d4 b7bd ced9 aa3d 317d 6d3e
00000010: 0276 0fbf 9e36 04bc 1b63 0a3e afe8 193e
00000020: 3dfb 49be b40d 16bc 8ecf 9abe 7bc2 853e
00000030: 7a97 493e e408 e6bd d946 a03e b1a8 a93e
00000040: b43a 00bf 7d98 8cbd 9801 683e 5281 92be
00000050: 1006 5cbe c5c6 c33e 6642 c93e 96b9 3abd
00000060: 9faa 02be 9d91 d53e 425e 7cbe 1b1b 0f3e
00000070: fbd2 b2be 1553 b3be 7b62 4ebe da68 7c3e
00000080: 1755 713e 504f 53bd 984c c8be d715 673e
00000090: dae9 90be 187f 873e 8472 d0be 0108 8a3d
000000a0: 2368 b7be 0779 8e3e babc 40be d2f8 98be
000000b0: fd84 5f3e 8646 f63e d589 b33d 9849 97bd
000000c0: 79d4 6bbe ec97 6fbe 28c6 843e ba75 cabd
000000d0: 4b0a 1f3d 6945 88bd 6630 b63e d12b ec3e
000000e0: 8392 93be d7bd abbe b4d6 8a3e bb83 cbbe
000000f0: 05dd 8e3e e578 df3c f71e c43c a6f0 853e
00000100: 1ccf 08bf b3c5 8fbe 25bb 043e 3169 243e
00000110: 6e78 22be 81ad 1cbd bfb0 92bc ad0a b5be
00000120: 8192 55bd 4e58 dcbe f5f9 60be a962 40bf
00000130: c86f 8e3e 61c8 8c3d 7e62 793e 23c4 643e
00000140: 08d8 2a3e 0164 90be 75c6 af3e b434 b6bd
00000150: bcf6 f4be 79df 51be 1332 903e 6b8d 863e
00000160: b5d5 7cbe 7b34 44bd 33f1 893e e2af 60be
00000170: 8706 01bf f2f9 b8be 6308 b4be 2d7d 21bf
00000180: 512e 65be 521b fe3d d64b 34be 5dc3 d0be

W_gnn.2.bias f4 [10]
-0.09734396 0.0044257557 -0.05969198 -0.03205488 0.09163277 -0.07811818 0.4510087 0.20913938
0.31340086 -0.08726511
00000000: 455c c7bd ee05 913b 947f 74bd fa4b 03bd
00000010: f6a9 bb3d 6dfc 9fbd 9dea e63e a228 563e
00000020: 1476 a03e 0db8 b2bd

W_cnn.0.weight f4 [1, 1, 23, 23]
-5.457951e-39 -3.155073e-39 -4.278345e-39 7.503359e-39 5.112633e-39 -3.094329e-39 6.100222e-39 7.02678e-39
-1.613961e-39 2.857308e-39 -4.21047e-40 -5.334307e-39 5.31597e-40 -6.93259e-39 4.84652e-39 3.337942e-39
-5.039331e-39 -5.81378e-39 2.485239e-39 5.46316e-39 -4.135087e-39 -2.27371e-39 6.625643e-39 6.640297e-39
-7.464552e-39 -1.887057e-39 -2.15035e-40 6.494696e-39 7.193364e-39 3.467111e-39 -7.462132e-39 5.691037e-39
-1.920342e-39 -7.023452e-39 -5.826396e-39 1.567525e-39 -1.508861e-39 -5.435767e-39 4.156183e-39 -7.521726e-39
-2.81815e-39 -5.0786e-39 -6.430327e-39 -3.074174e-39 -7.311311e-39 7.444845e-39 -6.10883e-39 6.077489e-39
3.885146e-39 -5.176925e-39 1.297445e-39 -7.192271e-39 -7.466691e-39 3.62079e-40 1.906467e-39 -6.170462e-39
-2.604586e-39 -1.955347e-39 6.685777e-39 -1.596889e-39 1.626596e-39 -2.885307e-39 -1.552126e-39 -3.0817e-40
-7.515992e-39 -1.811536e-39 -4.971922e-39 2.19932e-40 -5.113585e-39 -3.872714e-39 -1.285022e-39 -8.0884e-41
7.258859e-39 -5.593082e-39 1.824523e-39 7.401458e-39 -4.408526e-39 7.347566e-39 -5.843971e-39 1.11036e-39
1.918149e-39 -7.361615e-39 -1.981243e-39 -7.503445e-39 -2.898594e-39 2.770831e-39 4.760316e-39 3.35947e-39
-6.362977e-39 -4.966696e-39 9.50415e-40 7.39658e-39 1.889173e-39 1.010992e-39 -5.091164e-39 5.24274e-39
9.3474e-41 -1.03742e-40 -4.52076e-39 -7.300112e-39 -7.408207e-39 -5.684008e-39 3.817989e-39 2.75785e-40
-1.484309e-39 6.721433e-39 -2.167915e-39 1.496555e-39 -2.597887e-39 4.050317e-39 -2.910676e-39 -7.21952e-39
-2.850083e-39 -1.55612e-39 -5.826526e-39 7.1782e-40 -1.588057e-39 1.21053e-39 7.413955e-39 1.590059e-39
5.394387e-39 -4.07554e-40 1.30609e-39 1.072168e-39 7.046955e-39 -7.198958e-39 -2.50188e-39 -6.538967e-39
1.277239e-39 -4.364242e-39 1.472613e-39 -5.00739e-39 -5.749757e-39 4.455364e-39 -1.957995e-39 1.66682e-40
-5.90298e-39 2.513878e-39 7.556792e-39 -4.391859e-39 1.581626e-39 -6.239499e-39 3.305858e-39 2.56843e-39
-7.03977e-39 -3.895041e-39 -4.41167e-40 -3.566969e-39 7.131868e-39 -2.070654e-39 6.227092e-39 -1.347553e-39
-1.739834e-39 -6.931206e-39 1.525552e-39 -7.334393e-39 -7.203408e-39 4.400157e-39 -6.596215e-39 2.02954e-39
-2.878232e-39 6.475637e-39 -5.427142e-39 -2.895011e-39 2.413742e-39 -3.548629e-39 7.210912e-39 -3.4273e-39
-4.64616e-40 -1.706365e-39 -5.48985e-40 -5.954902e-39 -7.226418e-39 2.226393e-39 -4.442878e-39 6.847193e-39
-6.323637e-39 1.72102e-39 -1.478939e-39 -2.649476e-39 -4.43975e-39 2.992086e-39 2.850244e-39 6.9027e-39
4.873453e-39 2.935542e-39 1.841072e-39 1.499698e-39 7.428912e-39 1.118811e-39 6.459212e-39 -5.616595e-39
4.997882e-39 4.021217e-39 -5.204749e-39 -5.88855e-39 7.73314e-40 -6.00886e-39 1.198723e-39 -7.548607e-39
1.772197e-39 7.226837e-39 4.58115e-40 -6.719054e-39 4.974986e-39 -2.064303e-39 -5.079945e-39 -3.786565e-39
2.24412e-40 -6.913173e-39 -1.499651e-39 -2.482428e-39 -2.545778e-39 -9.75527e-40 5.163037e-39 -1.066283e-39
6.998792e-39 4.479555e-39 3.328436e-39 -7.351656e-39 2.527892e-39 -6.82339e-39 -4.040259e-39 2.69395e-40
6.427976e-39 6.067879e-39 -1.140619e-39 -3.532973e-39 -1.708424e-39 -9.59393e-40 8.0332e-40 7.039274e-39
-2.739035e-39 -1.067571e-39 5.367494e-39 -3.541081e-39 -4.53656e-39 -6.133433e-39 1.905999e-39 -6.825177e-39
7.140032e-39 -7.09397e-39 -5.187303e-39 1.841083e-39 -1.460086e-39 -7.556129e-39 -4.134413e-39 -2.604452e-39
-1.039487e-39 2.4751e-39 -3.082375e-39 -5.424426e-39 2.530496e-39 1.636243e-39 5.288299e-39 5.562716e-39
00000000: 8c6e 3b80 0f5b 2280 4996 2e80 50b4 5100
00000010: f1ab 3700 bbb1 2180 f06c 4200 ce83 4c00
00000020: 1193 1180 031d 1f00 b595 0480 e115 3a80
00000030: e0c9 0500 3e7d 4b80 20c6 3400 d358 2400
00000040: 9bdf 3680 744e 3f80 d60f 1b00 117d 3b00
00000050: f106 2d80 2ec2 1880 9925 4800 724e 4800
00000060: 2248 5180 598c 1480 6e57 0280 92b8 4600
00000070: 2c54 4e00 e5c0 2500 6341 5180 4cf8 3d00
00000080: 22e9 1480 877a 4c80 9f71 3f80 9f11 1100
00000090: 176e 1080 b530 3b80 bf41 2d00 83e7 5180
000000a0: dbaf 1e80 124d 3780 2305 4680 8c79 2180
000000b0: f69c 4f80 3311 5100 ef84 4280 912d 4200
000000c0: 354e 2a00 295f 3880 c020 0e00 2051 4e80
000000d0: 194e 5180 54f1 0300 74c2 1400 bd30 4380
000000e0: 875c 1c80 b64a 1580 3acd 4800 7a63 1180
000000f0: 4ab6 1100 106b 1f80 b2e6 1080 0d5b 0380
00000100: 87d7 5180 d3b9 1380 b223 3680 1565 0200
00000110: 98ae 3780 8d2b 2a80 1efe 0d80 79e1 0080
00000120: bf0a 4f00 3de7 3c80 07de 1300 4198 5000
00000130: 2d01 3080 0602 5000 9da2 3f80 3b17 0c00
00000140: 05e3 1400 3029 5080 e692 1580 8db4 5180
00000150: 1a90 1f80 f32b 1e00 d3d5 3300 d694 2400
00000160: 6449 4580 2115 3680 5f59 0a00 a88a 5000
00000170: 3f92 1400 3c02 0b00 1870 3780 a016 3900
00000180: 9104 0100 3121 0180 0a3a 3180 be7d 4f80
00000190: 11ab 5080 b4e4 3d80 0093 2900 c700 0300
000001a0: a629 1080 9f30 4900 449b 1780 c94b 1000
000001b0: da49 1c80 a31a 2c00 c8b1 1f80 169d 4e80
000001c0: df08 1f80 d4f1 1080 fc71 3f80 fdd0 0700
000001d0: db4a 1180 772e 0d00 17bb 5000 7050 1100
000001e0: 5bbd 3a00 1870 0480 d938 0e00 c5ac 0b00
000001f0: 0bbc 4c00 c463 4e80 393e 1b80 fb33 4780
00000200: 6ce8 0d00 bb85 2f80 0c09 1000 9186 3680
00000210: fc9b 3e80 be83 3000 1852 1580 a4d0 0100
00000220: 1b47 4080 ab5f 1b00 4349 5200 b7d2 2f80
00000230: ee38 1100 2ff1 4380 63ff 2300 bdf7 1b00
00000240: 04a8 4c80 ca69 2a80 cbcd 0480 42d7 2680
00000250: bfa8 4d00 248c 1680 99ce 4300 6eac 0e80
00000260: f3f1 1280 6279 4b80 9e9c 1000 4edd 4f80
00000270: 2c70 4e80 d9e9 2f00 90d3 4780 8819 1600
00000280: 5757 1f80 7183 4600 aa18 3b80 1d86 1f80
00000290: 8848 1a00 22a4 2680 1785 4e00 eb51 2580
000002a0: 290f 0580 a794 1280 59fa 0580 d8d7 4080
000002b0: 50b0 4e80 473e 1800 f060 3080 308f 4a00
000002c0: badb 4480 81bd 1200 ae1a 1080 a9d9 1c80
000002d0: 3758 3080 b894 2000 5209 1f00 eb29 4b00
000002e0: 3411 3500 19f7 1f00 290c 1400 8c54 1000
000002f0: c9e4 5000 ca2e 0c00 a855 4600 c828 3d80
00000300: 106c 3600 84c9 2b00 b9ac 3880 e21e 4080
00000310: af6b 0800 426e 4180 8d0d 0d00 7232 5280
00000320: 2a4c 1300 7bb1 4e00 0afd 0400 fd29 4980
00000330: 3d2c 3600 707a 1680 d250 3780 673b 2980
00000340: 9271 0200 1d47 4b80 6b54 1080 0008 1b80
00000350: 98b8 1b80 5f9f 0a80 7238 3800 5d9c 0b80
00000360: c935 4c00 2dc7 3000 533e 2400 6d0d 5080
00000370: bc86 1b00 d64c 4a80 99fe 2b80 f7ee 0200
00000380: 95fe 4500 c712 4200 956b 0c80 7e78 2680
00000390: 649a 1280 6672 0a80 54bf 0800 a2a6 4c00
000003a0: 51d3 1d80 f49f 0b80 6472 3a00 188f 2680
000003b0: 1566 3180 84c9 4280 26c1 1400 d151 4a80
000003c0: 81bf 4d00 1a3f 4d80 177c 3880 310c 1400
000003d0: 20e6 0f80 6a47 5280 1005 2d80 275c 1c80
000003e0: ab51 0b80 92f3 1a00 6890 2180 1811 3b80
000003f0: fe8d 1b00 2ed1 1100 a095 3900 9792 3c00

W_cnn.1.weight f4 [1, 1, 23, 23]
2.225269e-39 -3.841225e-39 -4.148524e-39 -4.800243e-39 6.30287e-39 -6.342298e-39 -3.422358e-39 -1.848156e-39
-2.225001e-39 -6.57276e-40 4.242438e-39 -2.513872e-39 -2.021529e-39 7.547011e-39 3.763982e-39 -4.427855e-39
-6.910952e-39 7.6853e-41 -5.855991e-39 2.34973e-39 5.887357e-39 -1.325522e-39 -1.345502e-39 2.905026e-39
-7.121552e-39 -6.755221e-39 -4.683916e-39 -6.708981e-39 -6.00264e-40 6.136172e-39 -1.958188e-39 6.766534e-39
-3.944807e-39 -7.191182e-39 -1.672211e-39 3.879045e-39 -2.048443e-39 1.289721e-39 2.825828e-39 -6.732232e-39
-1.215168e-39 5.009266e-39 -5.889842e-39 2.197679e-39 -4.580814e-39 1.345153e-39 -6.807556e-39 -6.788356e-39
-6.626323e-39 -1.39341e-40 7.20133e-40 -5.214157e-39 1.764486e-39 4.232817e-39 7.49341e-39 2.569428e-39
-7.388645e-39 -6.790457e-39 -6.12589e-39 3.184263e-39 2.89895e-40 3.82539e-39 -6.766461e-39 -3.038007e-39
-6.551987e-39 6.807392e-39 2.263658e-39 1.464001e-39 6.802425e-39 5.801076e-39 -2.727705e-39 7.038384e-39
-7.068975e-39 5.134834e-39 6.913107e-39 -4.708785e-39 1.590758e-39 2.873435e-39 -9.494e-40 5.897854e-39
2.244617e-39 -7.1048e-39 5.483278e-39 1.879354e-39 1.442331e-39 -6.332818e-39 -2.720477e-39 -1.68768e-39
7.568647e-39 6.824775e-39 1.672048e-39 7.384467e-39 5.145216e-39 7.256902e-39 1.865427e-39 1.245033e-39
-7.562306e-39 -4.55671e-40 7.554487e-39 3.13025e-39 2.665837e-39 -8.14195e-40 5.650383e-39 6.993006e-39
-4.765228e-39 7.01286e-39 7.164291e-39 -2.886605e-39 4.07572e-40 5.857446e-39 5.8526e-39 -2.244395e-39
7.205436e-39 5.517471e-39 5.793318e-39 4.175571e-39 -5.997709e-39 -4.943674e-39 4.174646e-39 5.02287e-39
5.27778e-39 -7.431334e-39 2.32791e-39 -5.91626e-39 -2.734917e-39 3.119317e-39 3.881915e-39 -6.719932e-39
-7.535219e-39 4.157005e-39 -6.830719e-39 -7.365202e-39 -7.408431e-39 -3.189337e-39 3.191822e-39 2.761201e-39
-8.65082e-40 1.453533e-39 3.50764e-39 -7.12357e-39 -7.32835e-39 -1.987925e-39 6.024132e-39 -2.31806e-40
3.827268e-39 1.237255e-39 -2.737155e-39 -7.163764e-39 7.189868e-39 6.057899e-39 -6.76605e-39 -5.908262e-39
7.673812e-39 3.126618e-39 -3.937989e-39 5.563313e-39 -1.09985e-40 7.044891e-39 4.520345e-39 3.601757e-39
-6.835928e-39 5.998023e-39 6.806736e-39 -3.542383e-39 -3.355226e-39 5.79456e-39 -6.34585e-39 7.665984e-39
6.650002e-39 -6.835668e-39 -7.693775e-39 -5.850132e-39 5.656806e-39 -6.609247e-39 -6.171632e-39 7.39391e-39
5.932013e-39 -8.52753e-40 4.589643e-39 -1.932552e-39 4.353576e-39 -7.032484e-39 -4.050243e-39 -1.710697e-39
3.162834e-39 -3.276283e-39 -9.89348e-40 6.647694e-39 3.497101e-39 6.50437e-40 1.498141e-39 1.996249e-39
6.195117e-39 -3.281087e-39 4.827405e-39 5.586473e-39 -7.9423e-40 -6.136273e-39 1.54615e-40 6.635137e-39
-5.785751e-39 -5.804384e-39 1.395898e-39 6.296058e-39 -4.97134e-40 3.862089e-39 6.34072e-39 6.501512e-39
-6.9005e-40 -1.660548e-39 3.492148e-39 7.120079e-39 -6.780359e-39 -7.598349e-39 -1.158976e-39 7.196719e-39
-6.027339e-39 4.166727e-39 5.307959e-39 1.280683e-39 6.856286e-39 3.99361e-39 -4.630818e-39 -1.739369e-39
4.661704e-39 -2.90428e-40 -7.292967e-39 1.642735e-39 -4.233415e-39 -3.118038e-39 6.09251e-39 6.77973e-39
-3.148994e-39 6.060473e-39 -3.062252e-39 -1.004727e-39 -5.546838e-39 2.52025e-40 3.680192e-39 -1.716549e-39
1.726869e-39 -7.235553e-39 2.533304e-39 3.476337e-39 6.025069e-39 1.047129e-39 7.04215e-39 -7.527632e-39
-6.620161e-39 4.3057e-40 -4.853187e-39 2.252348e-39 -1.336865e-39 -4.05021e-39 4.66937e-39 -8.66884e-40
00000000: 253b 1800 c6d3 2980 662c 2d80 2045 3480
00000010: d6a1 4400 bf0f 4580 2444 2580 e81f 1480
00000020: 663a 1880 3828 0780 3132 2e00 a75f 1b80
00000030: 3303 1680 ff2d 5200 73fc 2800 0f37 3080
00000040: ec40 4b80 3cd6 0000 1fc4 3f80 1796 1900
00000050: 8e1b 4000 046f 0e80 b6a6 0e80 08a2 1f00
00000060: fd8b 4d80 cf8e 4980 da00 3380 e90d 4980
00000070: 4b89 0680 27d1 4200 a252 1580 58ae 4900
00000080: 84f4 2a80 174e 4e80 7235 1280 333d 2a00
00000090: 3a4e 1680 380b 0e00 42c5 1e00 b94e 4980
000000a0: 653b 0d80 cc8b 3600 7c22 4080 3cee 1700
000000b0: 72e1 3180 bda5 0e00 b220 4a80 2deb 4980
000000c0: 7e27 4880 6d84 0180 70d7 0700 f3c6 3880
000000d0: ab36 1300 5f17 2e00 9498 5100 85fa 1b00
000000e0: 8974 5080 08f1 4980 7db4 4280 6eac 2200
000000f0: 1c28 0300 a2a7 2900 24ae 4980 ba14 2180
00000100: 4658 4780 3d20 4a00 28a6 1800 0af1 0f00
00000110: 6512 4a00 0a2b 3f00 bbb3 1d80 27a4 4c00
00000120: 6df9 4c80 d4e9 3700 ee46 4b00 2d46 3380
00000130: 6352 1100 f849 1f00 8a56 0a80 d138 4000
00000140: 1471 1800 4b5d 4d80 26b5 3b00 e076 1400
00000150: a2b4 0f00 52f5 4480 959f 1d80 9160 1280
00000160: 4f6a 5200 b250 4a00 fd34 1200 e468 5000
00000170: c506 3800 4a05 4f00 0d50 1400 a58e 0d00
00000180: a258 5280 3af6 0480 d642 5200 dd15 2200
00000190: 4507 1d00 a5dd 0880 f886 3d00 a825 4c00
000001a0: 84e3 3380 005d 4c00 2103 4e00 ae6e 1f80
000001b0: 2570 0400 2dc8 3f00 abba 3f00 7670 1880
000001c0: d375 4e00 7714 3c00 6a15 3f00 cb77 2d00
000001d0: 2c4f 4180 f4d4 3580 3775 2d00 b8b1 3600
000001e0: 4e78 3900 89eb 5080 4459 1900 206c 4080
000001f0: d6c7 1d80 63f7 2100 3345 2a00 702c 4980
00000200: 200d 5280 0a44 2d00 4461 4a80 3033 5080
00000210: b1ab 5080 93ba 2280 80c1 2200 1b11 1e00
00000220: 7f6b 0980 dcd3 0f00 e031 2600 9d91 4d80
00000230: 75cc 4f80 87a5 1580 d498 4100 2e86 0280
00000240: deac 2900 f778 0d00 13ce 1d80 a901 4e80
00000250: 6d4a 4e00 f5f6 4100 ffac 4980 d555 4080
00000260: 778f 5300 bd0b 2200 83e1 2a80 4194 3c00
00000270: 9832 0180 4ab6 4c00 e238 3100 3c38 2700
00000280: c96f 4a80 0c50 4100 691e 4a00 b992 2680
00000290: 0189 2480 e018 3f00 a619 4580 a579 5300
000002a0: 8069 4800 106f 4a80 1dc7 5380 cab3 3f80
000002b0: e098 3d00 e4f7 4780 0034 4380 3683 5000
000002c0: 0a98 4000 2149 0980 0ffa 3100 2b0b 1580
000002d0: 0068 2f00 b493 4c80 6e1a 2c80 baa0 1280
000002e0: b270 2200 f2ac 2380 e6c5 0a80 1163 4800
000002f0: 7f14 2600 2715 0700 3550 1000 bbbc 1500
00000300: 7775 4300 56ba 2380 d790 3400 d0d4 3c00
00000310: fda5 0880 6fd1 4280 01af 0100 1040 4800
00000320: 5200 3f80 4334 3f80 3233 0f00 d98e 4400
00000330: cf69 0580 ef0d 2a00 590b 4500 92cb 4600
00000340: 9483 0780 ef14 1280 b006 2600 e287 4d00
00000350: e2d4 4980 1bbd 5280 c19e 0c80 865d 4e00
00000360: c5a1 4180 245f 2d00 6ecc 3900 06f2 0d00
00000370: 89a8 4a00 8f7c 2b00 d66c 3280 a7f0 1280
00000380: efc2 3200 9829 0380 d369 4f80 47e3 1100
00000390: 0a19 2e80 d2f3 2180 7057 4200 21d3 4900
000003a0: 1d4a 2280 22fe 4100 5058 2180 c5f0 0a80
000003b0: 5466 3c80 8bbe 0200 e112 2800 0ab1 1280
000003c0: cfcd 1200 c7c9 4e80 d295 1b00 9dda 2500
000003d0: 719b 4100 f866 0b00 a6ae 4c00 faf7 5180
000003e0: 5116 4880 41b0 0400 b6d8 3480 a186 1800
000003f0: a38e 0e80 561a 2c80 4ed8 3200 8570 0980

W_cnn.2.weight f4 [1, 1, 23, 23]
-4.184115e-39 -7.242282e-39 -4.720564e-39 -3.072315e-39 -7.155393e-39 -4.253775e-39 -5.196613e-39 -4.051803e-39
-6.755483e-39 -7.185744e-39 -7.237494e-39 -5.282408e-39 -6.559072e-39 -7.302399e-39 -3.904511e-39 -7.438593e-39
-7.385436e-39 -7.246861e-39 -3.077293e-39 -5.164648e-39 -2.985595e-39 3.231923e-39 -3.61654e-39 -6.584724e-39
-5.756655e-39 -7.472117e-39 -4.896313e-39 -7.500646e-39 -5.945394e-39 -2.146023e-39 -6.59703e-40 -7.269764e-39
-7.58473e-39 -6.490412e-39 -7.050301e-39 -7.566293e-39 -6.17376e-39 -5.049977e-39 -6.921991e-39 -7.021168e-39
-7.142252e-39 -4.967925e-39 -1.348067e-39 -2.635723e-39 -5.029947e-39 -7.456364e-39 2.26489e-40 -5.772307e-39
-7.228168e-39 -3.16404e-39 -7.40007e-39 -4.740318e-39 -5.1919e-39 -3.677873e-39 -7.426534e-39 -7.283095e-39
-7.276211e-39 -7.09229e-39 -7.536943e-39 -7.381781e-39 -2.21377e-39 -6.575423e-39 -7.181589e-39 -7.246892e-39
-3.16125e-39 -3.072582e-39 -4.406721e-39 -2.601146e-39 -7.590228e-39 -2.419e-40 -5.636298e-39 -7.556373e-39
-5.074435e-39 -7.30516e-39 -3.224567e-39 -5.315033e-39 -1.083501e-39 -6.690554e-39 -7.641645e-39 -7.660204e-39
-5.362897e-39 -7.656932e-39 -6.961134e-39 -3.073228e-39 -6.901604e-39 -7.39932e-39 -7.12684e-39 -3.194721e-39
-2.472343e-39 -5.00298e-39 1.937561e-39 7.180469e-39 4.010327e-39 -4.3307e-41 -5.915544e-39 -5.049111e-39
-6.660821e-39 -1.80933e-39 -6.59084e-40 -4.41406e-40 -7.238064e-39 -6.837339e-39 -7.705522e-39 -5.764296e-39
-7.466906e-39 -7.315999e-39 -5.066849e-39 -6.571061e-39 -7.133942e-39 -7.281843e-39 -3.080067e-39 -3.414352e-39
-3.817384e-39 -3.632589e-39 4.708391e-39 7.117718e-39 7.398675e-39 -5.907668e-39 -4.155352e-39 -6.780777e-39
-4.589963e-39 -1.665084e-39 -2.505425e-39 -7.264006e-39 -7.15121e-39 -7.059477e-39 -5.8718e-39 -7.613706e-39
-7.047357e-39 -4.050684e-39 -7.429968e-39 -7.335383e-39 -7.024803e-39 -2.959925e-39 -3.391156e-39 -3.932105e-39
3.353324e-39 -6.833869e-39 3.92568e-39 3.17487e-39 -5.44205e-39 -4.63315e-39 -7.320383e-39 -1.641794e-39
-6.54937e-40 -1.613283e-39 -6.711669e-39 -7.243446e-39 -7.485104e-39 -5.205109e-39 -7.682388e-39 -6.817104e-39
-1.649302e-39 -7.45403e-39 -7.01278e-39 -7.042941e-39 -2.465075e-39 -4.982265e-39 -1.909243e-39 -7.556031e-39
-5.090714e-39 7.296568e-39 -6.88738e-39 -5.775673e-39 -5.714966e-39 -7.339686e-39 -5.793157e-39 -6.36585e-40
-1.735147e-39 -7.188154e-39 -7.26396e-39 -7.671844e-39 -6.812485e-39 -7.467662e-39 -5.554702e-39 -1.623788e-39
-7.346069e-39 -7.34672e-39 -7.19447e-39 -5.742068e-39 -5.16081e-39 -3.011979e-39 -3.885941e-39 -2.474228e-39
2.52513e-40 -6.368752e-39 -7.20082e-39 -5.087825e-39 -7.504428e-39 -2.55858e-39 -5.46677e-40 -4.45938e-40
-6.137369e-39 -7.283113e-39 -6.773803e-39 -5.326858e-39 -7.289175e-39 -6.046826e-39 -1.973035e-39 -7.369963e-39
-7.304045e-39 -7.13379e-39 -3.595303e-39 -5.002345e-39 -5.030427e-39 -1.936735e-39 4.934912e-39 2.602891e-39
7.111335e-39 -7.382284e-39 -5.684544e-39 -7.172043e-39 -3.411681e-39 -5.06932e-40 -1.945406e-39 -6.042777e-39
-7.6083e-39 -7.516314e-39 -6.782037e-39 -7.328288e-39 -6.900102e-39 -1.609736e-39 -6.36043e-39 -7.70469e-39
-7.249186e-39 -5.466374e-39 -5.145872e-39 -3.036311e-39 5.363532e-39 4.48953e-39 -6.461264e-39 -7.497659e-39
-7.252478e-39 -5.049826e-39 -7.250877e-39 -3.479891e-39 -1.789472e-39 -2.596504e-39 -6.926208e-39 -7.271973e-39
-7.559415e-39 -7.118501e-39 -6.743121e-39 -6.156805e-39 -1.675265e-39 -7.40164e-39 -7.523187e-39 -7.033088e-39
-5.736341e-39 -2.944659e-39 -4.437797e-39 -2.241516e-39 7.609863e-39 -6.24323e-40 4.619584e-39 -6.789888e-39
00000000: 9c8f 2d80 89dc 4e80 0367 3380 5d74 2180
00000010: 53ea 4d80 cb51 2e80 0b96 3880 c71e 2c80
00000020: 8a8f 4980 ee3e 4e80 30cf 4e80 3485 3980
00000030: 066c 4780 1e84 4f80 3084 2a80 c5ff 5080
00000040: 976b 5080 4de9 4e80 3e82 2180 f03c 3880
00000050: a082 2080 4931 2300 7161 2780 88b3 4780
00000060: 36af 3e80 395d 5180 ee50 3580 c0ac 5180
00000070: 57bd 4080 3d5e 1780 fc2e 0780 2529 4f80
00000080: 2497 5280 a1ac 4680 5fc5 4c80 bf63 5280
00000090: ee39 4380 48fd 3680 b25f 4b80 2974 4c80
000000a0: b1c5 4d80 8e18 3680 ddad 0e80 53b3 1c80
000000b0: 72c5 3680 4f31 5180 5c77 0200 d8da 3e80
000000c0: 31b5 4e80 0e74 2280 6294 5080 149e 3380
000000d0: e888 3880 6a0c 2880 28de 5080 4e4e 4f80
000000e0: 1e3b 4f80 6b3a 4d80 ee11 5280 6761 5080
000000f0: 171b 1880 9b99 4780 5933 4e80 63e9 4e80
00000100: 476c 2280 1c75 2180 25fc 2f80 f052 1c80
00000110: 78a6 5280 52a2 0280 b55f 3d80 1848 5280
00000120: 7641 3780 d08b 4f80 c81c 2380 26e0 3980
00000130: 5ccc 0b80 8bda 4880 cc35 5380 8869 5380
00000140: 9365 3a80 6960 5380 cfcc 4b80 e976 2180
00000150: dd26 4b80 4b92 5080 bb9a 4d80 95c9 2280
00000160: e3eb 1a80 467a 3680 2219 1500 3a30 4e00
00000170: 29ab 2b00 b978 0080 216a 4080 defa 3680
00000180: a987 4880 adb3 1380 422d 0780 76ce 0480
00000190: c7d0 4e80 b873 4a80 dce7 5380 83c4 3e80
000001a0: b24e 5180 07aa 4f80 502c 3780 728d 4780
000001b0: 87ae 4d80 d14a 4f80 f989 2180 d32d 2580
000001c0: 5091 2980 2e8e 2780 1445 3300 4d81 4d00
000001d0: 7f90 5000 2d54 4080 6e3f 2d80 0cd6 4980
000001e0: f3fa 3180 9421 1280 1b48 1b80 1819 4f80
000001f0: aade 4d80 f3de 4c80 31f0 3f80 eae7 5280
00000200: 2abd 4c80 a91b 2c80 bae7 5080 10e0 4f80
00000210: 4b7e 4c80 113b 2080 2aed 2480 1cd1 2a80
00000220: b483 2400 0c6a 4a80 33bf 2a00 3f92 2200
00000230: 3942 3b80 5673 3280 40b6 4f80 a7e0 1180
00000240: b321 0780 2d91 1180 6715 4980 c8df 4e80
00000250: 6d81 5180 baad 3880 5fa7 5380 503b 4a80
00000260: 95f5 1180 ce2a 5180 c75c 4c80 dbb0 4c80
00000270: a0d7 1a80 8740 3680 31ca 1480 2447 5280
00000280: d76e 3780 dd73 4f00 37ff 4a80 3ae4 3e80
00000290: 003b 3e80 0fec 4f80 f714 3f80 8aee 0680
000002a0: e2e4 1280 a645 4e80 f718 4f80 fb89 5380
000002b0: 702e 4a80 ce50 5180 407c 3c80 76ae 1180
000002c0: dafd 4f80 abff 4f80 4157 4e80 8d86 3e80
000002d0: 3d32 3880 2ccc 2080 6c50 2a80 24f1 1a80
000002e0: e7bf 0200 7d59 4580 f568 4e80 c966 3780
000002f0: 4bb7 5180 48dc 1b80 eaf3 0580 18db 0480
00000300: 7dd4 4280 5b4e 4f80 9bc2 4980 1d01 3a80
00000310: 415f 4f80 17d8 4180 057c 1580 7540 5080
00000320: b588 4f80 1bae 4d80 3e26 2780 8178 3680
00000330: c9c6 3680 d416 1580 87bc 3500 cd57 1c00
00000340: 826f 4d00 ce62 5080 32e6 3d80 bd18 4e80
00000350: 6126 2580 1f85 0580 002f 1580 cecc 4180
00000360: d8d8 5280 6dd8 5180 8fd9 4980 49cc 4f80
00000370: ad22 4b80 4a87 1180 4b42 4580 8be5 5380
00000380: c8ef 4e80 0786 3b80 9908 3880 0010 2180
00000390: 5867 3a00 fce2 3000 605b 4680 6ca4 5180
000003a0: f5f8 4e80 dcfc 3680 7ff4 4e80 85e4 2580
000003b0: 527c 1380 ff45 1c80 736b 4b80 4d2f 4f80
000003c0: 9350 5280 7c83 4d80 146d 4980 ab0a 4380
000003d0: f53d 1280 c398 5080 96eb 5180 6395 4c80
000003e0: 9676 3e80 8310 2080 c652 3080 6f68 1880
000003f0: 34dd 5200 5ccc 0680 854d 3200 72ef 4980

W_attention.weight f4 [10, 10]
1.1992349e-14 -5.621984e-14 -3.0879856e-13 3.2995667e-10 -1.7981475e-16 -6.444297e-15 3.1102893e-15 2.0884113e-20
3.743485e-15 -7.7517644e-19 6.5684e-40 -5.7146e-41 6.503376e-39 6.567223e-39 -5.71593e-39 -3.46158e-39
9.21766e-40 6.22517e-39 -6.745159e-39 -4.26286e-40 -5.73561e-40 -3.282815e-39 2.089783e-39 -1.48966e-40
-8.05154e-40 3.932013e-39 7.366695e-39 5.904182e-39 5.50607e-39 -7.019505e-39 5.503354e-39 -1.29314e-39
-7.13321e-40 1.98605e-40 -3.858515e-39 5.50775e-40 5.724528e-39 -2.179648e-39 2.629354e-39 -4.139227e-39
0.015215307 -0.015991976 0.0014818365 0.0214177 -0.015203622 -0.02197989 0.034194443 0.002266945
0.004943612 -0.00020867561 -2.276851e-39 -7.161514e-39 -1.79033e-39 -3.317526e-39 -5.80522e-40 5.00533e-39
-3.268474e-39 2.166503e-39 -2.734321e-39 2.059493e-39 8.900326e-14 1.6145687e-13 1.472602e-13 -1.4775408e-13
-1.1715164e-13 8.519382e-14 6.2393904e-14 3.4092514e-14 2.7080157e-14 5.3290556e-14 -0.013324126 0.009590242
0.007299382 -0.002199893 0.0057726353 0.0026986506 -0.0037497042 -0.0040246937 0.0018343596 -0.013878177
-1.0797329e-23 -2.446216e-39 5.6733467e-28 -1.0165029e-09 -9.59497e-34 -6.562901e-27 -5.059339e-10 -1.5431028e-19
-6.504152e-30 -7.692942e-14 0.002202648 0.002900288 0.006921293 0.005319191 0.0006682558 0.0006578402
0.0040684296 0.0006462207 0.0012781596 0.0013870865
00000000: f308 5828 1031 7da9 90d6 adaa 4665 b52f
00000010: f24f 4fa5 262e e8a7 b61e 6027 b03e c51e
00000020: 8edf 8627 adca 64a1 0127 0700 4d9f 0080
00000030: c4d0 4600 bf82 4700 b03d 3e80 7ab1 2580
00000040: 8209 0a00 3ec9 4300 c272 4980 50a4 0480
00000050: db3e 0680 27bf 2380 77c1 1600 429f 0180
00000060: 71c4 0880 dad0 2a00 5937 5000 754a 4000
00000070: aff4 3b00 866f 4c80 1ded 3b00 c014 0e80
00000080: 73c4 0780 a129 0200 f803 2a80 56ff 0500
00000090: a855 3e00 f9bb 1780 92a1 1c00 7b12 2d80
000000a0: 9f49 793c 9b01 83bc 2f3a c23a 2c74 af3c
000000b0: 9d18 79bc 2c0f b4bc 790f 0c3d 0791 143b
000000c0: 06fe a13b efcf 5ab9 efca 1880 63fb 4d80
000000d0: b67e 1380 ea1f 2480 4252 0680 d380 3600
000000e0: 2d97 2380 5497 1700 2dc6 1d80 076d 1600
000000f0: e36a c829 c6c8 352a ddcc 252a 375b 26aa
00000100: a9e6 03aa e5d6 bf29 a37f 8c29 fe89 1929
00000110: 97ea f328 d4ff 6f29 6f4d 5abc 6420 1d3c
00000120: a72f ef3b 142c 10bb 6028 bd3b d8db 303b
00000130: 99bd 75bb 94e1 83bb e56e f03a 4b61 63bc
00000140: c9d9 5099 0ea3 1a80 a8cb 3312 04b5 8bb0
00000150: 7d6c 9f88 ddfd 0194 ef11 0bb0 6c2d 36a0
00000160: 7deb 038f cb3a ada9 4d5a 103b c212 3e3b
00000170: 04cc e23b 9c4c ae3b e32d 2f3a e972 2c3a
00000180: 7650 853b 2367 293a eb87 a73a e6ce b53a

W_attention.bias f4 [10]
-0.0013347181 -0.00023434285 -0.0007194895 -8.017488e-12 -0.004400153 -1.9267283e-15 -1.197798e-08 0.0074417996
-0.00046295556 -0.00031627947
00000000: b5f1 aeba eeb9 75b9 1f9c 3cba 8e0b 0dad
00000010: 292f 90bb ddd5 0aa7 b7c7 4db2 57da f33b
00000020: d8b8 f2b9 50d2 a5b9
