baselines/CPI/CPI-GNN/results/model/model_fold1.pt (torch, 605575 bytes, 21 tensors)

embed_fingerprint.weight f4 [6239, 10]
000000 5b 61 47 80 56 04 3b 00 5a 62 25 80 47 3a 37 80
       -6.555245e-39 5.41985e-39 -3.433195e-39 -5.071858e-39
000010 82 5a 00 80 1c 30 36 80 89 64 41 00 5d 98 3f 80
       -3.2468e-41 -4.976375e-39 6.005372e-39 -5.840294e-39
000020 d7 86 3b 80 3e 2d 34 80 c6 54 32 80 c0 e9 48 00
       -5.466666e-39 -4.791676e-39 -4.622186e-39 6.69601e-39
000030 a7 fe 3d 80 44 a4 32 00 c2 9c 34 80 6d 30 23 80
       -5.693317e-39 4.650702e-39 -4.83168e-39 -3.231614e-39
000040 ad b4 15 80 1d 8b 1d 80 a4 b1 16 80 f0 e9 38 80
       -1.99336e-39 -2.713134e-39 -2.084106e-39 -5.226709e-39
000050 91 17 2a 80 b8 2c 26 80 7a 38 44 80 4f 51 36 00
       -3.865545e-39 -3.505791e-39 -6.265074e-39 4.988285e-39
000060 d3 a0 4a 00 f3 76 35 80 43 0b 1e 00 21 f5 16 00
       6.85352e-39 -4.909952e-39 2.759105e-39 2.108317e-39
000070 0a 71 0a 00 b2 95 09 00 72 bd 01 00 c3 c9 1d 80
       9.58906e-40 8.8022e-40 1.59796e-40 -2.735608e-39
000080 4e 59 4a 00 4d ab 2e 80 9c a7 2e 00 e3 9d 28 80
       6.827863e-39 -4.285884e-39 4.28456e-39 -3.730059e-39
000090 e8 30 46 80 47 1c 34 00 0c 10 2e 00 c5 f4 0e 80
       -6.446029e-39 4.78559e-39 4.23019e-39 -1.373504e-39
0000a0 37 2c 10 80 f7 8e 14 80 76 12 07 00 e9 ea 3c 00
       -1.485229e-39 -1.887996e-39 6.49471e-40 5.5944e-39
0000b0 1c c6 45 80 cd 0d 1b 00 8f c8 43 00 ab 43 30 80
       -6.407717e-39 2.484509e-39 6.224925e-39 -4.432379e-39
0000c0 2a 60 0e 80 38 0d 32 00 86 3f 38 80 d3 e0 42 80
       -1.320194e-39 4.596517e-39 -5.165576e-39 -6.141794e-39
0000d0 a3 df 31 80 46 61 2a 80 1b ff 16 00 be 93 08 00
       -4.580165e-39 -3.891986e-39 2.111896e-39 7.87684e-40
0000e0 d6 db 2a 00 29 2d 29 00 b4 72 33 80 65 e7 31 00
       3.935953e-39 3.781456e-39 -4.724758e-39 4.582948e-39
0000f0 60 f5 24 80 cf 9d 0f 80 fe 6a 2d 00 66 5a 29 80
       -3.394102e-39 -1.434143e-39 4.170979e-39 -3.797684e-39
000100 5f 96 40 00 90 69 1c 80 fb a6 2b 00 69 92 02 80
       5.931415e-39 -2.609263e-39 4.008828e-39 -2.36193e-40
000110 2e 27 06 80 71 78 32 00 91 9b 2a 40 30 81 4a bf
       -5.65068e-40 4.634981e-39 2.665745 -0.79103374
000120 2d b1 23 bf 0a b8 61 bf 49 b5 d4 be f2 63 3f be
       -0.63942224 -0.88171446 -0.4154456 -0.1869047
000130 1a 54 9f bc 85 7b 12 40 ba 9c ad 3d 65 c2 ad 3f
       -0.019449282 2.288789 0.08477159 1.357495
000140 e4 e9 9c 3f 8b 50 40 bf 98 23 51 3e 78 70 8a 3f
       1.2258878 -0.751229 0.20423734 1.0815573
000150 3e e4 80 bf 70 4f f1 3e 52 19 b9 bf 0b 68 07 bd
       -1.0069654 0.47130919 -1.4460852 -0.033058207
000160 44 b5 8a bf fc c5 e4 3e 99 21 21 3e 98 97 46 3e
       -1.0836568 0.446823 0.15735473 0.19393766
000170 ed 47 12 be 11 95 c4 bf f5 f2 85 bf 2a 8e 91 3f
       -0.1428525 -1.5357991 -1.046477 1.137151
000180 46 e7 61 3f 79 3d 11 bf 61 b7 81 3f 0a b7 89 bf
       0.8824352 -0.56734425 1.0134088 -1.0758984
000190 f6 61 97 3f f5 53 83 3e f4 39 7e 3f c1 fc 2d be
       1.182677 0.25649992 0.9930718 -0.16990949
0001a0 53 b0 27 bf 8a 86 02 3e 0c b5 cc 3f 24 d2 bb bf
       -0.65503424 0.12746635 1.5992751 -1.4673505
0001b0 3a 5c 8b be 4c 33 9f 3e 0a 3e 6d be c9 81 f3 bd
       -0.272188 0.31093824 -0.23168197 -0.11889989
0001c0 5f 2d 85 3f ee 09 f4 bc b0 f0 30 be a0 a5 ff bd
       1.0404471 -0.029789891 -0.17279315 -0.12482762
0001d0 15 a9 10 3f 98 8c 74 bc 69 ce 01 3f 75 de 86 bc
       0.56508 -0.014926098 0.5070558 -0.016463498
0001e0 4e c1 d2 3e 6e 12 95 be 41 8b b1 bf e4 f0 08 bf
       0.41163105 -0.29115623 -1.3870622 -0.5349257
0001f0 ee a3 4b bf 43 cc ad bf 2c 9d 0e bf 34 f4 e1 be
       -0.7954701 -1.3577961 -0.55708575 -0.44131625
000200 4a ad 49 bf 13 d5 0a be ab c4 92 3e 47 e3 87 bf
       -0.78780043 -0.13557844 0.2866567 -1.0616235
000210 ca ae 51 be 02 bc c8 3e c5 76 49 3f b2 6c 01 be
       -0.20476833 0.3920594 0.7869685 -0.1263912
000220 9d fc a3 be 92 9d 8c bf 6b 8b bd bd 1a 66 0b c0
       -0.32028666 -1.0985587 -0.092551075 -2.1781068
000230 37 4c 3d bd 48 66 32 3c 30 d8 21 3f 78 08 a8 be
       -0.046215262 0.010888644 0.632205 -0.3281896
000240 9f b1 f2 3f 0d ac 80 bf 08 c0 e2 bd 88 99 10 3f
       1.8960456 -1.0052506 -0.11071783 0.5648427
000250 a8 c4 0f be 88 2c 49 bd e9 83 19 80 dc c7 28 80
       -0.14039862 -0.049114734 -2.343208e-39 -3.745116e-39
000260 af 90 41 80 16 17 20 80 8d 88 06 80 f1 76 3f 80
       -6.02121e-39 -2.947018e-39 -5.99998e-40 -5.828304e-39
000270 4b d6 35 00 d7 72 3a 00 39 f3 31 80 c6 ae 36 00
       4.944155e-39 5.367656e-39 -4.587191e-39 5.021814e-39
000280 c4 48 16 80 78 ed 0a 80 e5 5b 3b 00 89 8f 2d 00
       -2.046484e-39 -1.003543e-39 5.45126e-39 4.184088e-39
000290 7e 18 4a 80 af 96 2a 80 b7 4a 18 80 8c 35 04 00
       -6.804613e-39 -3.911146e-39 -2.230855e-39 3.86551e-40
0002a0 09 99 40 00 1d 9f 2b 80 31 7e 2f 80 66 a6 1b 80
       5.93237e-39 -4.006005e-39 -4.361537e-39 -2.539251e-39
0002b0 31 18 23 80 ba d8 01 80 2f 21 10 80 83 36 2f 80
       -3.22292e-39 -1.69582e-40 -1.481272e-39 -4.335823e-39
0002c0 64 ac 44 00 97 7d 4b 80 57 17 0c 80 f6 bd 29 80
       6.306656e-39 -6.932715e-39 -1.110399e-39 -3.8334e-39
0002d0 8d 59 31 80 12 41 31 00 36 58 2c 00 85 c5 43 00
       -4.532064e-39 4.523282e-39 4.072406e-39 6.223835e-39
0002e0 23 9a 3a 80 9c 7c 1e 80 17 8d 40 00 2c c6 10 80
       -5.381753e-39 -2.799766e-39 5.928085e-39 -1.540459e-39
0002f0 7d a2 42 80 1e e4 17 00 eb 40 49 00 10 8c 0b 00
       -6.119433e-39 2.19405e-39 6.72728e-39 1.060435e-39
000300 c4 e2 49 80 ae 94 17 00 f4 7d 2d 00 8a e3 1f 00
       -6.78534e-39 2.165553e-39 4.177781e-39 2.928526e-39
000310 44 de 32 80 7b f9 09 80 f3 99 0f 00 e5 15 35 00
       -4.671509e-39 -9.16016e-40 1.432759e-39 4.875136e-39
000320 db 54 31 80 37 02 33 80 0e ef 01 00 d8 37 32 80
       -4.53038e-39 -4.684405e-39 1.77592e-40 -4.611808e-39
000330 f9 e9 31 00 cb 1e 1b 00 6e d9 14 00 4c b8 2c 80
       4.583873e-39 2.490605e-39 1.914709e-39 -4.106875e-39
000340 8a 5f 30 00 cc 5a 2c 00 80 94 39 80 c4 e2 32 00
       4.442377e-39 4.073334e-39 -5.287895e-39 4.673123e-39
000350 e8 69 41 00 e8 06 2c 80 43 d2 42 00 fd 47 2a 00
       6.007299e-39 -4.04324e-39 6.13657e-39 3.882915e-39
000360 96 b5 23 00 b5 68 24 80 6e 86 3a 00 52 02 21 80
       3.279383e-39 -3.34364e-39 5.374683e-39 -3.031404e-39
000370 dd 96 14 80 52 15 33 80 5b 4d 25 80 f6 43 28 80
       -1.89083e-39 -4.691259e-39 -3.425663e-39 -3.6978e-39
000380 7a 50 48 00 5e a4 49 00 69 9e 27 00 d5 56 0c 00
       6.641025e-39 6.762955e-39 3.638411e-39 1.133175e-39
000390 91 29 24 00 9f b1 46 00 0d 96 28 00 df 37 08 80
       3.320989e-39 6.492203e-39 3.727248e-39 -7.54727e-40
0003a0 2e fb 2e 80 fa fa 13 80 ba 67 4a 80 fd cc 0a 80
       -4.314539e-39 -1.834908e-39 -6.833037e-39 -9.91891e-40
0003b0 fb 91 32 00 7a 41 25 80 a3 b6 0e 80 25 e0 17 80
       4.644143e-39 -3.421402e-39 -1.351215e-39 -2.192624e-39
0003c0 e9 46 31 80 8c 04 47 80 ef 55 28 00 c0 33 25 00
       -4.525377e-39 -6.521951e-39 3.704247e-39 3.416478e-39
0003d0 ee a3 39 00 43 f0 1f 00 16 87 0a 00 3b 75 22 00
       5.29343e-39 2.93309e-39 9.66815e-40 3.164461e-39
0003e0 dd f7 04 80 17 99 22 00 5b 80 4b 00 60 e5 45 00
       -4.56259e-40 3.177325e-39 6.933707e-39 6.418933e-39
0003f0 27 31 1a 80 2a f2 36 00 be 55 0d 00 1f c3 25 00
       -2.405355e-39 5.045989e-39 1.22462e-39 3.46791e-39

embed_word.weight f4 [8374, 10]
000000 1f 91 25 80 f0 1e 44 00 a4 d6 22 80 6b 3d 0b 80
       -3.449973e-39 6.255912e-39 -3.199405e-39 -1.032223e-39
000010 8b 58 45 80 1c 5b 37 00 f6 ed 12 00 c8 62 49 80
       -6.368412e-39 5.083636e-39 1.738403e-39 -6.739427e-39
000020 d0 0d 01 80 50 59 49 80 f1 05 3a 00 ce 0c 31 80
       -9.679e-41 -6.73603e-39 5.32859e-39 -4.504533e-39
000030 70 78 09 80 33 fb 48 80 a0 12 2f 80 60 bc 22 00
       -8.69724e-40 -6.702269e-39 -4.32295e-39 3.189983e-39
000040 09 9c 40 00 d9 01 40 80 c4 54 49 00 ac 99 05 80
       5.933447e-39 -5.878135e-39 6.7344e-39 -5.14305e-40
000050 39 8a 4a 00 9d 42 20 80 26 55 2e 80 40 01 2f 80
       6.845412e-39 -2.962632e-39 -4.254978e-39 -4.316717e-39
000060 17 01 47 00 80 be 0a 00 63 ae 26 80 79 ba 2e 00
       6.520711e-39 9.86693e-40 -3.552307e-39 4.291327e-39
000070 33 13 23 00 4a 87 25 00 6d 3c 41 00 68 3a 32 00
       3.22113e-39 3.446446e-39 5.990984e-39 4.612727e-39
000080 8f 7e 40 00 b4 d9 22 00 73 9a 22 00 65 df 2f 00
       5.922872e-39 3.200504e-39 3.177813e-39 4.396407e-39
000090 12 fa 2e 80 21 be 14 00 b2 e1 04 00 de d8 33 80
       -4.314141e-39 1.904915e-39 4.48306e-40 -4.761408e-39
0000a0 09 e5 1b 00 ad d4 46 00 a4 28 15 80 85 6f 23 80
       2.561721e-39 6.504778e-39 -1.943125e-39 -3.254248e-39
0000b0 fd 08 2d 80 5f d3 43 00 d5 1e 3d 00 16 74 2a 80
       -4.135822e-39 6.228804e-39 5.613026e-39 -3.898735e-39
0000c0 d8 25 37 80 91 3b 3c 00 7a bb 0a 00 ae c4 1d 80
       -5.064528e-39 5.531498e-39 9.85609e-40 -2.733785e-39
0000d0 d5 2a 15 80 d1 7a 1a 80 0d da 44 00 38 bc 02 80
       -1.94391e-39 -2.431781e-39 6.323036e-39 -2.51191e-40
0000e0 74 95 32 80 04 73 2f 80 37 65 46 00 4a be 00 00
       -4.645388e-39 -4.357528e-39 6.464794e-39 6.8263e-41
0000f0 9b 87 47 80 00 aa 25 00 91 40 23 00 db ba 41 00
       -6.568966e-39 3.458898e-39 3.237404e-39 6.036338e-39
000100 b4 a2 3a 80 a6 60 27 00 bc 11 17 00 37 fc 2c 80
       -5.384826e-39 3.616255e-39 2.118578e-39 -4.13124e-39
000110 e8 6a 03 80 7f b4 2a 80 df 83 0d 00 ed 51 0d 80
       -3.13857e-40 -3.92184e-39 1.241168e-39 -1.223251e-39
000120 86 61 32 80 9d d3 2e 80 3e 03 26 80 84 21 4a 00
       -4.62676e-39 -4.300345e-39 -3.490912e-39 6.80785e-39
000130 b3 1a 4a 00 62 e0 0a 00 a8 5a 35 00 ae cd 2a 00
       6.805405e-39 9.98848e-40 4.899803e-39 3.930875e-39
000140 23 23 2f 80 90 d7 21 00 1c fe 0b 00 20 96 17 80
       -4.328873e-39 3.1079e-39 1.101348e-39 -2.166071e-39
000150 a2 7d 2f 00 9b 9e 2c 80 14 7f 2f 80 46 bc 46 80
       4.361337e-39 -4.097659e-39 -4.361855e-39 -6.496025e-39
000160 72 6b 4b 00 b6 ca 24 00 c7 a3 49 80 3b d7 1b 80
       6.926206e-39 3.378797e-39 -6.762743e-39 -2.556769e-39
000170 74 cf 2d 80 2b fc 39 80 5c 94 28 80 83 ad 3c 80
       -4.207017e-39 -5.325084e-39 -3.726641e-39 -5.572374e-39
000180 c6 86 0a 00 d8 d1 21 80 c6 0b 24 00 65 a9 2a 00
       9.66703e-40 -3.105849e-39 3.310301e-39 3.917858e-39
000190 9e a2 2f 80 8a fc 1e 80 e2 62 27 00 60 a0 10 00
       -4.374604e-39 -2.845659e-39 3.617057e-39 1.5269e-39
0001a0 0f dd 46 80 cf 3a 39 80 7a e8 21 00 fc d0 16 00
       -6.507786e-39 -5.25572e-39 3.113968e-39 2.09535e-39
0001b0 ac bd 45 00 f5 d2 1f 80 4a 84 35 80 89 0f 43 00
       6.40469e-39 -2.922578e-39 -4.914738e-39 6.158551e-39
0001c0 d2 78 1b 80 00 36 43 00 eb ea 41 80 44 ba 48 80
       -2.5229e-39 6.17235e-39 -6.05358e-39 -6.678975e-39
0001d0 66 62 31 80 ef 04 47 80 aa bf 16 00 d2 e4 18 00
       -4.535238e-39 -6.52209e-39 2.089137e-39 2.286137e-39
0001e0 9e 33 2c 80 3e 49 22 80 fd 96 39 00 0b 62 2d 80
       -4.059279e-39 -3.148681e-39 5.288788e-39 -4.167769e-39
0001f0 f1 98 19 00 7a 63 1c 00 a3 03 06 80 8a 9c 01 00
       2.350752e-39 2.60708e-39 -5.52318e-40 1.47991e-40
000200 9c 64 1f 80 0d c5 15 00 e7 a4 0b 80 4b fe 24 80
       -2.882992e-39 1.999234e-39 -1.069346e-39 -3.397301e-39
000210 ff 81 2d 80 40 fe 29 80 83 13 05 00 09 c3 1e 80
       -4.179231e-39 -3.856463e-39 4.66177e-40 -2.82503e-39
000220 f8 d5 0b 00 c3 1f 03 80 95 d5 48 80 ff 49 0d 80
       1.086948e-39 -2.869e-40 -6.688775e-39 -1.220406e-39
000230 e7 9e 05 80 78 76 34 00 f0 d5 23 00 9f 32 49 00
       -5.16181e-40 4.817944e-39 3.290989e-39 6.72215e-39
000240 66 19 3e 00 c0 66 47 00 d1 87 19 00 a8 83 2f 00
       5.702912e-39 6.55718e-39 2.344609e-39 4.363498e-39
000250 fe 26 40 80 b2 5d 0b 80 a4 3b 32 00 76 6f 08 00
       -5.89146e-39 -1.043802e-39 4.61317e-39 7.74669e-40
000260 15 37 34 80 de 52 0a 80 90 8c 1d 00 4d ad 2f 80
       -4.795206e-39 -9.48082e-40 2.713654e-39 -4.378437e-39
000270 16 0d 00 00 83 fe 30 00 9b fa 0b 80 a1 5d 13 00
       4.694e-42 4.499405e-39 -1.100091e-39 1.778462e-39
000280 8a ad 0d 80 92 9e 46 00 5f a0 2e 00 10 8e 1f 80
       -1.256116e-39 6.485369e-39 4.281963e-39 -2.897863e-39
000290 d7 e9 13 00 be bc 3a 00 5f 6a 29 00 77 72 05 00
       1.82876e-39 5.394167e-39 3.803414e-39 5.0024e-40
0002a0 fc c2 39 00 7a dc 37 80 ee 54 43 80 16 41 02 80
       5.30457e-39 -5.130044e-39 -6.183445e-39 -2.0702e-40
0002b0 cc 76 40 00 dc 35 33 00 cc f2 00 00 89 ae 14 80
       5.920088e-39 4.702931e-39 8.7099e-41 -1.899321e-39
0002c0 8a 10 2b 80 1c 9e 4b 80 07 ef 4b 80 2b 83 4b 00
       -3.95486e-39 -6.944381e-39 -6.973409e-39 6.934716e-39
0002d0 53 7a 1f 80 6c 53 1b 00 77 a5 2a 00 ae 03 2f 80
       -2.890782e-39 2.509485e-39 3.916448e-39 -4.317588e-39
0002e0 e5 4f 23 80 e2 80 38 00 e0 87 07 00 01 36 36 00
       -3.242903e-39 5.189022e-39 6.91591e-40 4.97849e-39
0002f0 92 00 29 00 da 7a 47 80 3d 03 33 00 e0 4f 28 80
       3.76546e-39 -6.564391e-39 4.684772e-39 -3.702074e-39
000300 e7 3d 4a 00 e9 12 28 00 d9 ce 01 00 a9 9d 32 00
       6.818033e-39 3.680204e-39 1.66038e-40 4.648333e-39
000310 c1 1d 29 80 15 68 0b 80 23 a8 0a 00 e7 9e 43 00
       -3.775929e-39 -1.047528e-39 9.78671e-40 6.209982e-39
000320 f9 0c 38 80 aa 64 1f 80 bb 07 16 00 26 99 26 00
       -5.147441e-39 -2.883012e-39 2.023154e-39 3.544688e-39
000330 dc 08 32 80 09 68 26 80 a3 d9 0d 80 1a a7 3a 80
       -4.594953e-39 -3.52707e-39 -1.271935e-39 -5.386404e-39
000340 bd 0b 28 00 4a ab 1c 80 c1 22 1f 00 a0 96 24 00
       3.677631e-39 -2.632841e-39 2.859368e-39 3.360112e-39
000350 d0 09 49 00 54 42 0a 00 d7 01 2c 80 e7 ce 1e 00
       6.707511e-39 9.42149e-40 -4.041422e-39 2.829287e-39
000360 88 f7 1f 80 3a e5 36 00 4f e7 27 80 df c9 2e 00
       -2.935698e-39 5.041348e-39 -3.664562e-39 4.29685e-39
000370 59 2b 13 00 2d 2d 4b 00 08 08 2e 00 27 7d 2d 80
       1.760425e-39 6.903868e-39 4.227314e-39 -4.177494e-39
000380 ad fb 31 80 7c da 07 80 e5 e2 07 80 d8 07 26 00
       -4.590224e-39 -7.21226e-40 -7.24243e-40 3.492563e-39
000390 2a 0e 07 80 f1 10 41 00 72 ad 34 80 4f 69 22 00
       -6.4793e-40 5.975385e-39 -4.837666e-39 3.160184e-39
0003a0 f8 44 02 00 bf e8 13 00 c8 6d 05 00 63 33 2e 80
       2.08412e-40 1.828368e-39 4.9856e-40 -4.242867e-39
0003b0 1a 12 31 80 f6 a5 09 00 46 24 49 00 07 61 2c 00
       -4.506433e-39 8.86055e-40 6.717004e-39 4.075569e-39
0003c0 46 50 02 80 9e c0 32 00 b9 67 19 80 fa 13 3c 80
       -2.12468e-40 4.660873e-39 -2.333096e-39 -5.517296e-39
0003d0 46 ff 28 80 24 3c 18 00 94 19 19 80 69 f3 13 00
       -3.764995e-39 2.225626e-39 -2.305063e-39 1.832194e-39
0003e0 75 8f 18 00 4a b3 4b 00 84 d1 3b 80 23 58 30 00
       2.255515e-39 6.951979e-39 -5.493454e-39 4.439721e-39
0003f0 d0 65 08 00 b6 45 03 00 16 ad 38 80 ec 1a 2d 00
       7.71207e-40 3.00514e-40 -5.20488e-39 4.142255e-39

W_gnn.0.weight f4 [10, 10]
000000 29 f0 0b 3c 6d 2f 2f 3c de fe 16 3e 7d 42 8e be
       0.008541145 0.0106924595 0.14745662 -0.27785102
000010 1b e1 a7 bd f6 3c ec 3e a7 93 1b 3f 54 5e ca be
       -0.08197232 0.4614026 0.60772175 -0.39525092
000020 98 22 a8 3d ff d0 dd bd f8 9b df 3d 07 35 b4 3e
       0.08209723 -0.108308785 0.109184206 0.35196707
000030 89 f9 7f be 4c c2 cb 3e 40 44 3c 3e 47 65 72 be
       -0.24997534 0.39796674 0.1838541 -0.23671447
000040 56 80 1d be dd f4 f5 3d d0 05 19 3f 89 e3 70 be
       -0.15380988 0.120095946 0.59774494 -0.23524298
000050 34 20 87 be 9e f5 00 3e 31 96 95 3e 33 ca dd 3e
       -0.26391757 0.12593696 0.2921615 0.43318328
000060 47 7a 1e 3e cb 47 de be 0e 94 de be c8 45 c4 3e
       0.15476333 -0.4341415 -0.43472332 0.3833449
000070 44 e0 35 3d 14 97 53 3e 41 ee 05 bf 42 fe 03 bf
       0.04440333 0.206631 -0.5231667 -0.5155984
000080 0e f6 12 be 88 c4 87 3d 2f 7a 2b 3e 5f be d3 be
       -0.14351675 0.06629282 0.16745828 -0.4135618
000090 1d 94 05 3e cb b4 4f 3d 19 25 75 be 6f 8e 51 3e
       0.13044782 0.050709527 -0.23939933 0.2046449
0000a0 29 c5 5e be c9 26 04 3f 4d a1 17 3e 14 7e ac be
       -0.21754898 0.5162168 0.14807625 -0.3368994
0000b0 ab 13 18 3e 64 e5 09 be 47 6e 83 3e be f9 ba 3d
       0.14851253 -0.13466412 0.25670072 0.09129666
0000c0 0a e0 a1 be 30 86 d8 be 6e a9 bd bd 3f ce dc be
       -0.3161624 -0.42289877 -0.09260832 -0.43126103
0000d0 a4 8a 0f be 34 64 13 bc ec ed f1 3d 93 4c 99 3e
       -0.14017731 -0.008996058 0.11812958 0.29941234
0000e0 0c 14 76 3c 15 4b e2 3d e7 93 4b 3e d8 21 09 3f
       0.015019428 0.11049477 0.19880639 0.53567266
0000f0 b6 e8 9a 3e 8c 33 40 3e 8f fe ee 3e 7e 0a a0 3c
       0.3025567 0.18769664 0.46678588 0.019536253
000100 29 35 af be 78 80 15 be 86 ac 0c 3e 88 71 21 be
       -0.34220245 -0.14599788 0.13737687 -0.15765965
000110 95 b7 02 3f ec 05 16 bf 44 ed 77 3e f4 ef 8b 3e
       0.51061374 -0.58602786 0.24211603 0.27331507
000120 5d 53 b9 3e d1 b4 33 be 6f ec 0c 3e fa c1 e0 3e
       0.36196414 -0.17549445 0.13762067 0.43897992
000130 fa b2 93 be 5c 73 3d 3e d1 ab 02 bd cf 46 85 be
       -0.28847486 0.18501037 -0.03190214 -0.26030585
000140 4d 85 41 be 0d 2b ae 3d b6 a0 b8 3d 14 d1 99 3e
       -0.18898506 0.08504305 0.09015028 0.30042326
000150 34 3f 69 bd c6 84 12 be 1e d1 f8 bd f8 a0 11 3e
       -0.05694504 -0.14308462 -0.12149261 0.14221561
000160 98 32 84 bc 3c 75 f9 bc bb 8f 84 be c7 86 ad bd
       -0.016137406 -0.03045141 -0.25890908 -0.08472972
000170 3a d2 46 bd a6 d7 c1 3c 93 2d 54 3e b8 80 ef 3c
       -0.04854033 0.0236624 0.2072051 0.029236183
000180 7f 65 d8 3d 47 a9 97 3e 0d d7 8e be fc fd d7 3d
       0.10566234 0.29621336 -0.27898446 0.105464906

W_gnn.0.bias f4 [10]
000000 5f 3a 51 3e 06 d9 d6 3d de c9 6b be ff ef 87 3e
       0.20432423 0.10490613 -0.23026225 0.2655029
000010 b2 4f 67 be 9b 0f 69 3e a9 b7 3d 3e bf 60 b4 be
       -0.22588995 0.2275986 0.18527092 -0.3523006
000020 26 fd 98 be ae eb 20 3e
       -0.29880637 0.15714905

W_gnn.1.weight f4 [10, 10]
000000 91 d2 3f 3e dd 7a 59 be 7f ca ce bd 90 15 e1 be
       0.18732668 -0.21238275 -0.10097217 -0.43961763
000010 fa a9 d2 bd 20 a3 f5 be fc 91 b3 3e 71 3b d3 bc
       -0.10286327 -0.47976017 0.35072315 -0.02578518
000020 a8 65 94 3e d7 77 e8 be c4 3e ca 3e f9 3a e5 3c
       0.28983808 -0.4540393 0.3950101 0.027982222
000030 51 8c e0 be a6 f6 ec bd ae 2a fe 3d 09 10 e5 3c
       -0.43857053 -0.11570482 0.12410484 0.027961748
000040 a2 57 83 be 43 25 6a 3e c8 73 a7 3e 53 d8 6e bf
       -0.25652796 0.22865777 0.32705522 -0.93298835
000050 6d c7 65 bb 1a 5d 14 bf 4b 17 36 bd 25 8e 82 bd
       -0.0035061494 -0.5795456 -0.044455808 -0.06374768
000060 4e 6e 2d be 62 ec 57 bd fb 1a 89 3a c5 a1 cb 3e
       -0.16936609 -0.052715667 0.0010460311 0.39771858
000070 a9 7a a5 3e 1f 46 5e bf 0e 56 20 bf 87 c9 02 be
       0.32320145 -0.86825746 -0.6263131 -0.12772189
000080 32 ec c3 bd 7f 33 0e be 4a b6 e6 3d d8 f7 57 bd
       -0.09566535 -0.13886832 0.11265238 -0.052726597
000090 b9 89 be 3d f6 62 99 3e f4 f3 86 be 94 35 48 bd
       0.09303612 0.29958314 -0.26357996 -0.04887922
0000a0 b3 3b 15 bf 99 2a f6 be b7 af 0c bf 87 f6 e1 3e
       -0.5829422 -0.48079374 -0.5495562 0.44133398
0000b0 64 8f 44 be 4c 3c bb 3e d1 de 0a be 88 21 65 3e
       -0.19195324 0.3656944 -0.1356156 0.22376072
0000c0 04 94 17 3e 9e ba 94 3e a0 8b c0 be 79 7a e3 be
       0.14802557 0.29048628 -0.37606525 -0.44429377
0000d0 6f b7 46 be e3 a2 50 3d d4 ed 30 be 2e 58 a6 3d
       -0.19405912 0.05093659 -0.17278224 0.08122288
0000e0 0b eb 7a bd 0f 89 00 be ac b5 66 be df 95 92 be
       -0.06125931 -0.12552284 -0.2253024 -0.28629968
0000f0 c7 1b 48 bc e0 2d 9f ba 04 10 5f bc 90 11 c8 bb
       -0.012213654 -0.0012144409 -0.013614658 -0.0061056092
000100 33 67 61 bc 6d 62 3a bc 44 24 5a bb c4 87 1f bc
       -0.013757515 -0.011376006 -0.0033285776 -0.009736959
000110 ae 4a 91 3a 3f 0d c7 bb ad 46 7e 3e ce 63 49 3e
       0.0011084878 -0.006074577 0.24831648 0.19666979
000120 cf a1 0a 3e 58 29 d1 bd 2b 7a fb be e1 c9 3c 3d
       0.13538288 -0.10212964 -0.49116644 0.046090964
000130 fe ac 0c 3f 17 23 24 bf 77 a9 09 3f 2d 3e 6e bd
       0.54951465 -0.6411604 0.5377421 -0.058164764
000140 dc ef 4e 3d 7a 41 57 bd 47 4c c4 be 1f 65 a5 3d
       0.050521716 -0.052552678 -0.38339445 0.08075928
000150 b5 f3 28 be ef 42 e7 be 91 67 02 bf af 0c 51 bc
       -0.16499217 -0.45168254 -0.5093928 -0.012759372
000160 53 55 06 be 3b 4f 05 be 71 28 1f bc 59 c4 8d bc
       -0.13118486 -0.13018505 -0.009714232 -0.01730554
000170 45 ec b8 3e 43 29 c4 be e6 f6 8b 3d 30 1e 61 bf
       0.3611776 -0.3831273 0.068342015 -0.8793669
000180 54 4b bc 3e 5e d1 3d be 99 4d cc 3e e0 0a 80 be
       0.3677622 -0.18536898 0.39902952 -0.25008297

W_gnn.1.bias f4 [10]
000000 ad 4d c6 be fb 08 ad be 66 0d bf be a2 3f 4f be
       -0.38731137 -0.33795914 -0.3731491 -0.20239118
000010 d7 35 e2 3d 78 86 c8 be 64 4d dc bd 44 ae 71 bd
       0.110454254 -0.39165092 -0.107569486 -0.059004083
000020 34 9d 52 be 12 c0 fe bd
       -0.2056778 -0.12438978

W_gnn.2.weight f4 [10, 10]
000000 99 36 0c 3f fa fa d5 bc 34 96 41 be 38 6f 10 be
       0.5477081 -0.026120652 -0.18904954 -0.14104927
000010 03 4b 84 be 94 af 9c 3d bb 91 8c 3d 80 26 b2 3e
       -0.2583848 0.07650676 0.068637334 0.34794998
000020 31 ca 94 be 31 6c 0e 3e 52 79 d5 3d 81 62 01 3c
       -0.2906051 0.13908459 0.10423531 0.00789702
000030 9a ed c4 ba 89 69 6a be 28 6c a1 be 76 0e 8e be
       -0.0015024424 -0.22891821 -0.3152783 -0.27745408
000040 41 2f c0 3d 1a 3d 5b be 2a 27 bb 3e 31 07 6b be
       0.09384013 -0.21410027 0.36553317 -0.22951962
000050 eb 29 96 3e 96 18 3b bd 69 b1 1e 3f e2 57 ed 3d
       0.29328856 -0.045677744 0.61989456 0.11589028
000060 27 a2 f7 be bc 73 48 bd 40 92 8b bc db 54 dc 3e
       -0.483659 -0.048938498 -0.01703751 0.4303349
000070 a2 8d 9a be 5b a7 22 3e 6c 18 63 be 47 b1 85 be
       -0.30186182 0.15884154 -0.22177285 -0.26111814
000080 59 80 e1 be 1e 2b 25 be 17 96 b3 3e cd 6f e3 3d
       -0.44043234 -0.16129729 0.35075447 0.11105309
000090 7c 98 a7 3e b4 3a c1 be fd f9 38 3d 72 08 01 3e
       0.32733524 -0.377401 0.045160282 0.12600878
0000a0 b4 81 d5 be 09 ab 02 bd 44 49 af be 4a c0 0c 3e
       -0.41700518 -0.031901393 -0.34235585 0.13745227
0000b0 c7 e5 a5 3e 37 1c 55 bd 9c b8 27 bc 2c 77 45 be
       0.3240187 -0.05202886 -0.010236885 -0.19283742
0000c0 8b da 99 bd ea 5e 42 3e e4 6d 3e 3d 3b 30 f7 3e
       -0.07512387 0.1898152 0.04649152 0.48278984
0000d0 53 f2 f0 3b 27 4b 57 be b4 e6 0b bf 98 9c 57 be
       0.007353106 -0.21024762 -0.546489 -0.2105583
0000e0 25 dd d0 bd 2c 0d 8e be cf 05 75 be f3 34 6a bb
       -0.1019843 -0.27744424 -0.23927997 -0.0035737127
0000f0 36 cb 59 3d fe a7 9c bc f7 9d 82 3e 89 2b 68 3d
       0.053172313 -0.019123074 0.25511143 0.056682143
000100 95 60 58 bf aa 50 bc be 0a 16 30 3e 1c b4 a5 3e
       -0.8452237 -0.36780292 0.17195907 0.32363975
000110 ed 8a 20 bc 74 e2 a2 3d 1e 59 0a be da a8 23 be
       -0.0097987475 0.07953349 -0.13510558 -0.1598238
000120 3e bc de 3d 56 48 26 3e 6f e3 c3 bd 68 31 54 be
       0.10875748 0.16238531 -0.09564864 -0.20721972
000130 bf 50 f5 bd 96 7f ba be ff 2b 78 bd 72 c0 f1 bc
       -0.11978292 -0.36425465 -0.060588833 -0.02951071
000140 ee f2 3f 3e 7e 69 d8 be 60 52 2b 3d 57 b8 db be
       0.18745014 -0.42267984 0.041826606 -0.42914078
000150 62 e0 f1 3d f9 22 77 be a2 3e f8 bd a4 10 18 be
       0.11810376 -0.24134435 -0.12121321 -0.14850098
000160 60 5b fb bc bd 05 dd 3d cc 2e ee be 61 78 19 bf
       -0.03068322 0.1079211 -0.46520078 -0.5994931
000170 b3 17 f0 3d 29 e8 0a 3e 3a 93 37 3e da 34 dc 3d
       0.1172327 0.13565125 0.17927256 0.10752268
000180 57 b8 ef be fd e2 93 be a5 da 80 3d bf df 83 3d
       -0.46820328 -0.28884116 0.06291703 0.064391606

W_gnn.2.bias f4 [10]
000000 c0 a7 3b be 9e fd 0b bf 59 b5 02 be c2 06 5c 3e
       -0.1832571 -0.54683864 -0.12764491 0.21486953
000010 8f 46 3e be f5 41 2a be da 24 79 be 5a e3 bc be
       -0.18581603 -0.16626723 -0.24330464 -0.36892205
000020 1f 40 8e be 02 0c 25 be
       -0.27783296 -0.16117862

W_cnn.0.weight f4 [1, 1, 23, 23]
000000 eb e4 32 00 af 7f 47 00 89 5c 0b 00 1a 7e 33 00
       4.673895e-39 6.566124e-39 1.043386e-39 4.728847e-39
000010 3b 64 2b 00 11 6b 3e 80 05 38 02 00 41 a7 0a 00
       3.984882e-39 -5.732209e-39 2.03767e-40 9.78354e-40
000020 25 ab 12 80 ac 5c 25 80 41 51 1e 00 10 d5 16 00
       -1.714434e-39 -3.431158e-39 2.784213e-39 2.096813e-39
000030 ee be 06 00 24 43 0b 80 c0 18 47 00 63 fb 31 80
       6.19506e-40 -1.034276e-39 6.529199e-39 -4.59012e-39
000040 41 a0 27 80 07 27 0f 00 9c 30 3f 00 c6 24 2e 80
       -3.639073e-39 1.391533e-39 5.803074e-39 -4.237625e-39
000050 d2 af 1e 80 b2 b2 16 00 e8 da 27 00 4c 02 1a 00
       -2.818137e-39 2.084485e-39 3.660113e-39 2.388547e-39
000060 7e 86 1e 00 3c c1 49 80 64 94 4b 80 ac dc 0b 00
       2.803312e-39 -6.77331e-39 -6.940895e-39 1.089353e-39
000070 c6 08 3c 80 c7 05 17 00 0c 4e 08 80 31 a4 34 80
       -5.513277e-39 2.114289e-39 -7.62682e-40 -4.834347e-39
000080 f1 e8 32 80 c7 b5 36 00 78 e0 3d 80 ff 8d 19 00
       -4.675338e-39 5.024326e-39 -5.68249e-39 2.346826e-39
000090 dd 2f 31 80 e5 9b 43 80 8b 88 08 00 73 8c 09 00
       -4.51711e-39 -6.208903e-39 7.83666e-40 8.76903e-40
0000a0 ee 7e 0f 00 31 52 24 80 78 5d 17 80 cd 20 09 00
       1.423066e-39 -3.335563e-39 -2.145747e-39 8.38286e-40
0000b0 7a 6e 25 00 c0 fe 20 80 19 b5 2f 80 54 5e 22 80
       3.437545e-39 -3.030123e-39 -4.381234e-39 -3.156245e-39
0000c0 ee 15 49 00 ea 34 07 00 e1 44 28 80 de 36 28 80
       6.711858e-39 6.6183e-40 -3.698129e-39 -3.693102e-39
0000d0 3f 1d 01 80 88 20 48 00 8a c2 2c 80 e3 d6 29 80
       -1.02327e-40 6.623826e-39 -4.110549e-39 -3.842342e-39
0000e0 d6 df 12 80 b7 06 02 00 ed aa 16 80 07 d3 31 80
       -1.733336e-39 1.8608e-40 -2.081698e-39 -4.575642e-39
0000f0 71 d3 0c 80 74 2e 28 80 f7 b5 49 80 54 14 40 80
       -1.177877e-39 -3.690084e-39 -6.769268e-39 -5.884764e-39
000100 3b 68 15 80 8c b0 27 00 be 9b 0b 80 c3 08 12 00
       -1.965936e-39 3.644917e-39 -1.06606e-39 1.656182e-39
000110 95 97 2f 00 37 94 3b 80 68 41 1f 80 ba ea 44 00
       4.370646e-39 -5.471464e-39 -2.870364e-39 6.329018e-39
000120 0b f9 2a 00 81 eb 28 00 12 00 49 80 f1 c0 46 80
       3.94643e-39 3.757903e-39 -6.704016e-39 -6.497699e-39
000130 5c bd 40 80 86 2b 4b 00 a9 51 2b 00 04 6e 1b 80
       -5.945401e-39 6.903275e-39 3.97822e-39 -2.519025e-39
000140 00 9a 11 80 20 c1 24 80 68 dd 1c 80 31 28 1b 80
       -1.616448e-39 -3.375358e-39 -2.65082e-39 -2.493976e-39
000150 80 e9 10 80 64 35 2f 00 af 0a 2b 00 54 50 15 80
       -1.553132e-39 4.335421e-39 3.952759e-39 -1.957362e-39
000160 f7 9a 0e 00 58 56 15 00 42 75 36 00 4a 58 0b 00
       1.341288e-39 1.95952e-39 5.001181e-39 1.041863e-39
000170 ed 90 48 80 88 6b 01 80 82 8e 1d 80 44 22 2f 00
       -6.664145e-39 -1.3041e-40 -2.714352e-39 4.32856e-39
000180 30 09 2a 80 19 68 0a 80 76 2b 23 00 5b 4e 10 80
       -3.860387e-39 -9.55698e-40 3.229833e-39 -1.497477e-39
000190 46 1c 13 00 09 6a 07 80 3a 5a 47 00 c1 6b 2f 80
       1.755017e-39 -6.80887e-40 6.552687e-39 -4.354923e-39
0001a0 76 0e 21 00 7f ff 01 00 a7 8d 09 00 87 7f 00 00
       3.035759e-39 1.8349e-40 8.77335e-40 4.5748e-41
0001b0 5c 28 0d 80 c0 c1 49 80 4b e8 1f 00 00 7e 0f 80
       -1.20834e-39 -6.773496e-39 2.930231e-39 -1.422733e-39
0001c0 37 e7 3b 00 65 cc 31 00 73 f0 07 80 33 5c 0d 00
       5.501239e-39 4.573262e-39 -7.29105e-40 1.226936e-39
0001d0 9c cb 48 80 92 08 28 00 c7 6c 44 80 88 58 4a 80
       -6.685197e-39 3.676494e-39 -6.283836e-39 -6.827586e-39
0001e0 d8 54 2f 00 56 db 1b 00 1f 83 38 00 c1 a6 19 00
       4.346705e-39 2.558241e-39 5.189825e-39 2.355707e-39
0001f0 c3 5a 0a 00 6f 5d 1f 00 31 ae 2b 00 c5 b6 29 00
       9.50914e-40 2.880418e-39 4.011414e-39 3.83082e-39
000200 3d 77 18 00 ba 49 0e 80 ad eb 28 80 55 b5 05 80
       2.246827e-39 -1.312145e-39 -3.757964e-39 -5.24227e-40
000210 f4 d4 30 00 b2 aa 2f 00 42 5c 15 80 ef b6 35 00
       4.484497e-39 4.377502e-39 -1.961641e-39 4.932906e-39
000220 26 a4 19 00 e4 c8 38 00 b4 ff 2c 80 2d f7 2c 00
       2.354773e-39 5.214854e-39 -4.132491e-39 4.129432e-39
000230 27 06 26 00 01 c4 24 00 e8 c4 2e 80 5e d1 27 80
       3.491956e-39 3.376391e-39 -4.29507e-39 -3.656691e-39
000240 85 b3 27 80 0e 0d 24 80 99 4d 3c 80 dc f0 44 80
       -3.645984e-39 -3.310761e-39 -5.537967e-39 -6.331218e-39
000250 ec 50 42 80 14 a5 1d 00 5f 98 07 00 20 a8 2e 00
       -6.090172e-39 2.722448e-39 6.97509e-40 4.284745e-39
000260 49 6b 44 80 ce b3 20 80 2f a8 36 00 d1 4a 02 80
       -6.2833e-39 -3.003238e-39 5.01945e-39 -2.1051e-40
000270 80 69 13 00 7c c5 28 80 dd 57 44 00 91 b6 44 80
       1.78272e-39 -3.744264e-39 6.276333e-39 -6.310306e-39
000280 a6 a0 0f 00 ea 24 0c 00 2c d9 0b 80 dc 4c 4b 00
       1.435162e-39 1.115268e-39 -1.088097e-39 6.915234e-39
000290 20 bb 10 80 78 07 46 00 80 7f 30 00 dd 74 14 00
       -1.536496e-39 6.431164e-39 4.453842e-39 1.878633e-39
0002a0 ed 8d 2c 00 14 08 33 00 bb 59 19 80 72 42 40 00
       4.091675e-39 4.686508e-39 -2.328077e-39 5.901308e-39
0002b0 45 52 24 80 2e b3 0a 80 2a d5 33 00 d8 bc 05 80
       -3.33559e-39 -9.82633e-40 4.760079e-39 -5.26922e-40
0002c0 70 fd 48 80 ce 7e 27 00 67 05 31 00 cd 44 22 80
       -6.703072e-39 3.627073e-39 4.501877e-39 -3.147088e-39
0002d0 a3 c8 12 00 f8 0f 33 80 3d f5 02 00 d6 c0 44 00
       1.725014e-39 -4.689339e-39 2.71646e-40 6.31399e-39
0002e0 e7 92 37 00 31 38 1f 80 b1 85 21 80 d2 9d 27 00
       5.103651e-39 -2.867058e-39 -3.078531e-39 3.6382e-39
0002f0 83 47 00 80 9f 6a 4a 80 5f 6b 46 80 22 d1 04 80
       -2.5654e-41 -6.834075e-39 -6.467002e-39 -4.42365e-40
000300 71 8a 38 00 5b c1 2c 00 b9 a4 38 00 8b 76 0f 00
       5.192451e-39 4.110125e-39 5.201879e-39 1.420058e-39
000310 a7 0c 41 80 f7 60 22 80 c9 a7 37 80 c1 e5 28 80
       -5.973846e-39 -3.157191e-39 -5.111142e-39 -3.75584e-39
000320 7a 52 05 00 52 0f 4c 00 ff c1 18 00 2b f1 19 80
       4.88764e-40 6.984994e-39 2.273645e-39 -2.382402e-39
000330 a4 5d 2c 80 d6 94 0d 00 0f c4 3e 00 27 41 2d 80
       -4.074354e-39 1.247254e-39 5.764133e-39 -4.15597e-39
000340 c8 d2 40 00 2e da 30 80 89 0f 26 00 d2 b6 32 80
       5.953086e-39 -4.486372e-39 3.495322e-39 -4.657358e-39
000350 3d b6 23 00 a5 cd 19 80 f6 f1 27 00 c2 e3 35 80
       3.279617e-39 -2.369659e-39 3.668384e-39 -4.948985e-39
000360 69 3c 4b 80 f5 57 36 00 e4 2b 42 00 c1 d8 2f 80
       -6.909333e-39 4.99067e-39 6.076888e-39 -4.394025e-39
000370 6f bf 31 80 1d a0 1e 80 68 a3 3c 80 b8 e4 2b 80
       -4.568613e-39 -2.812503e-39 -5.568749e-39 -4.030975e-39
000380 8a 06 06 80 dc ff 3b 00 61 29 0f 80 c8 b8 14 80
       -5.53359e-40 5.51008e-39 -1.392376e-39 -1.902997e-39
000390 0a 68 18 80 e0 2c 29 00 ed 34 31 80 62 28 15 80
       -2.241374e-39 3.781353e-39 -4.518926e-39 -1.943032e-39
0003a0 00 b3 31 80 e9 6c 2c 00 86 a4 20 80 10 dc 02 80
       -4.564152e-39 4.079831e-39 -2.997756e-39 -2.62615e-40
0003b0 84 99 3e 80 22 53 36 00 d2 db 26 00 94 93 2d 80
       -5.748872e-39 4.988939e-39 3.568606e-39 -4.185538e-39
0003c0 ea 07 21 80 41 c3 0c 00 8c ca 49 80 57 48 0a 80
       -3.03341e-39 1.17207e-39 -6.776651e-39 -9.44306e-40
0003d0 1f a4 49 80 0f 44 26 00 bf fe 33 00 17 7d 1e 80
       -6.762867e-39 3.514164e-39 4.774996e-39 -2.799939e-39
0003e0 46 e6 20 80 c1 ef 2d 00 6d 82 14 80 0e 0b 24 80
       -3.021342e-39 4.218605e-39 -1.883498e-39 -3.310044e-39
0003f0 d6 54 44 00 52 e1 32 00 73 ef 45 00 ee 18 01 00
       6.275247e-39 4.672605e-39 6.422547e-39 1.00779e-40

W_cnn.1.weight f4 [1, 1, 23, 23]
000000 19 7c 2d 80 38 94 1d 80 99 3b 32 00 26 c6 0d 00
       -4.177115e-39 -2.7164e-39 4.613154e-39 1.264944e-39
000010 27 61 10 80 3f c6 20 80 c9 0c 04 80 74 c4 19 00
       -1.50422e-39 -3.009853e-39 -3.71928e-40 2.366362e-39
000020 79 dd 44 80 21 7d 41 80 3c 66 0c 00 14 ea 1d 00
       -6.324263e-39 -6.014195e-39 1.138701e-39 2.747201e-39
000030 7f 21 0f 00 2e 86 25 80 5b cd 4b 80 28 6b 49 00
       1.389549e-39 -3.446048e-39 -6.96133e-39 6.742432e-39
000040 d2 32 2a 00 2a d1 3e 80 c0 3d 3f 00 78 62 10 80
       3.875322e-39 -5.768835e-39 5.807788e-39 -1.504692e-39
000050 d1 20 36 80 bb b1 07 80 ef 7c 28 80 15 e1 02 80
       -4.970889e-39 -7.06606e-40 -3.718238e-39 -2.64415e-40
000060 f0 9e 19 80 19 f6 22 80 81 39 2f 80 24 cf 2d 00
       -2.352903e-39 -3.21069e-39 -4.336897e-39 4.206905e-39
000070 7b a1 48 80 d9 6a 32 80 68 1a 20 80 ba 60 0e 80
       -6.670084e-39 -4.630105e-39 -2.948209e-39 -1.320396e-39
000080 c3 5a 42 80 fb 10 3e 80 1b 2f 13 80 36 71 10 80
       -6.093702e-39 -5.699892e-39 -1.761773e-39 -1.50998e-39
000090 69 42 3b 80 eb a9 47 80 cd b5 1b 00 ab 5c 24 80
       -5.442118e-39 -6.581275e-39 2.544776e-39 -3.339321e-39
0000a0 a7 01 43 00 97 36 1b 80 f9 07 2e 00 ee 34 3b 80
       6.153571e-39 -2.499142e-39 4.227293e-39 -5.437282e-39
0000b0 41 10 4b 00 ae c6 09 00 b3 55 1a 00 27 7a 22 00
       6.893493e-39 8.97792e-40 2.418466e-39 3.166227e-39
0000c0 08 a7 4a 00 4e 8c 0a 00 fa 9b 31 80 77 72 2a 00
       6.855746e-39 9.68687e-40 -4.555893e-39 3.898153e-39
0000d0 9d c7 16 80 e2 66 31 00 46 59 1e 80 69 8d 22 80
       -2.091989e-39 4.536847e-39 -2.78709e-39 -3.173135e-39
0000e0 a4 81 14 80 1d 9a 25 00 dd e4 27 80 83 21 29 80
       -1.883216e-39 3.453199e-39 -3.663685e-39 -3.777277e-39
0000f0 9e 80 09 00 ec ca 2e 00 c2 b2 2f 00 9c b4 47 00
       8.72659e-40 4.297227e-39 4.380395e-39 6.58511e-39
000100 f8 0b 17 80 12 54 36 80 22 de 39 80 84 36 0f 80
       -2.11651e-39 -4.989276e-39 -5.31431e-39 -1.397089e-39
000110 26 f9 19 80 ab 45 38 00 58 72 28 00 12 bf 32 00
       -2.385265e-39 5.16778e-39 3.714439e-39 4.660318e-39
000120 31 61 2a 80 c1 78 38 80 86 ed 27 00 8f 27 17 00
       -3.891957e-39 -5.186106e-39 3.666792e-39 2.126407e-39
000130 50 1a 4a 80 68 17 47 80 25 cd 32 80 96 e5 1f 00
       -6.805266e-39 -6.528717e-39 -4.665367e-39 2.92926e-39
000140 08 39 13 80 28 ce 13 00 a5 b5 2e 80 dc 98 38 00
       -1.765333e-39 1.81883e-39 -4.289595e-39 5.197623e-39
000150 60 32 24 00 45 64 09 00 3b 80 28 00 12 e5 0c 80
       3.324149e-39 8.6249e-40 3.71942e-39 -1.184201e-39
000160 c9 72 19 80 19 85 29 80 71 7d 1b 80 6e 5a 14 00
       -2.337065e-39 -3.813002e-39 -2.524558e-39 1.86915e-39
000170 fa eb 26 80 ea b4 23 80 be 7c 4b 00 72 da 44 80
       -3.574401e-39 -3.279142e-39 6.932411e-39 -6.323177e-39
000180 75 6e 33 80 0d ca 2d 80 df 1a 1d 00 94 b1 22 80
       -4.723235e-39 -4.20508e-39 2.672869e-39 -3.18611e-39
000190 23 c0 1c 80 a4 4a 08 00 81 47 0a 00 e5 e3 49 00
       -2.64032e-39 7.6146e-40 9.44006e-40 6.785744e-39
0001a0 1c 4e 35 00 83 b6 0e 00 14 32 0b 00 f5 0f 33 00
       4.895302e-39 1.35117e-39 1.028155e-39 4.689335e-39
0001b0 43 a0 47 80 77 5e 33 00 0e 0e 46 80 5f a5 09 00
       -6.577811e-39 4.717498e-39 -6.433527e-39 8.85843e-40
0001c0 aa b4 4a 00 fc ee 3b 00 31 e0 07 80 9e dc 32 80
       6.860637e-39 5.504026e-39 -7.23273e-40 -4.670917e-39
0001d0 dc 0b 30 00 7a b4 13 00 a7 2b 23 80 50 b0 20 80
       4.412358e-39 1.809617e-39 -3.229902e-39 -3.001985e-39
0001e0 0f a4 28 00 3f 69 3a 80 2d 40 4c 80 24 68 35 00
       3.732273e-39 -5.364214e-39 -7.00252e-39 4.90464e-39
0001f0 39 65 2e 80 0b d5 2c 80 c3 f2 35 00 1c 68 27 80
       -4.260745e-39 -4.117187e-39 4.954368e-39 -3.618932e-39
000200 d2 d9 41 00 21 48 20 80 44 ff 37 00 79 22 3b 00
       6.047446e-39 -2.964611e-39 5.142524e-39 5.430661e-39
000210 6d 32 10 00 46 21 3d 80 74 51 1f 80 8f fd 28 00
       1.487457e-39 -5.613902e-39 -2.87612e-39 3.76438e-39
000220 38 3d 49 00 3d f9 03 80 e6 f7 0b 00 b7 cc 17 00
       6.725952e-39 -3.64916e-40 1.09912e-39 2.185654e-39
000230 b3 9c 10 80 13 8a 02 00 13 cf 1f 00 2a a3 49 80
       -1.525581e-39 2.33203e-40 2.921185e-39 -6.762523e-39
000240 3f 4b 41 00 2d 69 3c 80 9b 65 30 80 c7 6b 1a 80
       5.9963e-39 -5.54786e-39 -4.444553e-39 -2.426386e-39
000250 59 b1 24 00 a9 52 27 80 de 6a 1e 80 0e 0b 4b 00
       3.369698e-39 -3.611237e-39 -2.793402e-39 6.891628e-39
000260 cd c1 34 80 60 db 3b 80 b5 7f 30 00 8d b6 4a 80
       -4.844968e-39 -5.496991e-39 4.453916e-39 -6.861314e-39
000270 be ee 02 80 83 16 35 00 21 8f 0b 80 f5 34 3e 80
       -2.69316e-40 4.875357e-39 -1.061535e-39 -5.712798e-39
000280 2e 19 26 00 af 15 4a 00 63 54 47 00 43 4c 47 00
       3.498782e-39 6.803605e-39 6.550592e-39 6.547678e-39
000290 29 0b 19 00 78 4b 04 00 63 e7 31 80 4a e8 45 00
       2.299891e-39 3.94415e-40 -4.582945e-39 6.419979e-39
0002a0 1b 16 47 80 c8 2c 1a 00 30 17 47 00 09 75 31 80
       -6.52825e-39 2.403787e-39 6.528638e-39 -4.541924e-39
0002b0 d1 24 11 80 55 1a 26 00 88 ad 47 00 d6 bf 1b 00
       -1.57441e-39 3.499195e-39 6.582572e-39 2.548376e-39
0002c0 ea 26 3e 80 48 0b 1f 80 b5 fc 0d 80 ca 0b 0d 00
       -5.70776e-39 -2.850947e-39 -1.284516e-39 1.19809e-39
0002d0 1e d3 0f 80 83 8c 0e 00 e4 8c 3e 00 66 7f 01 00
       -1.453267e-39 1.336103e-39 5.744343e-39 1.37537e-40
0002e0 e0 44 42 00 68 64 4a 80 fb 71 33 00 3f 73 0f 80
       6.08585e-39 -6.831846e-39 4.724499e-39 -1.418875e-39
0002f0 76 5c 3b 80 90 d5 20 00 22 3e 4a 00 b8 20 2c 00
       -5.451463e-39 3.015348e-39 6.818116e-39 4.052499e-39
000300 4f 6f 14 00 e9 82 25 00 21 d0 01 80 c3 90 2b 80
       1.87664e-39 3.444875e-39 -1.66498e-40 -4.000857e-39
000310 ce 22 39 80 4a e9 41 80 a6 d9 3b 80 fd 73 28 80
       -5.247109e-39 -6.052996e-39 -5.496372e-39 -3.715029e-39
000320 36 61 07 80 a6 59 05 00 a0 d6 49 00 d1 74 17 00
       -6.77721e-40 4.91337e-40 6.780984e-39 2.154122e-39
000330 15 75 42 80 73 95 27 00 b4 bc 4a 00 85 cd 32 00
       -6.103144e-39 3.635197e-39 6.86352e-39 4.665501e-39
000340 a8 fb 4a 00 cb f9 30 80 23 e0 2e 80 b7 56 42 80
       6.886104e-39 -4.497713e-39 -4.304838e-39 -6.09225e-39
000350 dc d7 28 00 0e 7b 25 00 8f 70 0e 00 ca e6 03 00
       3.750856e-39 3.442057e-39 1.326075e-39 3.58298e-40
000360 8d ef 32 80 ff f1 39 00 e9 ee 24 00 a0 fb 22 80
       -4.67771e-39 5.321435e-39 3.391783e-39 -3.212673e-39
000370 b8 83 04 80 12 71 41 80 d2 24 09 80 30 b7 45 80
       -4.14594e-40 -6.009869e-39 -8.39728e-40 -6.402365e-39
000380 46 c4 2b 00 4a 45 40 00 eb 2c 0b 80 3c 90 38 80
       4.019336e-39 5.902328e-39 -1.026304e-39 -5.19453e-39
000390 ac f1 2e 00 bf 2d 1a 00 d1 b1 04 80 15 ad 0c 00
       4.311128e-39 2.404134e-39 -4.3113e-40 1.164116e-39
0003a0 74 82 3c 80 d9 a1 0a 80 41 a5 26 80 e7 bf 00 80
       -5.556928e-39 -9.76415e-40 -3.549031e-39 -6.8842e-41
0003b0 38 21 20 80 9f aa 06 00 62 86 00 00 73 e6 38 00
       -2.950653e-39 6.1222e-40 4.8207e-41 5.225457e-39
0003c0 bc 5d 22 00 2d e5 31 80 2a 3d 47 80 fb 99 13 80
       3.156032e-39 -4.582152e-39 -6.542262e-39 -1.800112e-39
0003d0 f0 b5 1e 80 bd 40 07 80 e0 b3 4b 00 d2 a4 0d 80
       -2.820332e-39 -6.66072e-40 6.952189e-39 -1.252988e-39
0003e0 05 85 49 80 63 48 43 00 f7 74 02 80 61 76 00 00
       -6.75171e-39 6.178946e-39 -2.2563e-40 4.2466e-41
0003f0 ca e1 43 80 37 64 08 00 0c 06 01 00 59 ae 3d 80
       -6.233976e-39 7.70634e-40 9.4005e-41 -5.66451e-39

W_cnn.2.weight f4 [1, 1, 23, 23]
000000 d0 c0 3e 80 8d e1 1b 00 01 d7 18 00 3d dd 05 00
       -5.762969e-39 2.560471e-39 2.281181e-39 5.38543e-40
000010 0c db 4b 80 b3 a9 1b 00 6b a7 45 80 22 c9 1b 00
       -6.966241e-39 2.540435e-39 -6.396707e-39 2.551711e-39
000020 63 bc 49 00 f8 2b 46 80 19 ed 20 00 6a 6a 49 80
       6.771572e-39 -6.444258e-39 3.02379e-39 -6.742165e-39
000030 9a 1f 29 00 2d b8 36 80 a8 54 46 80 c7 cc 45 00
       3.776592e-39 -5.025187e-39 -6.458854e-39 6.41011e-39
000040 72 34 1c 80 bd 42 23 80 83 98 47 00 f8 65 27 80
       -2.590208e-39 -3.238184e-39 6.575031e-39 -3.618164e-39
000050 1b 13 28 00 29 c1 39 00 0c 14 42 00 a9 76 0b 00
       3.680274e-39 5.303916e-39 6.068334e-39 1.052758e-39
000060 31 1f 24 80 a7 45 03 00 6f c0 35 80 26 87 1b 80
       -3.317267e-39 3.00493e-40 -4.936313e-39 -2.52804e-39
000070 c5 f5 32 00 7b c5 1e 80 90 8b 17 00 bb a8 45 00
       4.67994e-39 -2.825908e-39 2.162282e-39 6.397178e-39
000080 df 5b 3f 80 86 e2 02 00 af 7a 4b 80 c6 62 18 00
       -5.818593e-39 2.64932e-40 -6.931673e-39 2.239485e-39
000090 07 fa 18 80 43 9b 30 80 5a 93 37 00 ee 19 29 80
       -2.293745e-39 -4.463801e-39 5.103812e-39 -3.774557e-39
0000a0 c3 d3 48 80 f0 37 01 80 fe 8a 0b 80 e2 b5 26 00
       -6.688122e-39 -1.11902e-40 -1.060051e-39 3.554996e-39
0000b0 ff 7d 3e 00 ab f9 0b 00 62 c7 22 80 62 05 33 80
       5.739e-39 1.099754e-39 -3.193932e-39 -4.685541e-39
0000c0 89 bf 16 80 90 0b 49 80 98 33 29 80 b5 31 45 00
       -2.089091e-39 -6.708139e-39 -3.783764e-39 6.354481e-39
0000d0 1d 17 04 00 56 6c 01 00 9b d2 3a 00 35 bb 36 80
       3.75633e-40 1.30699e-40 5.40201e-39 -5.026274e-39
0000e0 75 60 13 00 38 2e 42 80 ac 25 09 00 e7 a4 47 80
       1.779477e-39 -6.077723e-39 8.40034e-40 -6.579476e-39
0000f0 d4 1f 2c 80 5a ae 22 00 fb b1 4a 80 de 76 1d 80
       -4.05218e-39 3.184952e-39 -6.859674e-39 -2.705871e-39
000100 09 f5 09 00 cf 82 09 00 0e bb 28 80 6a d2 35 00
       9.14422e-40 8.73445e-40 -3.740522e-39 4.942764e-39
000110 23 86 13 00 c0 c0 11 80 62 5d 34 80 bb 21 45 80
       1.792994e-39 -1.630349e-39 -4.808945e-39 -6.34875e-39
000120 f4 27 31 80 b8 a8 49 80 d2 ed 10 80 2e 64 20 00
       -4.514272e-39 -6.764516e-39 -1.554682e-39 2.974674e-39
000130 10 94 33 00 04 bf 29 00 6f 39 2e 80 37 d8 20 80
       4.736725e-39 3.833779e-39 -4.245036e-39 -3.016299e-39
000140 64 b3 3a 80 17 f2 10 00 21 df 37 80 8c cf 04 80
       -5.390812e-39 1.556213e-39 -5.130996e-39 -4.41796e-40
000150 eb f8 1b 00 bd dd 35 80 b6 05 2a 80 bd 2a 21 00
       2.568853e-39 -4.946826e-39 -3.85914e-39 3.045903e-39
000160 01 2d 2b 80 24 02 17 00 17 e3 1f 80 56 64 4b 00
       -3.96507e-39 2.112984e-39 -2.928365e-39 6.923656e-39
000170 da 3c 30 80 7b 81 1c 80 15 6e 2f 00 62 4d 3e 00
       -4.429933e-39 -2.617843e-39 4.355758e-39 5.72156e-39
000180 73 42 34 80 78 d0 16 00 39 ed 0e 00 4d 64 4a 00
       -4.799283e-39 2.095165e-39 1.370796e-39 6.831808e-39
000190 d4 78 05 00 f5 e3 0f 00 27 ab 2a 80 c8 96 22 80
       5.02522e-40 1.459308e-39 -3.918489e-39 -3.176497e-39
0001a0 36 4e 23 80 dc 85 47 80 62 d4 0d 80 91 80 0f 00
       -3.242299e-39 -6.56834e-39 -1.27005e-39 1.423653e-39
0001b0 6b 91 47 80 bf 85 0a 00 07 b3 12 00 ae 5a 4b 00
       -6.572486e-39 9.66334e-40 1.717262e-39 6.920192e-39
0001c0 f3 4b 47 80 7a 15 02 00 8e 1a 49 00 5b 59 02 00
       -6.547566e-39 1.91375e-40 6.713517e-39 2.15726e-40
0001d0 4c cb 2b 00 86 9e 28 00 fb 21 4c 00 6a e0 1b 80
       4.021856e-39 3.730287e-39 6.991688e-39 -2.560063e-39
0001e0 ef 6d 12 00 bc 58 4b 00 ec 81 4b 00 42 85 07 80
       1.692476e-39 6.919494e-39 6.93427e-39 -6.90652e-40
0001f0 32 a7 04 80 cd d6 2e 80 27 8c 05 00 46 c9 1b 80
       -4.2732e-40 -4.301489e-39 5.09455e-40 -2.551762e-39
000200 67 5c 0d 80 a3 e3 27 00 db 37 05 80 66 a6 25 80
       -1.227009e-39 3.663245e-39 -4.79215e-40 -3.457606e-39
000210 cc 46 0e 00 6d 08 25 80 8b ed 4a 00 fb e8 2d 00
       1.311094e-39 -3.400936e-39 6.881041e-39 4.216175e-39
000220 67 1c 28 80 a8 1a 0e 00 33 5f 10 00 2a 91 27 80
       -3.683609e-39 1.29526e-39 1.503519e-39 -3.63366e-39
000230 53 9c 3c 80 a0 5d 47 00 30 8b 1c 80 29 eb 17 80
       -5.566208e-39 6.553907e-39 -2.621325e-39 -2.196576e-39
000240 b5 de 40 00 c4 01 3f 00 bc c4 1b 80 54 8f 23 00
       5.957364e-39 5.78627e-39 -2.550133e-39 3.265659e-39
000250 8a 51 44 80 97 c9 0a 80 a2 1b 4c 80 82 d4 0b 00
       -6.274064e-39 -9.90672e-40 -6.98941e-39 1.086424e-39
000260 26 bf 15 00 cd 6d 31 80 8e 35 36 80 3f df 0e 80
       1.997117e-39 -4.539328e-39 -4.978329e-39 -1.365783e-39
000270 05 28 2f 80 f3 d5 45 00 32 cb 14 80 26 26 32 80
       -4.330625e-39 6.4134e-39 -1.909603e-39 -4.60546e-39
000280 55 3b 32 00 83 7b 3d 80 b9 95 30 00 e8 82 10 00
       4.613059e-39 -5.646273e-39 4.461814e-39 1.516328e-39
000290 ec d1 2c 00 11 ea 14 80 ff a8 1b 80 31 9e 37 00
       4.116068e-39 -1.920677e-39 -2.540183e-39 5.1077e-39
0002a0 5a d1 28 00 d9 b5 2e 80 31 bd 2e 00 aa d0 49 80
       3.748521e-39 -4.289667e-39 4.292302e-39 -6.778846e-39
0002b0 ee 20 26 00 ff 46 4b 80 f6 6a 05 80 c6 44 2e 00
       3.501562e-39 -6.913131e-39 -4.97548e-40 4.249104e-39
0002c0 3b 76 2e 80 65 b4 0a 00 48 4c 3e 00 6c ec 48 80
       -4.266846e-39 9.83068e-40 5.721165e-39 -6.696968e-39
0002d0 bc e5 0e 00 2b 6f 24 80 ac f5 30 80 29 7b 2c 00
       1.36811e-39 -3.345957e-39 -4.496234e-39 4.084943e-39
0002e0 79 1f 3f 00 7d 89 31 80 91 fe 46 00 65 b2 38 00
       5.796927e-39 -4.549261e-39 6.519806e-39 5.206784e-39
0002f0 89 4d 31 80 dc 4b 22 80 87 d2 2e 00 71 46 11 00
       -4.527754e-39 -3.14962e-39 4.299956e-39 1.586473e-39
000300 a1 02 39 80 0b c7 3f 00 25 c1 23 80 a5 eb 0f 00
       -5.235566e-39 5.85704e-39 -3.28353e-39 1.462066e-39
000310 4b d5 47 80 81 57 35 00 b1 01 33 00 2e 66 4b 80
       -6.596835e-39 4.898672e-39 4.684217e-39 -6.924317e-39
000320 16 56 1f 00 a6 53 18 00 b5 5a 2e 80 ec cf 06 80
       2.877782e-39 2.23406e-39 -4.256972e-39 -6.25601e-40
000330 d8 5e 0d 00 ef df 29 80 80 f0 32 80 43 a9 2a 00
       1.227885e-39 -3.845588e-39 -4.67805e-39 3.91781e-39
000340 0e 10 1c 80 f4 71 3c 80 38 a3 3d 00 2f 0f 4c 00
       -2.577153e-39 -5.551008e-39 5.660517e-39 6.984945e-39
000350 0c 4a 3e 80 d1 d3 2c 00 c1 8c 04 00 a1 dc 41 80
       -5.720364e-39 4.116747e-39 4.17835e-40 -6.048454e-39
000360 05 c5 38 00 d1 03 34 80 44 29 47 00 6f 60 2f 80
       5.213465e-39 -4.776815e-39 6.535124e-39 -4.350862e-39
000370 bc 82 38 00 f3 31 3c 00 43 0b 4a 80 90 26 06 80
       5.189686e-39 5.528048e-39 -6.799867e-39 -5.64847e-40
000380 de a7 2e 00 d3 f4 13 00 2c 00 16 80 d7 38 36 80
       4.284652e-39 1.832701e-39 -2.020443e-39 -4.979507e-39
000390 11 02 14 00 68 a2 1c 00 4b ef 07 80 94 f3 0f 80
       1.837451e-39 2.629654e-39 -7.2869e-40 -1.464912e-39
0003a0 84 4f 05 80 97 99 36 00 99 84 40 00 c1 f4 31 80
       -4.87702e-40 5.014214e-39 5.925039e-39 -4.58774e-39
0003b0 d9 99 1b 00 d6 a2 21 80 95 77 4a 80 b0 fb 29 00
       2.534749e-39 -3.088986e-39 -6.838725e-39 3.855544e-39
0003c0 80 92 08 80 9d 75 49 00 29 dd 3c 80 56 68 49 00
       -7.87238e-40 6.746183e-39 -5.589467e-39 6.74142e-39
0003d0 4a ed 2a 00 13 77 37 80 6a 94 31 00 d4 e8 32 00
       3.942214e-39 -5.093668e-39 4.55318e-39 4.675298e-39
0003e0 9e 98 41 00 b5 69 2b 80 99 69 1a 00 a6 5f 1c 00
       6.024056e-39 -3.986847e-39 2.425604e-39 2.605706e-39
0003f0 c6 22 31 80 57 d0 19 80 01 45 49 00 02 44 1e 80
       -4.512414e-39 -2.370626e-39 6.728745e-39 -2.779461e-39

W_attention.weight f4 [10, 10]
000000 e0 f0 43 00 75 a5 22 80 04 b3 2d 00 63 ca 28 00
       6.239388e-39 -3.181762e-39 4.196816e-39 3.746023e-39
000010 4e 0a 38 00 d9 5c 23 80 7c 46 09 00 c0 29 00 80
       5.146484e-39 -3.24755e-39 8.51804e-40 -1.4977e-41
000020 7d 4d 2c 00 d5 31 2a 80 59 14 3b b6 a4 f2 7f b4
       4.06856e-39 -3.874967e-39 -2.7877015e-06 -2.3836998e-07
000030 12 9c 54 b7 51 f7 b4 b5 a8 a3 ab b6 d4 c2 20 b3
       -1.2672523e-05 -1.3483024e-06 -5.115249e-06 -3.7430098e-08
000040 6a 5e ab b2 4c c7 a8 b5 a0 eb 9b b0 1f 98 e3 b5
       -1.9949955e-08 -1.2574978e-06 -1.1344703e-09 -1.6957091e-06
000050 d5 68 f6 3b 9b b5 19 bb e9 17 80 3c 6b 90 06 3c
       0.007519821 -0.0023454193 0.015636401 0.008213143
000060 5c ff 08 3c 12 97 77 bb b6 c7 12 3c 5a c7 ec 3a
       0.008361664 -0.0037779254 0.008958748 0.0018064782
000070 a8 ff ac bb 51 f2 f5 3b ac ec 91 ba 30 bc f3 38
       -0.0052795 0.007505693 -0.0011133156 0.000116221956
000080 38 59 6a 3a c9 7a 4e 3c d4 90 9f 3c 44 55 f5 3b
       0.0008939686 0.012602516 0.01947824 0.007486971
000090 0b bc 69 bb 27 27 99 3a 46 92 89 bb f7 c8 66 3c
       -0.003566506 0.0011684642 -0.0041983454 0.014086
0000a0 e2 58 af 3c ea 0b a7 ba 59 9f 74 3c 1e 3b 95 3c
       0.021404687 -0.001274464 0.01493057 0.018216666
0000b0 40 de 64 3c ba 14 43 3c ea 38 82 3b 34 eb cf 3b
       0.013969004 0.011906797 0.00397407 0.006345177
0000c0 cc 16 96 bc 2e fb 0e 3d 21 ae 63 bd ea 66 8b bd
       -0.018321417 0.034907512 -0.055585984 -0.06806739
0000d0 97 76 b6 bb ef cb f6 3c 64 86 8f bd 2e c0 4b 3b
       -0.005568336 0.03012654 -0.07008055 0.003108989
0000e0 14 51 31 bd bf c0 81 bd f0 35 ac bc bf 08 3d 3d
       -0.043290213 -0.063355915 -0.021021813 0.04615092
0000f0 6a ce d8 37 db ea 04 39 20 9f 2d 3a da 5e 54 ba
       2.5845326e-05 0.00012675991 0.0006623138 -0.0008101292
000100 a9 51 69 3b 20 2e 44 39 5f 72 a3 37 e6 4a f8 b7
       0.0035601652 0.000187092 1.9484372e-05 -2.9598781e-05
000110 71 f1 e6 36 be 6b 4c 39 73 4a 90 bb 76 28 a9 bb
       6.8826416e-06 0.00019495093 -0.0044034063 -0.005162294
000120 46 b9 26 bb a3 61 87 38 a9 f3 ff 3a 02 41 88 bb
       -0.0025440021 6.455488e-05 0.0019527572 -0.00415814
000130 c0 91 e0 bb 09 64 94 bb 43 b2 11 bc 57 c7 d8 ba
       -0.0068533123 -0.0045285267 -0.008892599 -0.00165389
000140 4b 95 90 ba fb 98 1a ba 37 ae 18 ba bb 97 fa b9
       -0.0011030821 -0.00058974297 -0.00058243 -0.00047796764
000150 9e dc 20 ba 6f f6 f7 b9 8a 94 88 ba ad 76 44 ba
       -0.000613639 -0.0004729512 -0.0010420245 -0.0007494491
000160 1e 66 00 b8 4b 5a 98 b9 72 58 cc ba 04 df 80 b9
       -3.0612682e-05 -0.00029058973 -0.0015590324 -0.00024580222
000170 01 60 d7 ba eb d3 da b9 aa 1f fe b9 33 7d 65 b9
       -0.001643181 -0.0004173809 -0.00048470247 -0.00021885782
000180 e7 77 83 ba 41 de 46 ba 27 f8 f4 b7 0d a8 c0 b9
       -0.001003024 -0.0007586219 -2.9202622e-05 -0.000367463

W_attention.bias f4 [10]
000000 a0 93 55 97 8d bf e1 ba fd 00 ae bb 05 55 a5 bb
       -6.901034e-25 -0.0017223224 -0.0053101764 -0.0050455355
000010 3a ec 96 bc 38 90 2b 3d 17 88 2c bc 49 b7 8d 3b
       -0.018423188 0.041885585 -0.010530493 0.004324828
000020 47 ce 99 39 33 7c d5 bb
       0.00029336123 -0.00651505
